ec_l2o_log/mtl_0.5_1_1_0.2/lstm_unroll.pth (torch, 13115 bytes, 13 tensors)

lstm.weight_ih_l0 f4 [40, 2]
0.1707651 0.073193304 -0.04719542 0.5204272 0.03180567 0.43737385 0.3131471 0.49152565
-0.28283298 0.24182029 0.9947927 0.57949704 0.4079017 0.22247463 0.341319 0.22165418
0.33691248 -0.03867709 0.32154077 0.47799397 -0.43359327 -0.11373525 0.092604145 -0.020539029
-0.47997108 0.77987325 0.44936648 0.15986128 -0.10577214 -0.07098402 -0.057685543 0.28847104
-0.25162593 0.57518345 0.18237062 -0.0098255975 0.26303506 -0.3232921 -0.12918192 0.8104193
0.39179426 0.008125049 0.14415139 -0.22105157 0.26390734 0.37428018 0.0038647833 -0.030106312
0.26742736 0.704648 -0.6490842 -0.16913661 0.47851476 0.5247788 -0.23375311 0.47451043
0.30393472 -0.11002187 0.41775712 0.7694116 0.2722283 0.13224624 0.27297664 0.8823278
0.106184594 0.90314126 -0.094221145 0.45582727 -0.16617253 0.0059436862 0.33757412 -0.05144579
-0.16113208 -0.39022318 0.7782277 -0.08701089 0.38127446 0.088769294 -0.031155795 0.5547354
00000000: 0cdd 2e3e 5fe6 953d fc4f 41bd b83a 053f
00000010: aa46 023d 77ef df3e d154 a03e 40a9 fb3e
00000020: 7ccf 90be bd9f 773e bcaa 7e3f eb59 143f
00000030: 7ed8 d03e 64d0 633e 5dc1 ae3e 50f9 623e
00000040: cb7f ac3e de6b 1ebd fea0 a43e a0bb f43e
00000050: f0ff ddbe 07ee e8bd 3ea7 bd3d 7741 a8bc
00000060: c5be f5be c6a5 473f 5d13 e63e adb2 233e
00000070: 109f d8bd 1260 91bd ad47 6cbd 7ab2 933e
00000080: 1dd5 80be 393f 133f 5dbf 3a3e 8bfb 20bc
00000090: 88ac 863e 8b86 a5be 4448 04be a477 4f3f
000000a0: 4299 c83e ed1e 053c 6c9c 133e 585b 62be
000000b0: dd1e 873e a7a1 bf3e 4e48 7d3b 83a1 f6bc
000000c0: 3dec 883e d063 343f 622a 26bf 2632 2dbe
000000d0: e3ff f43e e757 063f fa5c 6fbe 08f3 f23e
000000e0: 559d 9b3e 2553 e1bd 43e4 d53e 29f8 443f
000000f0: 8261 8b3e 8f6b 073e 98c3 8b3e 3ce0 613f
00000100: 4f77 d93d 4434 673f 04f7 c0bd 3162 e93e
00000110: 2229 2abe 41c3 c23b 84d6 ac3e d2b8 52bd
00000120: cfff 24be 55cb c7be ee39 473f c432 b2bd
00000130: 6836 c33e adcc b53d 703a ffbc 2403 0e3f

lstm.weight_hh_l0 f4 [40, 10]
-0.1035902 0.12088494 0.3211906 0.21723858 -0.060525242 -0.55384487 0.37623292 0.44708705
0.23426612 0.4800807 -0.0216222 0.022213858 -0.22818331 0.39866197 -0.29236025 0.024898574
0.3539201 0.13073218 0.20992792 0.12807272 -0.3020877 0.15316264 0.15688895 0.06937566
0.33399653 -0.35444105 -0.2873 0.08645011 -0.29826126 0.34258273 0.0013193227 0.05752347
0.25371695 0.025236683 -0.139275 0.011236571 0.30231568 0.25822884 -0.22096436 -0.16145745
0.421167 -1.0347695 0.8271341 1.0371108 -0.6413762 -0.050962422 0.56671983 0.93614286
0.35132617 0.17793691 -0.016414165 0.17117718 -0.080521606 0.3030382 0.29965422 -0.13093159
-0.38144746 -0.27296755 0.32597438 0.6060371 0.23659591 -0.06801815 0.37063596 0.3464954
0.3298467 -0.16594131 0.27683327 0.17713706 0.14009932 0.649076 0.02789147 -0.73606014
0.63533896 0.16342916 0.5837875 -0.27670044 0.6120057 0.4141099 0.7261893 0.24122007
-0.07139771 0.060872994 -0.067792796 0.2362379 -0.2748423 0.14825393 -0.18789366 -0.021075478
0.035588183 0.35004202 0.5129105 -0.4698272 0.53232545 0.68011665 -0.21256782 -0.04489927
0.44299015 0.71973026 0.44340447 0.55962765 -0.06530424 0.10123553 0.13661645 -0.017208803
-0.15285006 -0.36158386 -0.03380659 0.005570174 0.09168867 -0.026861422 0.27650717 0.07921312
-0.22258 0.059509616 -0.06738959 -0.22026032 0.041151315 -0.30124673 -0.034665562 -0.23207334
-0.05261029 0.11131579 0.27608347 0.0703925 0.121597156 -0.0076960186 -0.27735826 0.2082311
-0.20897956 0.2806272 -0.07056398 -0.29319122 -0.07766973 -0.26855758 -0.095596395 0.12952666
-0.038324583 -0.20092583 0.05290417 -0.29044324 -0.25306696 0.025881462 -0.4551975 -0.26814392
-0.59140635 0.44712403 0.17731096 -0.0063049854 -0.38587645 -0.12526213 -0.05921525 0.23676586
0.18843494 -0.12867366 0.6237983 -0.06129573 -0.06966715 0.32811332 0.009961974 0.3375501
0.511845 -0.3052431 0.13357772 0.20999776 0.34737462 -0.3373329 0.6064629 0.6646178
0.25907797 0.2609756 -0.3200063 -0.14274675 0.02724549 0.22016272 0.51728433 -0.008339881
-0.20437618 0.26804802 0.07505771 0.12921438 -0.13658044 -0.095971055 0.029339131 0.28115726
-0.020754755 0.13412434 0.111751474 -0.23096111 0.14051439 0.25156042 0.31203604 -0.44583872
-0.07838974 -0.07063142 -0.13906634 0.35252365 0.12266227 0.30197725 -0.2588876 0.17339785
-0.029106382 0.1136773 0.55638224 0.277727 -0.14617729 -0.67501456 0.5605224 0.39038774
-0.081737995 0.36012954 -0.15639909 0.2773356 0.0852626 -0.19933997 0.29909047 -0.019808782
-0.14845721 -0.17851692 0.21202084 0.3287003 -0.012123491 -0.45675433 0.07686525 0.32373518
-0.07639213 0.18857451 0.33747563 0.40924874 0.45256665 0.35288885 0.35683239 -0.17425835
0.38504946 0.29036692 -0.11958672 0.19910446 -0.103893094 0.29908875 0.39284015 -0.072542764
0.24701479 -0.2697262 0.088692896 0.04291858 0.09452932 0.40939626 -0.36521482 -0.44427505
-0.3621043 -0.046941757 -0.09940381 -0.18215564 -0.16654089 0.29999617 -0.6326662 0.12278404
00000000: 1927 d4bd 8692 f73d 1873 a43e ca73 5e3e
00000010: 51e9 77bd c7c8 0dbf 9aa1 c03e 98e8 e43e
00000020: 75e3 6f3e 23cd f53e 0a21 b1bc d6f9 b53c
00000030: e3a8 69be 6c1d cc3e 3eb0 95be 18f8 cb3c
00000040: 0435 b53e a8de 053e 58f7 563e 7f25 033e
00000050: 3dab 9abe abd6 1c3e 7fa7 203e d314 8e3d
00000060: 9801 ab3e 4c79 b5be fc18 93be c10c b13d
00000070: b3b5 98be 0167 af3e 20ed ac3a bb9d 6b3d
00000080: 30e7 813e 29bd ce3c 1b9e 0ebe 9819 383c
00000090: 1fc9 9a3e 9236 843e 7b44 62be 1a55 25be
000000a0: 33a3 d73e 5473 84bf 0fbf 533f 0cc0 843f
000000b0: 3b31 24bf f9bd 50bd 8d14 113f 0fa7 6f3f
000000c0: 06e1 b33e 1835 363e 0077 86bc 1249 2f3e
000000d0: 83e8 a4bd d327 9b3e 476c 993e ee12 06be
000000e0: 154d c3be 67c2 8bbe 1de6 a63e 3f25 1b3f
000000f0: 3346 723e 1a4d 8bbd ffc3 bd3e d867 b13e
00000100: abe1 a83e 85ec 29be 17bd 8d3e 6b63 353e
00000110: 3276 0f3e d829 263f a77c e43c 706e 3cbf
00000120: 93a5 223f f959 273e 1973 153f aeab 8dbe
00000130: 68ac 1c3f 3606 d43e 8be7 393f 6502 773e
00000140: f638 92bd f655 793d f3d6 8abd 59e8 713e
00000150: 21b8 8cbe e1cf 173e 3267 40be 7ba6 acbc
00000160: eac4 113d b538 b33e 1a4e 033f 318d f0be
00000170: 7b46 083f 201c 2e3f 61ab 59be 4ce8 37bd
00000180: 9bcf e23e 3e40 383f e905 e33e c243 0f3f
00000190: 3bbe 85bd 9354 cf3d 2fe5 0b3e 7af9 8cbc
000001a0: ba84 1cbe 8521 b9be c778 0abd 0286 b63b
000001b0: 45c7 bb3d 7c0c dcbc 5992 8d3e 7d3a a23d
000001c0: 03ec 63be 5bc0 733d 8e03 8abd ec8b 61be
000001d0: 488e 283d 033d 9abe 7afd 0dbd a2a4 6dbe
000001e0: e37d 57bd 88f9 e33d d05a 8d3e f129 903d
000001f0: ee07 f93d e22e fcbb e701 8ebe 893a 553e
00000200: bdfe 55be 5eae 8f3e d983 90bd 291d 96be
00000210: 4f11 9fbd 6180 89be 0bc8 c3bd a3a2 043e
00000220: 3dfa 1cbd 80bf 4dbe 0bb2 583d fab4 94be
00000230: fe91 81be 5c05 d43c a60f e9be 294a 89be
00000240: 6866 17bf 71ed e43e 0191 353e 0d9a cebb
00000250: 9991 c5be b744 00be b18b 72bd c072 723e
00000260: 17f5 403e 07c3 03be 3fb1 1f3f 3b11 7bbd
00000270: a7ad 8ebd 78fe a73e 8c37 233c 5ed3 ac3e
00000280: 4608 033f d348 9cbe 99c8 083e a709 573e
00000290: 16db b13e e6b6 acbe 2741 1b3f 6424 2a3f
000002a0: dea5 843e 989e 853e ded7 a3be 342c 12be
000002b0: ef31 df3c 5672 613e bf6c 043f ffa3 08bc
000002c0: fd47 51be 973d 893e dbb7 993d c650 043e
000002d0: bedb 0bbe 798c c4bd 9e58 f03c d8f3 8f3e
000002e0: e005 aabc e457 093e f5dd e43d 1281 6cbe
000002f0: 01e3 0f3e 87cc 803e 30c3 9f3e f944 e4be
00000300: cd8a a0bd 35a7 90bd 6867 0ebe fb7d b43e
00000310: 5b36 fb3d c39c 9a3e ea8c 84be 358f 313e
00000320: 8270 eebc a5cf e83d 116f 0e3f 3c32 8e3e
00000330: 80af 15be c1cd 2cbf 657e 0f3f e7e0 c73e
00000340: 4066 a7bd e662 b83e 1527 20be effe 8d3e
00000350: 289e ae3d c71f 4cbe 6322 993e 0746 a2bc
00000360: 2b05 18be 24cd 36be fe1b 593e 684b a83e
00000370: 9ba1 46bc b4db e9be 876b 9d3d 9ec0 a53e
00000380: 7a73 9cbd ad19 413e 9bc9 ac3e 0d89 d13e
00000390: d1b6 e73e d9ad b43e bcb2 b63e c870 32be
000003a0: 3425 c53e f9aa 943e e2e9 f4bd 0ae2 4b3e
000003b0: e7c5 d4bd 2922 993e 5822 c93e 4d91 94bd
000003c0: 72f1 7c3e 8d19 8abe 9fa4 b53d 65cb 2f3d
000003d0: 9798 c13d 639c d13e 70fd babe 0578 e3be
000003e0: bc65 b9be 0046 40bd 3a94 cbbd 0287 3abe
000003f0: b289 2abe 1999 993e 69f6 21bf 3376 fb3d

lstm.bias_ih_l0 f4 [40]
0.5764866 0.091183245 0.2441715 0.0021270316 0.5264871 0.43026313 0.337105 0.72329813
0.18253946 0.3291042 -0.014793443 0.1751369 -0.34182823 0.18170223 -0.067521304 0.1394897
0.46674898 0.58857375 -0.09886244 -0.28575882 -0.10555962 -0.14990087 0.14312397 0.15825492
0.042768177 -0.101130016 0.22361849 0.22959736 0.3279275 0.04793485 0.3510093 0.157176
0.15868248 0.33124653 0.6113219 0.117882945 0.19119367 0.13492656 0.09586626 0.8204076
00000000: a094 133f 48be ba3d 1808 7a3e ab65 0b3b
00000010: dcc7 063f 734b dc3e 0799 ac3e 112a 393f
00000020: a0eb 3a3e 5880 a83e 3260 72bc 1657 333e
00000030: 1c04 afbe 2610 3a3e 9c48 8abd 63d6 0e3e
00000040: b9f9 ee3e c5ac 163f 6478 cabd fb4e 92be
00000050: a42f d8bd 9d7f 19be 178f 123e 940d 223e
00000060: af2d 2f3d 411d cfbd 3ffc 643e 921b 6b3e
00000070: 1de6 a73e 5557 443d 7eb7 b33e bff2 203e
00000080: a97d 223e 2599 a93e 987f 1c3f 9d6c f13d
00000090: 46c8 433e 302a 0a3e 8855 c43d 3c06 523f

lstm.bias_hh_l0 f4 [40]
0.40114754 0.3246973 -0.05153196 0.118829906 0.32781807 0.21746637 0.6543916 0.18623692
0.38639274 0.37926582 0.15569195 0.19717889 -0.19784354 -0.13053137 -0.34268793 0.3870465
0.46230143 0.6252927 0.2089602 -0.15384741 0.059616104 -0.35718107 0.09256411 0.05668449
0.08656027 0.24693194 -0.23172931 0.42191207 0.29898378 -0.12972237 0.2415715 0.1802335
0.038824517 0.05559946 0.41791293 0.5221464 0.10791646 0.2032632 0.33045164 0.799419
00000000: 3663 cd3e b93e a63e 2d13 53bd 185d f33d
00000010: c5d7 a73e 81af 5e3e 3586 273f e4b4 3e3e
00000020: 45d5 c53e 212f c23e b66d 1f3e 43e9 493e
00000030: 7f97 4abe 04aa 05be cb74 afbe f52a c63e
00000040: c6b2 ec3e 2f13 203f aaf9 553e 2d8a 1dbe
00000050: 0430 743d 70e0 b6be 4192 bd3d ff2d 683d
00000060: 8346 b13d badb 7c3e 734a 6dbe dc04 d83e
00000070: 6714 993e f1d5 04be 855e 773e 218f 383e
00000080: 7506 1f3d 42bc 633d aff8 d53e 63ab 053f
00000090: 4e03 dd3d 3a24 503e f530 a93e b9a6 4c3f

lstm.weight_ih_l1 f4 [40, 10]
0.5469756 -0.29601312 0.49327016 0.29620415 0.15503183 -0.3826777 0.43195012 0.059159078
-0.12252257 0.64748365 0.14030375 -0.109624766 -0.10302369 0.14761832 0.17029506 -0.23727736
-0.026371213 0.0022729486 0.032388523 0.08977463 0.3619743 0.01148074 0.042464957 0.52888465
-0.42241 0.30612475 0.68975157 0.033885784 0.15068448 0.12566283 -0.067168094 -0.046541367
0.011886009 0.17874469 -0.63977087 -0.4190292 0.21041293 0.31084543 -0.15770686 -0.19837484
-0.15311852 -0.25330314 0.1216496 0.5183259 0.3977099 -0.22711222 0.48329648 0.4280464
0.4265325 0.00795561 0.4039192 0.29168028 0.023311889 0.15707107 0.3802227 -0.70185024
-0.052110836 -0.16919939 -0.15669337 0.28951165 0.1183233 -0.21346158 -0.19817084 -0.042988848
-0.76274276 0.18559065 0.44814923 0.4018095 0.37924108 0.066992 0.4337483 -0.33153751
0.21201442 0.37989306 -0.14250726 -0.6768318 0.44504642 0.023274224 0.07773097 0.6234779
-0.14620125 -0.12226565 0.26646596 0.075104095 0.07308046 0.22984143 -0.08876055 0.38297546
0.04262717 0.05920233 0.25484982 0.10695238 0.23107328 -0.087964304 0.1116209 -0.13588196
0.25213525 0.22926646 -0.0072359466 0.17339936 0.3779776 0.07961403 0.3172247 0.23329005
-0.07101936 -0.18423988 0.40202868 0.06350767 0.13906479 0.20119126 -0.13585655 -0.03108065
-0.0057151346 0.18249169 0.58747053 -0.5832975 0.12713611 0.12996313 0.1588831 0.58760077
0.20508392 0.12511471 -0.18599834 0.21628563 -0.000109867055 0.59435797 -0.21190037 -0.18900338
0.10783809 0.15119697 0.016519558 -0.2410709 -0.18766908 -0.21968095 -0.45847744 -0.18424824
-0.1481301 0.21333046 0.05902539 -0.26688963 0.41843352 -0.15870081 0.3538226 0.40488374
0.44580984 -0.45151418 0.101470746 0.4545905 -0.14026871 0.5156656 0.15128174 -0.10322348
0.33054772 -0.18110353 -0.3555402 -0.44417036 0.054352123 0.24593545 0.20961712 0.10899416
-0.14511894 0.18905665 -0.3744421 -0.33579317 -0.66413426 0.17263001 0.22590643 -0.15666829
0.21619433 -0.55870026 0.35172206 -0.09548447 0.06202698 0.49845958 -0.32389632 0.064093076
0.2270573 0.42414987 0.09529493 0.26336184 0.08044158 0.07007788 0.19866993 -0.18005775
0.46093863 -0.052886296 0.121151134 -0.13825695 0.0688763 -0.088037424 0.051425416 -0.09810259
0.21939999 -0.121628806 0.049060594 0.08950941 0.31148046 -0.09035344 0.2698524 -0.251257
-0.20850915 0.26148787 -0.19593541 -0.34892875 -0.20790046 0.54185295 -0.3224429 -0.1795296
-0.091343254 -0.16962121 -0.085819475 0.1314085 -0.3685554 0.19835122 -0.058018535 0.46755454
-0.11624985 -0.19508111 0.05854825 -0.51191056 -0.3651559 -0.27855974 0.21831183 0.2956906
0.9395012 0.03689304 -0.37584177 0.1801661 -0.04410614 0.47989774 -0.26759207 0.028996203
-0.5284592 -0.21864088 0.073686875 0.47231367 -0.3837583 -0.12336831 -0.27832675 -0.5764472
0.09850202 0.26847798 -0.4578509 0.084265344 -0.27178895 -0.10955236 -0.17866461 -0.0016160448
-0.21344204 -0.0672009 0.48934796 0.14377692 -0.16533062 0.26809618 0.22125041 -0.6510984
00000000: 9806 0c3f 088f 97be e88d fc3e 12a8 973e
00000010: aac0 1e3e 55ee c3be 9128 dd3e ca50 723d
00000020: 1ded fabd 7dc1 253f c9ab 0f3e f382 e0bd
00000030: 16fe d2bd 4229 173e d461 2e3e d6f8 72be
00000040: 7108 d8bc c0f5 143b d4a9 043d c3db b73d
00000050: b254 b93e b719 3c3c bcef 2d3d fc64 073f
00000060: 2046 d8be 62bc 9c3e 8f93 303f d2cb 0a3d
00000070: 084d 1a3e c2ad 003e 6d8f 89bd 29a2 3ebd
00000080: 89bd 423c d908 373e 06c8 23bf ff8a d6be
00000090: 7d76 573e 2227 9f3e e87d 21be c622 4bbe
000000a0: 1acb 1cbe f3b0 81be 6d23 f93d 02b1 043f
000000b0: a2a0 cb3e 1b90 68be a372 f73e e628 db3e
000000c0: 7862 da3e 3f58 023c 7fce ce3e 1e57 953e
000000d0: 93f8 be3c 3dd7 203e 8dac c23e 75ac 33bf
000000e0: 2c72 55bd 9b42 2dbe 3a74 20be df3a 943e
000000f0: 7c53 f23d ac95 5abe 4ced 4abe 1315 30bd
00000100: 1c43 43bf 7a0b 3e3e d173 e53e fab9 cd3e
00000110: e32b c23e 1a33 893d 4214 de3e 49bf a9be
00000120: 4f1a 593e 5881 c23e 6ced 11be d944 2dbf
00000130: 20dd e33e 96a9 be3c 6a31 9f3d 3f9c 1f3f
00000140: c8b5 15be 6a66 fabd 3a6e 883e 2dd0 993d
00000150: 35ab 953d 8d5b 6b3e 17c8 b5bd 5c15 c43e
00000160: d499 2e3d 247e 723d ad7b 823e d909 db3d
00000170: 799e 6c3e a126 b4bd 8099 e43d a424 0bbe
00000180: df17 813e d4c4 6a3e 851b edbb 9a8f 313e
00000190: 4886 c13e ae0c a33d 476b a23e 96e3 6e3e
000001a0: 9972 91bd 61a9 3cbe b4d6 cd3e 4f10 823d
000001b0: 0067 0e3e 1505 4e3e fb1d 0bbe d99c febc
000001c0: 0646 bbbb 1adf 3a3e 7864 163f fc52 15bf
000001d0: f82f 023e 0e15 053e 40b2 223e 016d 163f
000001e0: 8501 523e 121e 003e 5976 3ebe fb79 5d3e
000001f0: 6d68 e6b8 d827 183f 69fc 58be 1a8a 41be
00000200: 37da dc3d 61d3 1a3e 0654 873c 4adb 76be
00000210: 532c 40be 0bf4 60be 8ebd eabe 92ab 3cbe
00000220: 6baf 17be 4d73 5a3e 9bc4 713d c2a5 88be
00000230: eb3c d63e 7782 22be 3c28 b53e ec4c cf3e
00000240: 3041 e43e de2c e7be e5cf cf3d 16c0 e83e
00000250: 9aa2 0fbe a902 043f 9ae9 1a3e d566 d3bd
00000260: 8d3d a93e 3473 39be 5d09 b6be 4c6a e3be
00000270: 55a0 5e3d 81d6 7b3e dfa5 563e 5538 df3d
00000280: 0f9a 14be 1198 413e e0b6 bfbe 15ed abbe
00000290: b404 2abf ecc5 303e 0454 673e a76d 20be
000002a0: 0c62 5d3e fb06 0fbf ea14 b43e 5d8d c3bd
000002b0: 0110 7e3d 1836 ff3e bdd5 a5be 3b43 833d
000002c0: b581 683e 2c2a d93e fd29 c33d 5dd7 863e
000002d0: 8ebe a43d fe84 8f3d 2170 4b3e 0f61 38be
000002e0: 2600 ec3e 4d9f 58bd 161e f83d 3b93 0dbe
000002f0: 040f 8d3d f74c b4bd 75a3 523d 03ea c8bd
00000300: 64aa 603e 8618 f9bd c3f3 483d b650 b73d
00000310: 5e7a 9f3e 390b b9bd 182a 8a3e c2a4 80be
00000320: 6c83 55be bde1 853e 4ba3 48be caa6 b2be
00000330: dce3 54be e0b6 0a3f 3c17 a5be 9cd6 37be
00000340: 2c12 bbbd 2fb1 2dbe 1fc2 afbd f38f 063e
00000350: 4bb3 bcbe 951c 4b3e d8a4 6dbd 4f63 ef3e
00000360: 6714 eebd 58c3 47be 4ad0 6f3d 920c 03bf
00000370: b7f5 babe 629f 8ebe 238d 5f3e c264 973e
00000380: 2783 703f 281d 173d 556e c0be 767d 383e
00000390: a4a8 34bd 28b5 f53e d401 89be 7289 ed3c
000003a0: 1a49 07bf 65e3 5fbe 25e9 963d 19d3 f13e
000003b0: f87b c4be 86a8 fcbd d880 8ebe 0b92 13bf
000003c0: 6dbb c93d f275 893e 6f6b eabe 4f93 ac3d
000003d0: ec27 8bbe fd5c e0bd dbf3 36be 77d1 d3ba
000003e0: 8d90 5abe a0a0 89bd d18b fa3e 423a 133e
000003f0: 6e4c 29be e743 893e 788f 623e 62ae 26bf

lstm.weight_hh_l1 f4 [40, 10]
-0.16508338 0.13480082 -0.1451494 -0.025714738 -0.3637662 -0.07500272 0.10517138 0.41084298
0.34372464 -0.38431555 -0.04089142 -0.29791254 0.41268474 -0.2583368 -0.38117328 0.2625848
0.27392444 -0.25217283 0.11958684 -0.07910287 -0.82581955 -0.2080182 -0.06129676 -0.83362365
-0.6007338 0.24987127 -0.7400447 0.6799618 0.5964431 -0.25587478 0.06795065 0.1701016
0.27355334 0.11154787 0.01079791 -0.15841421 0.11989356 -0.054544456 -0.19977224 0.19942622
-0.29953855 -0.45407197 0.08665616 -0.07925374 -0.5471314 0.05870373 0.1729165 -0.109600395
0.43297607 -0.22606026 0.07223621 -0.24780183 -0.20058782 0.13550594 0.14966215 -0.021109901
0.11649525 -0.20575728 -0.34342685 -0.120281376 -0.4653249 -0.25679788 0.3014214 -0.23078515
-0.2596216 0.16810957 -0.026139768 0.00024732185 0.24694778 0.018242797 -0.34314027 -0.19502649
0.2307545 -0.31923226 -0.08019107 0.07217027 -0.4481046 0.07400531 0.14902866 -0.28342193
-0.06484544 0.110391274 -0.29106036 0.052689627 -0.386365 0.1860197 -0.26061323 0.042718314
0.057036605 0.11120686 -0.14303003 -0.18171348 -0.33159047 -0.21294242 -0.15575328 -0.18667246
0.14800903 0.29702118 0.13870847 0.14180315 0.15424258 -0.07222389 -0.17403145 -0.19855253
-0.11611851 -0.1698241 -0.1822185 -0.02757311 -0.019030403 -0.27668273 0.22860156 -0.0624404
0.507886 -0.116228454 -0.005733374 0.048482228 0.23348431 -0.2548924 0.09253507 0.00430852
-0.17302178 -0.010938678 -0.2612562 -0.25693297 0.08731037 0.18184455 -0.17741717 0.23531348
0.04135893 -0.10729825 -0.2052211 0.09594949 0.20076329 0.14347373 0.23853095 0.13754119
-0.33739498 0.22956029 -0.16001125 0.21093957 -0.35346594 -0.28362623 -0.2785467 -0.32035816
0.016636489 0.34870923 0.54126203 0.34810686 0.33487788 0.14560091 -0.019418424 0.1745471
0.15547551 -0.19117877 0.09428527 0.33029863 -0.14851733 -0.19843708 0.2821738 0.040532432
-0.06450542 -0.21727334 -0.38658887 -0.3182086 0.10118655 -0.058062494 -0.36247736 0.28798333
-0.020098837 -0.14025061 -0.42830312 -0.5079635 -0.13685304 -0.099979885 -0.30438504 0.112787925
-0.18353301 0.15885796 0.086615175 -0.12867081 0.15260717 0.13613346 -0.5516 0.18907385
0.0785971 0.13982712 -0.19970982 0.14152877 -0.17512654 -0.24380666 -0.2434276 -0.14249015
-0.6210555 -0.11089776 0.015338623 0.046175737 -0.17580551 -0.08090593 0.03255712 0.16066499
-0.19219956 0.4029631 -0.0936685 -0.114739224 0.11047953 0.15052618 0.1285103 -0.30929345
-0.039477568 0.24094771 -0.13364065 -0.30544475 -0.094651975 -0.06149874 -0.38356152 -0.21610577
-0.18299572 -0.08981846 0.21283454 -0.34691516 0.011111857 -0.21738082 -0.16323668 0.037592147
0.19803211 -0.19981097 -0.10788908 0.020475402 0.3271539 -0.21893707 0.41805086 -0.16211319
-0.30655503 0.109362714 0.0690271 0.08704861 0.4730706 0.12719657 0.13593382 0.35177627
0.50524926 0.5321215 0.0725302 0.11024086 0.0064830654 0.16352196 -0.0011146014 -0.15941425
-0.39389148 0.4071634 -0.17617428 -0.14012694 0.013158877 -0.03769844 0.057555865 0.31204927
00000000: 9e0b 29be 3a09 0a3e 0ba2 14be b7a7 d2bc
00000010: 903f babe 079b 99bd 1864 d73d 035a d23e
00000020: adfc af3e 02c5 c4be c37d 27bd fe87 98be
00000030: 6a4b d33e b944 84be 2529 c3be 8471 863e
00000040: d33f 8c3e cc1c 81be f2e9 f43d af00 a2bd
00000050: e968 53bf b902 55be 5012 7bbd 5c68 55bf
00000060: b1c9 19bf 41de 7f3e 9273 3dbf fa11 2e3f
00000070: 7fb0 183f 0502 83be b629 8b3d 1d2f 2e3e
00000080: 2f0f 8c3e 3673 e43d b8e9 303c 5637 22be
00000090: c18a f53d 026a 5fbd 1891 4cbe 6336 4c3e
000000a0: 1e5d 99be 1f7c e8be c978 b13d c94f a2bd
000000b0: ce10 0cbf 5373 703d 0611 313e 2c76 e0bd
000000c0: 0aaf dd3e 577c 67be 94f0 933d c3bf 7dbe
000000d0: e566 4dbe 12c2 0a3e 0941 193e acee acbc
000000e0: 1095 ee3d 09b2 52be a5d5 afbe 1556 f6bd
000000f0: 113f eebe 037b 83be e853 9a3e f152 6cbe
00000100: 1fed 84be ea24 2c3e 1123 d6bc faaa 8139
00000110: e1df 7c3e eb71 953c 15b0 afbe 06b5 47be
00000120: e84a 6c3e 6972 a3be 373b a4bd 02ce 933d
00000130: f76d e5be 1990 973d f89a 183e ae1c 91be
00000140: b0cd 84bd d214 e23d dd05 95be 14d1 573d
00000150: a2d1 c5be f37b 3e3e 196f 85be 66f9 2e3d
00000160: 379f 693d 6cc0 e33d 7776 12be 1913 3abe
00000170: 3ac6 a9be 940d 5abe ca7d 1fbe 1127 3fbe
00000180: ae8f 173e 2913 983e 9809 0e3e d834 113e
00000190: c4f1 1d3e 1eea 93bd 4d35 32be 5b51 4bbe
000001a0: 8bcf edbd 5ee6 2dbe 7d97 3abe 01e1 e1bc
000001b0: a6e5 9bbc 5ca9 8dbe 8716 6a3e 81c1 7fbd
000001c0: d104 023f 2f09 eebd 07df bbbb 4d95 463d
000001d0: 8316 6f3e 4281 82be 0783 bd3d 7c2e 8d3b
000001e0: 9f2c 31be 2438 33bc 5fc3 85be b88c 83be
000001f0: c7cf b23d 7535 3a3e d9ac 35be 04f6 703e
00000200: fb67 293d 2fbf dbbd 7b25 52be 2b81 c43d
00000210: e494 4d3e c7ea 123e 7541 743e 99d7 0c3e
00000220: 09bf acbe da11 6b3e fdd9 23be 8b00 583e
00000230: 7df9 b4be 7537 91be ac9d 8ebe fc05 a4be
00000240: 3f49 883c 048a b23e 2690 0a3f 103b b23e
00000250: 1d75 ab3e 6818 153e 6313 9fbc 7abc 323e
00000260: f934 1f3e 5ec4 43be a318 c13d e71c a93e
00000270: ed14 18be 1733 4bbe 1679 903e 5605 263d
00000280: 6b1b 84bd e77c 5ebe faee c5be 3dec a2be
00000290: e53a cf3d f0d2 6dbd a296 b9be 8d72 933e
000002a0: 51a6 a4bc db9d 0fbe 8c4a dbbe e509 02bf
000002b0: 3423 0cbe 41c2 ccbd 5bd8 9bbe 5bfd e63d
000002c0: 14f0 3bbe a9ab 223e 4c63 b13d 48c2 03be
000002d0: 0e45 1c3e 9266 0b3e a835 0dbf 939c 413e
000002e0: 84f7 a03d d72e 0f3e bb80 4cbe ebec 103e
000002f0: 5f54 33be 74a8 79be 1645 79be f0e8 11be
00000300: 7efd 1ebf 5d1e e3bd d94e 7b3c c522 3d3d
00000310: 5c06 34be 02b2 a5bd 9d5a 053d 5d85 243e
00000320: f6cf 44be 2e51 ce3e 45d5 bfbd 66fc eabd
00000330: 1843 e23d 8923 1a3e 3498 033e b65b 9ebe
00000340: 3bb3 21bd ffba 763e 18d9 08be 4163 9cbe
00000350: e5d8 c1bd 1ae6 7bbd 2d62 c4be d54a 5dbe
00000360: 3b63 3bbe bef2 b7bd 4cf1 593e dd9e b1be
00000370: 820e 363c 1499 5ebe 8427 27be 39fa 193d
00000380: eec8 4a3e 3f9b 4cbe f3f4 dcbd 08bc a73c
00000390: b780 a73e 0a31 60be c30a d63e 0001 26be
000003a0: c8f4 9cbe 8ff9 df3d 155e 8d3d 8b46 b23d
000003b0: 4f36 f23e d13f 023e 3c32 0b3e 051c b43e
000003c0: 0458 013f 1d39 083f b78a 943d f6c5 e13d
000003d0: e56f d43b 4d72 273e d117 92ba 7d3d 23be
000003e0: 25ac c9be b977 d03e 0867 34be 707d 0fbe
000003f0: 5598 573c ae69 1abd b3bf 6b3d ecc4 9f3e

lstm.bias_ih_l1 f4 [40]
0.034353543 -0.06474428 0.27686837 0.4578422 -0.06196683 -0.12006667 -0.05010948 -0.04631371
0.029031407 0.33855483 0.35193345 -0.2807218 -0.1605239 -0.1316331 0.3607827 0.007999657
-0.19764785 0.056118954 0.0057315226 -0.17453614 -0.053429708 -0.15392245 -0.09376247 0.3399097
0.023726275 -0.007205485 0.086980626 0.23981516 -0.18797816 -0.2584657 -0.12615934 0.3721369
0.15919223 0.22101836 0.13788 -0.115199074 0.34035805 -0.17565136 0.053919554 0.27192572
00000000: 4db6 0c3d a698 84bd b1c1 8d3e 4b6a ea3e
00000010: eed0 7dbd 84e5 f5bd 993f 4dbd 72b3 3dbd
00000020: 46d3 ed3c 0f57 ad3e 9f30 b43e c5ba 8fbe
00000030: 6160 24be d4ca 06be 83b8 b83e fe10 033c
00000040: 3364 4abe fddc 653d 7fcf bb3b 9ab9 32be
00000050: 1cd9 5abd d99d 1dbe 8a06 c0bd a508 ae3e
00000060: 9b5d c23c fd1b ecbb e622 b23d 1b92 753e
00000070: 597d 40be 9e55 84be ea2f 01be ba88 be3e
00000080: 4a03 233e a352 623e 6a30 0d3e 7eed ebbd
00000090: 6943 ae3e f3dd 33be c0da 5c3d d939 8b3e

lstm.bias_hh_l1 f4 [40]
0.32504573 0.18629012 -0.004308918 0.04660949 -0.13548365 0.4041627 0.33358696 0.18020782
0.46138793 0.20209992 0.048297014 0.15235929 -0.24749221 0.199391 -0.124822095 -0.1335875
-0.08360549 0.06818652 0.26024565 -0.037821896 0.050337367 -0.28362012 -0.34464416 0.041789886
-0.20816977 0.0072629214 0.08304205 -0.14177133 0.33808097 -0.35773224 0.46034923 0.3650136
0.23790774 0.15312545 0.11076845 0.3338234 0.07690321 0.074221656 0.15576161 0.058144808
00000000: 656c a63e d6c2 3e3e d331 8dbb 98e9 3e3d
00000010: 3abc 0abe 6aee ce3e e9cb aa3e 6688 383e
00000020: 0a3b ec3e 48f3 4e3e 17d3 453d 1304 1c3e
00000030: 996e 7dbe 282d 4c3e baa2 ffbd 29cb 08be
00000040: 5b39 abbd 60a5 8b3d eb3e 853e 22eb 1abd
00000050: 8e2e 4e3d a836 91be 3375 b0be df2b 2b3d
00000060: 752a 55be cdfd ed3b f311 aa3d 812c 11be
00000070: f318 ad3e ae28 b7be e5b2 eb3e 10e3 ba3e
00000080: 169e 733e ebcc 1c3e 92da e23d e7ea aa3e
00000090: 6e7f 9d3d 8601 983d f97f 1f3e 4029 6e3d

lstm.weight_ih_l2 f4 [40, 10]
-0.136855 -0.38397807 0.20289321 -0.20953299 0.12618418 0.29869837 -0.19895762 0.45813748
0.20286733 0.13633263 -0.42223546 0.15717798 0.3894001 0.17901507 -0.13200468 0.21640323
-0.3356317 -0.23435254 0.30975482 -0.106461644 -0.22890387 -0.12075741 -0.6920191 -0.39731982
-0.024993202 0.04017401 -0.16200793 0.09704688 0.25943327 -0.36861247 -0.14859565 -0.13779868
-0.0025826627 0.32835087 0.21268153 0.13599046 -0.2446552 0.027277986 0.11042333 -0.07657354
-0.12640849 0.09773886 -0.2489142 0.108582474 0.10197559 0.07305932 -0.18391384 0.048602298
-0.0072529917 0.15656663 -0.35298115 -0.4053434 -0.52814764 -0.3033258 0.073259555 -0.025054662
-0.4510543 0.1558472 -0.035717584 -0.3044641 -0.3671556 0.05863332 -0.3171732 -0.4940075
-0.26700813 0.48291147 -0.50828403 0.38766077 -0.06671402 -0.13320851 0.14897913 -0.17937252
-0.15069215 -0.48155406 -0.30011952 0.02248852 0.06121313 0.10959686 -0.09945073 -0.3901734
-0.38859206 0.002333276 -0.16274327 -0.24786872 -0.12982458 -0.050794527 0.14707825 0.32666937
0.06904386 -0.032872427 -0.17936686 -0.5693341 -0.04451683 -0.8355442 -0.58008265 0.11894997
-0.113189965 0.70161885 0.33389828 -0.18156162 -0.03185145 0.12708667 -0.34009454 -0.42378408
0.08747395 -0.053309925 -0.19196472 0.34244832 0.09031893 -0.10797844 -0.08289674 -0.30848184
0.61532485 -0.01216152 -0.2700089 0.17718847 -0.07981109 0.32103652 0.4137706 0.06753349
0.24943015 -0.08115433 -0.4475683 0.17407154 -0.16323628 -0.076994374 -0.4348207 -0.0375726
-0.35877445 0.2439805 0.20839986 0.1926798 0.5120654 0.048480913 -0.20339467 -0.09839113
0.264029 0.036549367 0.15185757 -0.31197697 -0.36424667 -0.06830267 -0.020663291 0.18224208
-0.20780481 -0.30951136 -0.17679544 0.16512872 0.052763265 -0.11673622 0.21093051 0.20847543
-0.4637536 -0.35299277 0.08662646 0.15398273 -0.37249038 -0.10002417 -0.10568067 0.040419336
-0.042409506 0.13614263 -0.7282721 -0.47810295 -0.048762593 0.007710993 -0.85561544 0.5326347
-0.36038706 0.1833811 0.17956509 -0.35583147 -0.21508022 0.051068734 0.061105326 0.21574503
-0.538129 -0.09263635 -0.091914095 -0.35534984 -0.12450142 0.18509494 0.20729373 -0.08765072
0.22540025 -0.23622768 -0.3329574 -0.21168375 -0.22375199 -0.2709693 -0.067534044 0.31196225
0.08333273 0.15160698 -0.28296396 -0.25144184 0.03784211 0.30543777 0.2188643 -0.33121023
-0.23598975 -0.29624078 0.17592056 -0.48764196 -0.32308924 0.2511473 -0.09385919 0.19468892
-0.042934548 -0.14574508 0.28246737 -0.21826157 0.32310092 0.13634707 0.15549037 0.11930001
0.060287364 -0.255832 -0.2221823 -0.16358548 -0.25295278 -0.2645344 -0.48925072 -0.28120044
-0.19159734 0.036557585 -0.073226415 0.35541883 0.04692078 0.013519428 -0.2511314 -0.12487551
0.045514364 -0.39920196 0.11020597 0.24860597 -0.28725436 0.069401346 -0.04822585 0.21054801
-0.115268454 -0.14144132 0.25074697 0.24137284 0.18047269 -0.04076341 -0.059316326 -0.09915339
0.21469106 0.18021195 -0.27881998 -0.1973836 -0.070034966 -0.17777681 -0.12697572 0.37679553
00000000: b823 0cbe c698 c4be 3dc3 4f3e d18f 56be
00000010: 6d36 013e feee 983e 8cbb 4bbe ff90 ea3e
00000020: 74bc 4f3e c89a 0b3e 3f2f d8be 44f3 203e
00000030: 735f c73e ba4f 373e 3c2c 07be cf98 5d3e
00000040: ebd7 abbe 1dfa 6fbe 2f98 9e3e 9008 dabd
00000050: c765 6abe a94f f7bd 2a28 31bf 816d cbbe
00000060: 8bbe ccbc 818d 243d 68e5 25be 84c0 c63d
00000070: 70d4 843e c6ba bcbe 7529 18be 191b 0dbe
00000080: e441 29bb 9b1d a83e 30c9 593e 1541 0b3e
00000090: e586 7abe 1576 df3c a025 e23d 97d2 9cbd
000000a0: 3a71 01be 502b c83d 5de3 7ebe 7d60 de3d
000000b0: 94d8 d03d 20a0 953d e953 3cbe 3413 473d
000000c0: 81aa edbb 0153 203e f2b9 b4be 2c89 cfbe
000000d0: af34 07bf 854d 9bbe 1b09 963d 6f3f cdbc
000000e0: 97f0 e6be 6996 1f3e 9a4c 12bd b8e2 9bbe
000000f0: d2fb bbbe 7e29 703d 8764 a2be 8dee fcbe
00000100: 4ab5 88be 2c40 f73e e71e 02bf 797b c63e
00000110: 5ca1 88bd d067 08be fc8d 183e 6ead 37be
00000120: 0b4f 1abe 418e f6be 44a9 99be d839 b83c
00000130: 9eba 7a3d 5274 e03d d3ac cbbd cfc4 c7be
00000140: 8af5 c6be e0e9 183b 2ca6 26be 4cd1 7dbe
00000150: bcf0 04be ec0d 50bd ae9b 163e 3541 a73e
00000160: de66 8d3d 3da5 06bd f2ab 37be e1bf 11bf
00000170: 4857 36bd 3ae6 55bf 4c80 14bf 0b9c f33d
00000180: 24d0 e7bd 4b9d 333f b7f4 aa3e 4aeb 39be
00000190: ab76 02bd 0223 023e df20 aebe 3afa d8be
000001a0: 8b25 b33d 825b 5abd 6692 44be 6355 af3e
000001b0: 22f9 b83d cd23 ddbd c4c5 a9bd 55f1 9dbe
000001c0: ee85 1d3f 1d41 47bc 9b3e 8abe e570 353e
000001d0: ff73 a3bd e65e a43e bdd9 d33e 004f 8a3d
000001e0: 9e6a 7f3e 3e34 a6bd ac27 e5be cf3f 323e
000001f0: 6927 27be 3aaf 9dbd d2a0 debe bae5 19bd
00000200: 49b1 b7be 06d6 793e c666 553e da4d 453e
00000210: b816 033f ec93 463d b146 50be 4a81 c9bd
00000220: cf2e 873e cab4 153d 8d80 1b3e 72bb 9fbe
00000230: 8a7e babe 45e2 8bbd 1046 a9bc ab9d 3a3e
00000240: c9ca 54be 4678 9ebe dd09 35be 8117 293e
00000250: 4b1e 583d 6613 efbd 2bfe 573e 957a 553e
00000260: 1d71 edbe 78bb b4be 3769 b13d a6ad 1d3e
00000270: 0fb7 bebe 79d9 ccbd 1b6f d8bd bf8e 253d
00000280: 97b5 2dbd f968 0b3e 0a70 3abf e9c9 f4be
00000290: 49bb 47bd 7fac fc3b 9d09 5bbf bf5a 083f
000002a0: a784 b8be 41c8 3b3e e9df 373e 8b2f b6be
000002b0: fd3d 5cbe 732d 513d 9449 7a3d 44ec 5c3e
000002c0: d2c2 09bf 20b8 bdbd 753d bcbd 6af0 b5be
000002d0: 9afa febd 8789 3d3e cf44 543e 3882 b3bd
000002e0: 53cf 663e abe5 71be 6479 aabe a0c3 58be
000002f0: 3e1f 65be 7dbc 8abe 4a4f 8abd 84b9 9f3e
00000300: 5aaa aa3d dc3e 1b3e a7e0 90be fcbc 80be
00000310: 5400 1b3d 5762 9c3e f71d 603e 6394 a9be
00000320: 4ca7 71be dfac 97be 8524 343e 35ac f9be
00000330: f46b a5be 6196 803e 3f39 c0bd 885c 473e
00000340: 23dc 2fbd 333e 15be 909f 903e f67f 5fbe
00000350: 7c6d a53e 919e 0b3e de38 1f3e 9053 f43d
00000360: e2ef 763d 69fc 82be c283 63be f482 27be
00000370: 0783 81be 0e71 87be 127f fabe 81f9 8fbe
00000380: 1832 44be 68bd 153d bbf7 95bd 75f9 b53e
00000390: 0130 403d 9780 5d3c 4b94 80be bbbe ffbd
000003a0: 456d 3a3d 3364 ccbe abb3 e13d 9092 7e3e
000003b0: 0113 93be 4b22 8e3d 7888 45bd e699 573e
000003c0: de11 ecbd fed5 10be e861 803e 712a 773e
000003d0: d5cd 383e 89f7 26bd adf5 72bd ef10 cbbd
000003e0: f9d7 5b3e 7b89 383e 7ec1 8ebe ed1e 4abe
000003f0: 7e6e 8fbd 200b 36be ec05 02be 58eb c03e

lstm.weight_hh_l2 f4 [40, 10]
0.3038984 -0.07581287 0.20342198 -0.013667066 -0.22016802 0.2896182 0.16104437 -0.2350334
-0.06543431 0.13753496 -0.12334866 -0.2646922 0.44665825 -0.19511156 -0.0832883 0.29376802
0.10789232 -0.09638788 0.17167991 -0.044778984 0.19037782 -0.2989086 0.12899414 -0.26857767
0.2900954 0.22982828 -0.14296572 0.15735109 -0.20965096 -0.15574676 0.0428143 -0.11999797
-0.22945765 0.21293218 -0.03379666 -0.23410466 0.40672106 -0.10699462 -0.27743044 0.22681127
0.3145604 -0.21510805 0.255763 -0.24533069 0.25007534 0.21934146 0.41153944 0.007963719
-0.1639635 -0.024903592 -0.22214596 0.073721334 -0.32451573 -0.20169367 0.16607144 -0.0051962724
-0.13288552 -0.085467204 0.089633614 -0.3159036 -0.27114573 -0.064346105 0.15674348 0.16267811
0.33865196 0.34080383 0.16458757 0.22697069 -0.24331532 -0.023013687 0.21404308 -0.040937524
0.047185842 -0.16325752 -0.16885746 -0.0011858925 0.20417571 -0.25493392 0.08837278 -0.21411064
-0.13660789 -0.42918673 -0.08794685 -0.0643225 0.40690926 0.0690163 0.32043228 -0.20899643
0.10319835 0.066722974 0.2609689 -0.18102685 0.5594968 -0.43395716 0.34428322 0.5644058
0.6537325 0.6813051 -0.35818994 -0.16164042 -0.14102827 0.31551182 0.16761303 -0.28628793
0.06477463 0.04020288 0.22029151 -0.043323763 0.060402364 -0.1102631 0.0067425086 0.0067279343
-0.021602223 0.115168154 0.3095819 0.16880779 0.29547447 0.19865392 -0.3051069 -0.14133897
0.24705446 0.03759017 0.111184075 0.12491638 -0.23444368 -0.023519801 -0.26321208 0.1252622
-0.38561094 -0.069785535 0.25370437 -0.23464444 -0.0707473 0.18183099 -0.015291715 0.34608558
0.16019669 0.14889775 0.07105674 -0.06743392 0.29943883 0.15155582 -0.05897076 0.038741782
0.12345259 -0.0021095183 0.2777866 -0.11636746 0.15336809 0.28539783 -0.28293478 -0.19805965
0.2799495 -0.19689073 -0.08524902 -0.22982627 -0.2369702 0.09280681 0.18185084 -0.14639826
-0.0050421623 -0.17313688 -0.061531723 -0.16172071 -0.12845339 0.005821184 0.011289901 0.41553763
-0.09329319 -0.55873966 0.02469813 0.15611492 -0.16376959 -0.10380226 0.35862705 0.08013597
0.100309394 0.31199184 -0.2371731 -0.26886392 -0.26261714 -0.020285541 -0.3399015 -0.06604046
-0.26768512 -0.12814671 -0.012824287 0.1832711 -0.33366838 0.18503562 0.28647444 0.33386278
-0.06714275 -0.118415326 -0.10959974 0.34101456 -0.037375145 0.34040925 0.2485682 -0.13610989
-0.1316208 0.013900038 0.014808551 0.18570381 0.30243504 0.31732392 0.14370774 -0.212477
-0.04874228 -0.14494832 -0.30717516 0.18393105 -0.05842275 -0.17326 -0.023863003 -0.27873242
-0.32138154 -0.0639695 0.056572925 0.43642768 -0.2113758 0.31901976 -0.09900342 -0.20925283
-0.24711736 0.12797159 -0.46426296 -0.32789984 0.04179922 0.12799504 -0.029391734 -0.22029056
0.22162403 0.12580594 -0.29387513 -0.27546918 -0.4267989 -0.118279606 -0.038271196 -0.20889944
0.33259782 0.03958198 0.02742665 -0.23350975 -0.12413495 0.28150177 0.38333303 0.21512285
-0.24063128 -0.055208288 0.116769776 -0.084453076 -0.3323034 0.0968117 0.3029291 -0.05814605
00000000: 9298 9b3e c743 9bbd da4d 503e d4eb 5fbc
00000010: ba73 61be d648 943e d1e8 243e 98ac 70be
00000020: 6c02 86bd f7d5 0c3e 399e fcbd bc85 87be
00000030: 64b0 e43e 53cb 47be 0e93 aabd c368 963e
00000040: a6f6 dc3d 0267 c5bd dccc 2f3e 2b6a 37bd
00000050: 67f2 423e 8c0a 99be 0a17 043e 0383 89be
00000060: 6287 943e 1b58 6b3e 9b65 12be a520 213e
00000070: beae 56be 147c 1fbe 0c5e 2f3d 7fc1 f5bd
00000080: f2f6 6abe e50a 5a3e 5e6e 0abd 22b9 6fbe
00000090: be3d d03e ff1f dbbd 5d0b 8ebe 3741 683e
000000a0: 100e a13e 4945 5cbe 5ef3 823e f837 7bbe
000000b0: e009 803e 0c9b 603e 4cb5 d23e 427a 023c
000000c0: 0ce6 27be 9e02 ccbc 3b7a 63be 36fb 963d
000000d0: ed26 a6be c988 4ebe a20e 2a3e 7e45 aabb
000000e0: 2413 08be 6e09 afbd d491 b73d 1ebe a1be
000000f0: 9dd3 8abe e4c7 83bd 5d81 203e 1795 263e
00000100: ca63 ad3e d77d ae3e a589 283e 016b 683e
00000110: a727 79be 3387 bcbc 1c2e 5b3e 1bae 27bd
00000120: f145 413d fb2c 27be f8e8 2cbe f36f 9bba
00000130: 7013 513e b386 82be cafc b43d d23f 5bbe
00000140: f0e2 0bbe 5dbe dbbe 7a1d b4bd 84bb 83bd
00000150: 6956 d03e 6b58 8d3d b30f a43e 2903 56be
00000160: a859 d33d 0ea6 883d b79d 853e 1a5f 39be
00000170: 2f3b 0f3f a22f debe e445 b03e e67c 103f
00000180: 035b 273f 036a 2e3f ac64 b7be 1185 25be
00000190: b769 10be c48a a13e c0a2 2b3e 5594 92be
000001a0: 90a8 843d c6ab 243d 1994 613e 4274 31bd
000001b0: 7868 773d 9fd1 e1bd 43f0 dc3b 0176 dc3b
000001c0: 25f7 b0bc 48dd eb3d 8581 9e3e f3db 2c3e
000001d0: 6e48 973e ef6b 4b3e f936 9cbe 2abb 10be
000001e0: d8fb 7c3e 26f8 193d 7ab4 e33d 29d4 ff3d
000001f0: 0112 70be 99ac c0bc bcc3 86be bc44 003e
00000200: cc6e c5be b8eb 8ebd 8ae5 813e a246 70be
00000210: f6e3 90bd e731 3a3e 1a8a 7abc 2132 b13e
00000220: 9a0a 243e a778 183e 3286 913d cc1a 8abd
00000230: 0c50 993e 7331 1b3e 538b 71bd b4af 1e3d
00000240: b6d4 fc3d d83f 0abb 0c3a 8e3e 1052 eebd
00000250: 860c 1d3e aa1f 923e d4dc 90be 26d0 4abe
00000260: 8a55 8f3e b99d 49be 0a97 aebd 9457 6bbe
00000270: 51a8 72be 7f11 be3d 1b37 3a3e 6de9 15be
00000280: b938 a5bb cb4a 31be b008 7cbd 1d9a 25be
00000290: 4989 03be a1bf be3b 47f9 383c 59c1 d43e
000002a0: 8010 bfbd 9009 0fbf bc53 ca3c 97dc 1f3e
000002b0: 37b3 27be 4796 d4bd f79d b73e 541e a43d
000002c0: 036f cd3d 65bd 9f3e 81dd 72be 88a8 89be
000002d0: c175 86be dd2d a6bc 9207 aebe 3840 87bd
000002e0: 060e 89be e438 03be f51c 52bc 6bab 3b3e
000002f0: 95d6 aabe fa79 3d3e c7ac 923e 10f0 aa3e
00000300: 2382 89bd bc83 f2bd d475 e0bd 7699 ae3e
00000310: ae16 19bd 1f4a ae3e aa88 7e3e 6460 0bbe
00000320: 9ac7 06be fcbc 633c 919f 723c 2429 3e3e
00000330: c4d8 9a3e 4878 a23e 1f28 133e 9293 59be
00000340: fca5 47bd 556d 14be 1046 9dbe 6c58 3c3e
00000350: b24c 6fbd 126b 31be 587c c3bc 04b6 8ebe
00000360: 1f8c a4be 7102 83bd 03b9 673d 7373 df3e
00000370: e672 58be 8f56 a33e 4ec2 cabd 6046 56be
00000380: 550c 7dbe fc0a 033e e0b3 edbe 7de2 a7be
00000390: a935 2b3d 2211 033e efc6 f0bc d993 61be
000003a0: 69f1 623e 46d3 003e cd76 96be 4c0a 8dbe
000003b0: 6385 dabe 943c f2bd 42c2 1cbd bce9 55be
000003c0: 434a aa3e b720 223d dbad e03c 2e1d 6fbe
000003d0: 773a febd 0021 903e 3a44 c43e 2a49 5c3e
000003e0: 0c68 76be 1622 62bd fe24 ef3d bcf5 acbd
000003f0: ac23 aabe 3645 c63d 8619 9b3e 8d2a 6ebd

lstm.bias_ih_l2 f4 [40]
-0.07623689 0.03910542 0.28082561 0.16999969 -0.13366213 0.19567958 -0.11459856 -0.21914971
-0.1502884 0.04246944 0.14542061 0.056376994 -0.09407391 0.019451957 0.013034993 0.21603881
0.22056505 -0.10774456 -0.1526585 -0.13491349 0.26829574 0.17503154 0.3470453 -0.2529427
0.025897684 0.122307174 -0.14531107 0.25010952 -0.09187059 -0.33727846 -0.036976214 0.050037783
-0.08578174 0.24851918 -0.021444451 0.16517787 -0.14213718 -0.00072927587 0.32228246 0.18291314
00000000: 1622 9cbd 012d 203d 60c8 8f3e 6614 2e3e
00000010: bade 08be 3a60 483e a6b2 eabd c868 60be
00000020: 34e5 19be 6ff4 2d3d 24e9 143e 90eb 663d
00000030: d2a9 c0bd b659 9f3c b990 553c 4739 5d3e
00000040: cedb 613e 2ea9 dcbd 8352 1cbe c326 0abe
00000050: 0f5e 893e 783b 333e ecaf b13e b581 81be
00000060: 6127 d43c 2f7c fa3d 6dcc 14be 5b0e 803e
00000070: a626 bcbd c3af acbe 5f74 17bd 6bf4 4c3d
00000080: 56ae afbd d07b 7e3e 46ac afbc 6324 293e
00000090: 698c 11be e02c 3fba 3502 a53e 954d 3b3e

lstm.bias_hh_l2 f4 [40]
0.14369538 -0.08576337 -0.019687342 0.13269232 0.13762079 -0.045423448 0.15637109 0.32315493
0.20836318 0.5858509 0.34493858 0.16557314 -0.32704732 -0.10035714 0.3036116 -0.21135037
-0.034132577 -0.20082563 0.06474808 -0.28950924 0.09930654 0.2410515 -0.15993161 -0.2054283
0.29382402 0.24846841 0.097585365 0.12653007 0.30124342 0.071274705 0.068593524 0.24505857
-0.14032376 -0.1884574 0.2810024 -0.13236623 0.38261673 0.30528578 -0.096565686 0.435863
00000000: e224 133e b5a4 afbd 5947 a1bc 7fe0 073e
00000010: 77ec 0c3e f00d 3abd be1f 203e 9074 a53e
00000020: 285d 553e 53fa 153f ca9b b03e 018c 293e
00000030: bf72 a7be 0b88 cdbd fb72 9b3e 3b6c 58be
00000040: 9ace 0bbd 3ca5 4dbe a49a 843d 8e3a 94be
00000050: 3a61 cb3d 34d6 763e 1dc5 23be cc5b 52be
00000060: 1a70 963e 816e 7e3e d6da c73d 1991 013e
00000070: 943c 9a3e 79f8 913d c37a 8c3d a2f0 7a3e
00000080: 08b1 0fbe fafa 40be 8cdf 8f3e 038b 07be
00000090: 57e6 c33e 6b4e 9c3e 3bc4 c5bd 6f29 df3e

fc.weight f4 [1, 10]
0.38243875 0.06272863 0.17818847 0.31569383 -0.10443712 0.24561273 0.3418948 0.36823404
-0.40700206 -0.7758052
00000000: 03cf c33e de77 803d 0a77 363e 9fa2 a13e
00000010: 21e3 d5bd e781 7b3e d60c af3e 2c89 bc3e
00000020: 9362 d0be 2b9b 46bf
