ec_l2o_log/mtl_0.5_1_1_0.8/lstm_unroll.pth (torch, 13115 bytes, 13 tensors)

lstm.weight_ih_l0 f4 [40, 2]
00000000: bb24 3a3f ea12 0b3f 3628 bf3e 683a c03e
00000010: 590a e33e ed93 e43e ae25 e73e eed9 5b3e
00000020: cb14 aabd 4b74 423c 26d0 203f 95a8 87bc
00000030: 080a 663d 74e3 cc3e 3c90 8e3e 98f6 89bd
00000040: aff9 413f a6f9 113f 540b ce3e ac5e ae3e
00000050: 5db5 25bd 49e6 043e ae08 843d c518 493e
00000060: e6db ab3d e6f1 a3bc b3e5 223e 264c f53e
00000070: 2efe 1a3e f178 44bd c6b0 fd3e e5e8 773e
00000080: c6b5 fd3b f58d cf3e 7399 a43e e266 04bd
00000090: 77b5 923e 3e20 093f a447 63be ed70 973e
000000a0: 3265 1cbf 7d54 c5be a1eb b0bd 9627 39be
000000b0: 660e 75be 2789 73bd fc3e 3d3e 798c 10bc
000000c0: e563 b03e a0e1 95be 5c47 8c3e f2f1 c83e
000000d0: c166 af3d 9a8c c4bd c310 9d3e e334 733e
000000e0: 35cc 1d3f 7287 623d 27b1 043f b3d8 853e
000000f0: beae 2c3f d823 f03e a4b5 923e a2f2 953e
00000100: de72 c83e c466 bd3c dd02 9b3e 31b9 483e
00000110: f29b a4bb ca01 063e 29e4 533e 3679 ca3e
00000120: 16f3 463e 9611 803c 8fcc ec3e d637 c13d
00000130: 2fa1 933e 8b52 093f 0f07 1a3f 2768 f03e
0.72712296 0.54325736 0.37335366 0.3754456 0.44343832 0.44644108 0.45145935 0.21469852
-0.08304747 0.011868547 0.6281761 -0.016559878 0.05616191 0.40017283 0.27844417 -0.06736487
0.7577161 0.5702156 0.40243018 0.34056604 -0.040456165 0.12978472 0.06446968 0.19638355
0.08391552 -0.020012807 0.15907936 0.4790966 0.15136024 -0.0479669 0.4954893 0.24209936
0.0077426163 0.40537992 0.32148322 -0.03232468 0.28654072 0.5356482 -0.22195297 0.29578343
-0.6109191 -0.38541022 -0.08638693 -0.18081507 -0.23931274 -0.05945697 0.18481058 -0.008822554
0.34451213 -0.292737 0.27398193 0.3924709 0.085645206 -0.0959713 0.3067685 0.23750643
0.6163972 0.055304952 0.51832813 0.2614189 0.67454135 0.46902347 0.28654206 0.29286677
0.39150137 0.023120292 0.30275622 0.19601895 -0.005023473 0.1308662 0.20692505 0.39545602
0.19428667 0.015633386 0.46249816 0.09434478 0.2883391 0.53641576 0.6016702 0.46954462

lstm.weight_hh_l0 f4 [40, 10]
00000000: 5e28 68be 8e74 753c 50f3 d73e 9380 123e
00000010: f68f 16be 8095 81bd f75f 873c 1116 bc3d
00000020: 0030 2a3e 3f16 b93e 8644 ed3d c4f7 213d
00000030: 4dec 413c 5e22 c7bb e1f6 253d 0211 5a3e
00000040: 50a6 87bd 3edb 3a3e c03e 92bc a0aa ab3e
00000050: 181b d1be b0af 673e 0c85 d0bd 3ab6 93bd
00000060: 480d 733e 8df4 b73d 9aa8 88be d0e3 10be
00000070: 5c04 d43d fea1 bcbb d09a 8ebe 3da6 213e
00000080: 6057 503e e1b8 6e3e c8ae 6e3e 2bc5 0ebe
00000090: 1ff7 1e3e c393 cbbd 6db2 bebd 7824 03be
000000a0: a3e4 96be 609d f6be 2273 cabe e3cb fbbd
000000b0: c1f0 da3d d22d d93e 71ff b5bd c125 973e
000000c0: ee3f b7bd ae76 b13c ac46 553e c97f 8dbd
000000d0: d2a4 b7be 44c7 873e 2956 8c3d 5172 cc3e
000000e0: 0eee 133e 7277 1d3e 9ffd 243e c741 8b3e
000000f0: 4740 e5be 7f44 613e c27b aabe 0c23 e8bd
00000100: a49a 983e 5482 3a3e 8962 45bd 07b3 ce3e
00000110: ad88 fbbd fa1a 80bd 2223 bfbe ee0e 12bc
00000120: b241 23bd 1da7 b93d a5c3 7a3e c937 023e
00000130: af17 5b3d a714 69bc 0ba3 66be 53d1 023e
00000140: 0823 85bd ace1 833c 43e2 d6be 2986 4d3d
00000150: 18f2 db3e 1716 bfbd 4ef0 f9bc 3657 b1bd
00000160: 31f3 b63e cd3c 743c b8f2 15be bc4c 2f3d
00000170: b98a e73e 6f5e 2dbd 7c0f 00bf dc0b 10be
00000180: 5481 bbbe 34dc 213e 46b6 f43d 61de a9bd
00000190: f9e0 833e 1361 0dbc 2f5e 243e ae95 893e
000001a0: 1336 77bd 9c5e 753e acc4 a6be 9d0e 9d3d
000001b0: f22e 16be 13ee 493e 2bdf 84be 4bb5 4a3c
000001c0: 0666 143e 39ba a4be b3ba 61be 3129 0ebd
000001d0: 9a6f fb3d 3194 af3e 3ba1 913e 0829 b33e
000001e0: 63ab 52bd 41c8 3f3e 983c 083e 466f 09bd
000001f0: e9ea 4c3e 2abc 823e a814 663e ab1b 753d
00000200: 4233 dcbc 8cf1 863e 1c6e adbe cc17 f5be
00000210: 05df da3c 2267 813e 5a8a d63e abe4 b93c
00000220: 7708 ae3e cd9c ab3e 3e21 093e b42a fa3e
00000230: 822c 8ebe ea5c c1be bddc 82be 0845 413e
00000240: 33a6 ef3d b7be fe3e 531b 9fbb 791e ef3e
00000250: 9ba0 883e 88c9 563e c6c4 093e 2c96 c6bd
00000260: ec05 56be 448d e63e 1121 c23e 5d1c 083e
00000270: 3898 233d a8c7 db3e 395d 913e eece b13e
00000280: 4ba6 30be 7a0f 2fbe dbba 083e 0899 c43e
00000290: 09c8 a23e c8ff 2fbe 8813 a0ba 2b2f 42bd
000002a0: 2343 f1bd 8711 72be 70b6 4abe efda 07bc
000002b0: 581c 43be 4da7 5bbe 16ec b13e 24a6 e2bd
000002c0: 202a 3fbe 4cf2 2abc c524 bc3e 6b30 973e
000002d0: e882 1bbe 77b6 8d3d 2959 8cbd 9ab6 da3e
000002e0: f0bc ed3d 0145 ad3e d4ee 423d 61e9 51bd
000002f0: f2f3 d73e faf0 9fbd 9aee 4e3e 342b e33c
00000300: 4f3b a7bd dac0 6cbd ddb7 0dbe 9604 a0bd
00000310: e19a 2b3e 9d6c 1cbd 3257 143e 23f1 a63e
00000320: 488c 3c3e 8dea f63d c4ca af3d ee39 023f
00000330: df03 993e 1182 9e3e 0909 673e b0b8 4abd
00000340: 582e 58be e60b b3be 76c7 6b3e 53af b63e
00000350: 3c07 c63e 53de 48be 078e acbe b501 833d
00000360: a823 8abe a60e 4b3e 58b8 0e3e 9438 0c3e
00000370: 5bdd d93d c2f1 823e a139 04be a565 1dbe
00000380: a235 d9bd 0cd0 a23d 7560 0a3d cdf5 5e3e
00000390: 9cbd bbbe bfaf 123e 1297 fd3c 3c61 c1be
000003a0: 1456 da3d 44a1 65be e99e 043e 6bea f93d
000003b0: a3f0 16be 986a 343e 3e26 98bc f2ad cdbd
000003c0: 7ca8 023d f1c8 3bbd abcb 8abe 737c 26be
000003d0: 1057 393e bfd5 d8bd 14f6 14be ad90 a23e
000003e0: 467d 60be fcb3 a5be 623a 023e 9b29 46be
000003f0: 0ba1 bb3d 1238 373e b5b2 e7bc aa09 3fbe
-0.22671649 0.014981402 0.4217782 0.1430686 -0.14703354 -0.06327343 0.016525252 0.09183896
0.16619873 0.36149785 0.115853354 0.03954293 0.011836124 -0.006077095 0.040518645 0.2129555
-0.066235185 0.18247697 -0.017852187 0.33528614 -0.40840983 0.22625613 -0.10181627 -0.07212491
0.23735535 0.08982191 -0.26691133 -0.14149404 0.10352394 -0.0057566157 -0.27852488 0.15786071
0.20345831 0.23312713 0.23308861 -0.13942401 0.15523957 -0.09940293 -0.09311376 -0.1280688
-0.2947131 -0.48166943 -0.39540964 -0.12294748 0.106904514 0.4241777 -0.08886612 0.2952099
-0.089477405 0.021663036 0.2082774 -0.06909139 -0.35867935 0.26519215 0.06852371 0.39930966
0.1444628 0.15377596 0.16112374 0.27198622 -0.44775602 0.21998785 -0.33297545 -0.1133481
0.2980548 0.18213779 -0.048189674 0.40370962 -0.12281928 -0.06255145 -0.37331492 -0.008914692
-0.039857574 0.090650775 0.24488695 0.12716593 0.053489383 -0.014226115 -0.22523133 0.12775163
-0.06500822 0.01609882 -0.419695 0.050176773 0.4295814 -0.09330385 -0.030510094 -0.08659212
0.35732415 0.014907074 -0.14643371 0.04279779 0.45223024 -0.042326387 -0.5002363 -0.14067024
-0.36622107 0.15806657 0.119488284 -0.082943685 0.25757578 -0.008629101 0.16051553 0.2687201
-0.060354304 0.23961872 -0.32571924 0.07668803 -0.14666346 0.19719724 -0.25951514 0.012372325
0.14492044 -0.32173327 -0.22043876 -0.034707252 0.12277146 0.3429275 0.28443322 0.34992242
-0.05143298 0.18728735 0.13304365 -0.033553384 0.20011486 0.25534183 0.22468817 0.05984084
-0.02687991 0.2635616 -0.3387307 -0.47869718 0.026717672 0.25273997 0.4190243 0.022692045
0.33990833 0.33518067 0.13391587 0.48860705 -0.27768332 -0.377662 -0.25559035 0.1887399
0.11701622 0.4975488 -0.004855552 0.46702936 0.26685032 0.20975316 0.1345397 -0.09696612
-0.20900697 0.45029652 0.37915853 0.1329207 0.03994009 0.42925763 0.28391436 0.34728187
-0.17250936 -0.17095748 0.1335253 0.38398004 0.3179324 -0.17187417 -0.0012212852 -0.047408264
-0.117803834 -0.23639499 -0.19796157 -0.008291944 -0.19053781 -0.21450539 0.34750432 -0.11066845
-0.18668413 -0.010433745 0.36746803 0.29529127 -0.15186656 0.06919568 -0.068529435 0.4271744
0.116083026 0.33841708 0.047591045 -0.051247958 0.42178303 -0.078096345 0.20208207 0.027730562
-0.08165609 -0.057801105 -0.1383967 -0.07813375 0.167583 -0.03818952 0.14486387 0.32605848
0.18412888 0.12056456 0.08583596 0.50869644 0.29885766 0.30958608 0.2256204 -0.049492538
-0.21111429 -0.34970015 0.23025307 0.35680637 0.38677394 -0.1961606 -0.33702108 0.0639681
-0.2698033 0.19829807 0.13937509 0.13693458 0.10637923 0.25575072 -0.12912609 -0.15370806
-0.10605933 0.07949838 0.033783395 0.21773453 -0.36668098 0.14324854 0.030955825 -0.37769496
0.10660949 -0.22424799 0.12951244 0.12202915 -0.14740233 0.17618787 -0.018572923 -0.10042943
0.03189896 -0.04584593 -0.2710851 -0.16258411 0.18099618 -0.10587644 -0.14546996 0.31751004
-0.21922788 -0.3236388 0.12717584 -0.19351809 0.09161576 0.17892483 -0.028283456 -0.1865603

lstm.bias_ih_l0 f4 [40]
00000000: 1e1a 1c3f 87cc fbbd 3fff 4e3d 5b14 963e
00000010: 3b13 3d3e 3cad c93e 8853 f63d 700c db3e
00000020: 51d3 f43e cd09 b13e a2c9 183e c17e d13d
00000030: 4165 13bd 9418 983d d4ca ab3e 301c 4abd
00000040: 76e9 7c3e bc8f 413e b578 db3d 69ed af3e
00000050: fd99 73bd d77b b9be e223 b6be 9ad9 b13e
00000060: 4732 ec3d 3957 c53e 6e9c ac3e c0c0 9a3e
00000070: 4b78 b73e cef3 d53d 7a72 283f c72f d73e
00000080: 6e1a b93e 4fdc 0d3e b21e 203e dac1 d83e
00000090: e464 313e 5ec1 e03e b608 0f3f d536 e43e
0.6097735 -0.1229487 0.05053639 0.29312405 0.18464367 0.3938998 0.12027651 0.42782927
0.47817472 0.3457779 0.14920667 0.102292545 -0.035985235 0.07426563 0.33553183 -0.049343288
0.24698433 0.18902487 0.107163824 0.34360817 -0.059473027 -0.36227295 -0.3557425 0.3473633
0.11533027 0.38543108 0.33713096 0.30225182 0.35833964 0.10446893 0.6579968 0.4202864
0.36152977 0.13853572 0.1563671 0.42335397 0.17323643 0.43897527 0.55872667 0.44573084

lstm.bias_hh_l0 f4 [40]
00000000: cca3 1e3f 07d1 9b3e fb1e 9e3e 7a64 dc3e
00000010: 29d4 0cbe 6a3d 283d 105c 9c3e 3ccc 0cbc
00000020: 6b85 f93e 5ecb cf3e 433e af3e f6ff 293d
00000030: 5676 26be c980 fdbd a883 ef3e 728b 1ebe
00000040: 7c70 6d3e e059 4a3e 7246 48bc 908d cd3c
00000050: c9cc 973e f789 9dbe b645 83bd c804 b93e
00000060: 255a 043e 43d6 e23e 1d51 933d 531a 3fbd
00000070: 368a 183e a491 26be 6def 263f 9d29 143e
00000080: 20ca 793d da43 193f c912 3ebd e25b 9f3e
00000090: 6fbe de3e 826d e03e 8b1c 503e ef88 013f
0.61968684 0.30432913 0.3088301 0.43045408 -0.13752808 0.041074194 0.30538988 -0.008593615
0.48734602 0.40584844 0.3422719 0.04150387 -0.16256079 -0.123780794 0.46780133 -0.15482882
0.2318744 0.19760847 -0.012223827 0.025091916 0.29648426 -0.3076932 -0.06409781 0.3613646
0.12925012 0.44304094 0.071932055 -0.046655964 0.14896473 -0.16266495 0.65209085 0.14468999
0.060983777 0.5986916 -0.046404634 0.3112479 0.43504664 0.43833548 0.20323388 0.5059957

lstm.weight_ih_l1 f4 [40, 10]
00000000: 2c0a b6be bdf4 bcbe e38a 9cbe be3e 913e
00000010: 9085 103e 9adb 3e3e a662 153e fa3a 103e
00000020: 7929 9a3e 6ca1 003d 272c 363e f6eb d0be
00000030: 79e1 9abe 7295 0c3f 1773 af3c 9eed 803e
00000040: 10bb b53e 3f22 c93e 938a 273e 6d30 fdbe
00000050: d3a7 66be dbed 09be 3646 52be a4c6 9e3d
00000060: fcc4 dbbc 10a0 613c b8ef a33e 00b2 a83e
00000070: e9fd dd3e b973 c03e 3f3d 8bbe 6ce8 e03d
00000080: c9f0 eebd 4817 b93e dfc3 1a3d 521c a63e
00000090: ac3d a63e e4e0 1fbd 0529 fa3e c74b 553e
000000a0: 9187 ebbe beb3 d2be 7952 0cbf 181e 603e
000000b0: ee67 4a3e 936b ac3c 4c47 64bd c406 d33e
000000c0: 1cc3 0a3f ab46 de3e 3a05 bebe 39ec e1bd
000000d0: 165e d6be 4548 863e 899e b93c 77da 733e
000000e0: 7953 40bd 8b41 3a3e 6fc8 0a3f 4e44 413d
000000f0: e0a5 51be 1b76 43be 9fc3 8ebd abf2 cd3e
00000100: cefe dc3c 2d76 7b3d e31f b5bd a32a 1ebe
00000110: 862f 163f 1381 b43e 8b74 963e 9fa0 e73d
00000120: 0f6e 2fbe 03ad 923e b883 873e 0870 e03d
00000130: 0242 9e3c a1d4 313e 772f 51be b524 85bc
00000140: f4a1 aabe 2986 07bf 4d12 3abe d78f 413f
00000150: 6479 0e3e f75c 0f3f 6f38 1e3f 7666 db3e
00000160: f783 213f 34e3 1f3f 3bce 173e 5cde aabe
00000170: 6e08 d2bd 0ff3 053a d691 e03e 30d2 293e
00000180: 799d 03be a79f 9abc aa44 0c3f b30b 963e
00000190: 2d7e ab3b 7d38 223e 5416 9ebe 85c8 953e
000001a0: 2c78 dcbd 8608 823e 0852 1c3d f94f 9b3e
000001b0: 0523 9c3e 934b eebd c1f7 56be de80 79be
000001c0: bebc dbbd e299 c53e 1466 1d3f 8334 ed3d
000001d0: 6163 ad3e 31c4 a83e 1557 4b3f 1492 e7bb
000001e0: ab79 4cbe 5149 60bd 91a6 e0bd af54 5ebd
000001f0: 9c0b 033e 7b6a dd3e 260e 843e 7e53 923e
00000200: ac23 df3e 15c5 3a3e ab16 a7bd 26c7 25be
00000210: 77fb acbe fbb2 ac3e 1de1 32be 5a51 843e
00000220: 0b72 b0bc a69f 5b3d 4084 8a3d a5dc 5fbd
00000230: 6632 54bd 78c6 ffbd 692c 9dbe 73fa e33e
00000240: 8327 36be 11d7 9e3d 70e8 253e 990f 933e
00000250: ad12 f53e a403 783e b1ae 9bbd 6351 19be
00000260: 2165 af3c 1d1c 3d3d 19e4 b43e f316 5dbc
00000270: b650 473e 2d07 c63e 0260 1b3e b5cb 52bc
00000280: 5fe3 b0be 83ff b13e 7429 26bc 5083 013d
00000290: 819a b33c 33d6 4ebe f7bb 3c3e 066a 143e
000002a0: c84c 84bd 4274 983c b523 e83c bf79 543e
000002b0: 5795 09be 0ffd 8e3c a83c a43c 294d 57be
000002c0: d2dd cebd 7b3f 013e a69e c2be 90c4 813e
000002d0: ed7e 103e 4750 39be cb78 78be 020a 3a3e
000002e0: 9271 5e3d 9580 cabd 8baa 8ebe 9bb2 55be
000002f0: a608 673e 3339 353e 13ac 9ebe 529a 8ebe
00000300: 70aa b63c 6c46 b63d 041b 313e a483 803e
00000310: fdcf b43e 1b90 b63e c10d bd3e 7f38 bcbb
00000320: 506b 3b3d 7bcd 15be d643 ab3d ec4e d53e
00000330: b03e cb3e 2f7f 63bd 9496 a1bd 8c5b a73e
00000340: 9913 f63e c905 153e 1ea1 bbbe 71ad 543e
00000350: 4281 9b3e c14f 813d 0e0e 993d 462e 29be
00000360: 6ff6 903d 3079 8e3e 43f4 8ebe fead 073f
00000370: 604c da3e 51a5 bb3e 8bec a93e 45ec e33d
00000380: 4fd6 9d3d 864a 5dbd ac80 a0be e58e cdbe
00000390: 58aa 9a3d b510 e2be 73a6 acbe 5115 bcbe
000003a0: 4a8e 023d 404f 8d3e e820 783e 0cb1 bf3d
000003b0: 51c2 a63e 3176 0e3e 2ebd 963e 702a d83e
000003c0: d407 13bf 1dee b53d 4b14 8dbe 6c69 933c
000003d0: 7e34 fdbd 6b4a 5d3d cb6d 38bd c4c8 223e
000003e0: 5c41 ff3d dc70 023f bb88 543d 6f51 4fbd
000003f0: 108f a2be f6fe 8e3e e8fa e33d 5706 16bb
-0.35554636 -0.3690547 -0.30574712 0.2836818 0.1411345 0.18638459 0.14588413 0.14084998
0.30109766 0.031403944 0.1779028 -0.40805024 -0.30250147 0.54915535 0.021417184 0.25181288
0.3549428 0.3928394 0.16361456 -0.49451008 -0.22524957 -0.13469641 -0.20534596 0.077527314
-0.026827328 0.013771072 0.32018828 0.32948303 0.4335778 0.3758829 -0.27195165 0.10981831
-0.1166702 0.36150575 0.037784453 0.32443482 0.32468927 -0.03903283 0.4885942 0.20829688
-0.46001866 -0.41152757 -0.54813343 0.2188648 0.19766209 0.02104739 -0.055732056 0.412161
0.54203963 0.4341329 -0.37113363 -0.11031384 -0.41868657 0.26227012 0.022658603 0.23813806
-0.046954606 0.18189065 0.5421209 0.04718428 -0.20473433 -0.19088022 -0.069709055 0.40224203
0.02697697 0.061391998 -0.088439725 -0.15445952 0.58666265 0.35254726 0.2938579 0.11309933
-0.17131828 0.28647622 0.2646768 0.10958868 0.019318584 0.17366268 -0.20428263 -0.016252855
-0.33326685 -0.5293909 -0.18171044 0.7561011 0.13913494 0.5600123 0.6180486 0.4285161
0.6309199 0.6245606 0.14824764 -0.33372772 -0.10255514 0.0005109766 0.43861264 0.16584086
-0.1285304 -0.018874956 0.54792273 0.293058 0.005233547 0.15841861 -0.3087641 0.29254547
-0.107651085 0.25397128 0.03816417 0.30334452 0.30495468 -0.116355084 -0.20992948 -0.24365565
-0.10729359 0.38593966 0.61483884 0.115822814 0.33864883 0.32962182 0.7942975 -0.0070669744
-0.19968288 -0.05475742 -0.1096927 -0.05427998 0.12797397 0.432453 0.25792044 0.28579324
0.43581903 0.18239243 -0.081586204 -0.1618925 -0.33785602 0.337303 -0.17468686 0.25843316
-0.021538755 0.05361905 0.06763506 -0.054653782 -0.051805876 -0.12489027 -0.30697945 0.44527015
-0.1778851 0.077558644 0.16201949 0.28722838 0.4786581 0.24220139 -0.07601679 -0.14972453
0.021410527 0.04616939 0.35330275 -0.013494241 0.19464383 0.3867735 0.15173343 -0.01286595
-0.3454847 0.34765252 -0.010141719 0.03161937 0.02192426 -0.20198898 0.18431078 0.1449357
-0.06459957 0.018610124 0.028337339 0.20749567 -0.13435875 0.017454652 0.020048454 -0.21025528
-0.101009026 0.12621872 -0.38011664 0.25345278 0.14110918 -0.1809703 -0.24264829 0.1816788
0.054307528 -0.09887806 -0.2786449 -0.20868914 0.22561893 0.17697601 -0.30990657 -0.27852112
0.022298068 0.08900151 0.17295462 0.25100434 0.35314932 0.3565682 0.36924556 -0.0057440395
0.045756638 -0.14629166 0.08362548 0.41661775 0.39696264 -0.055541214 -0.078900486 0.32687032
0.48061827 0.14552988 -0.3664636 0.20769288 0.30372053 0.0631404 0.07473384 -0.16521558
0.070782535 0.27826834 -0.27920732 0.52999866 0.42636395 0.36649564 0.3318828 0.11129049
0.07706892 -0.05402615 -0.3134817 -0.40148082 0.07552022 -0.4415337 -0.3372074 -0.36735013
0.03187398 0.27599525 0.24231303 0.09359941 0.32570127 0.13912274 0.29441208 0.42219877
-0.5743382 0.08883307 -0.27554545 0.017994605 -0.12363528 0.05402605 -0.04502658 0.15896899
0.12463638 0.5095346 0.05188821 -0.05061477 -0.31749773 0.27928895 0.11131841 -0.0022891962

lstm.weight_hh_l1 f4 [40, 10]
00000000: 7637 ac3d 0423 f23c fc65 1e3e 2dff c03c
00000010: aae9 383d 6265 b63e 7c6a 0b3d 4951 afbe
00000020: c5ee d63e 0c4b 6e3e 888e 063f bbb4 0abf
00000030: 5d43 f7be 3908 1c3e c446 e03e 69fe 503e
00000040: bd84 c6be 4398 c23e 2bdf 103e a2fa 4d3d
00000050: 4abb b63e ae9b f7be 3de3 b6be 5f7b ee3e
00000060: d7c5 6c3c c6a4 3bbe b928 be3d c65f 873e
00000070: eb76 03be d523 e33e 9401 9f3e a827 1dbe
00000080: 0511 a03d 263a cf3d c4af 0e3e d7d9 973e
00000090: 7d9d 043e 2609 2e3e d8ca 16bd 19c3 5c3d
000000a0: 03fa 53bd eccc 4c3e 1be2 b1bd de13 d0bd
000000b0: e386 ca3e 5530 8c3d 856d d23d e79e 943d
000000c0: e5fd 453e 3445 cabe 9054 56bd 66fd 263e
000000d0: 7fe2 f03d 4cf8 c5bd b29e 593e a6dc 9d3e
000000e0: 24ee 273e 20bb abbd 915c c93c e4f1 ad3e
000000f0: 6f6f 153d f8dc 1d3f f807 c83e 945b fbbd
00000100: f937 aabe 4c99 7bbe 10a9 e43e d724 1bbf
00000110: aee4 d23d a8b6 b1be fbef a23d 4006 72bc
00000120: 0a14 b43e ff1c b6be 320b 433e 245e 9abe
00000130: 673f f83c b3f0 923d 013f e33c 0a09 dcbe
00000140: ff85 113e 7cb4 6cbc ab2a b13d 109d 573e
00000150: da36 d93e 6479 263d 3bcd dbbe 78e6 90be
00000160: 77f9 0fbe 1ad3 373e 8159 dabd 35e7 f4be
00000170: 3d6e 0c3e c57e 9d3d cbef 643d 8c6d 0bbe
00000180: 4c3d 893d 6343 19bd 2806 9c3e a61d 263c
00000190: 4eb9 1ebe 6d32 993d 2480 debd fea0 9dbd
000001a0: 60e1 4a3d c67a 9c3d 0330 2d3c 0005 64be
000001b0: 86b8 37be 9cf0 8d3e 5575 aa3e 8825 99be
000001c0: 17a7 00bf a6dc dc3e 8eb1 0a3f 647b 9e3b
000001d0: bb0f 3ebe 61ea 6e3e 07b0 663e 8f0d d63e
000001e0: 0992 0f3e acde 72be ce77 c1be b4f8 ed3d
000001f0: 55e3 b83e 13b3 e43c 5483 c9be 7986 c63e
00000200: 5320 16be bb86 d33e 6bd2 ad3d fbd8 6ebe
00000210: 9794 d7be 847f 1e3d af3b 67be 5944 94bd
00000220: 2857 7dbe 643d dcbd d8c5 72be 1dda bc3d
00000230: 0d13 083e 0f08 83be fc0e 55be df41 b13d
00000240: 43c2 b63e c20f 1abe 4afb a4be d0ef 5c3e
00000250: f2fd e4bb 3f9f ffba e4ac b23e 5a91 3fbe
00000260: 12c0 a6be 3810 803e 9157 763e 0a4f 9c3e
00000270: 3916 08be ae71 efbc 4a29 833e 008f c33e
00000280: b0f2 e3be 1218 0c3f 69af 863e d433 d5be
00000290: 9b35 b6be 675d c2be 58bc ac3e edeb dfbe
000002a0: bbc5 bcbe c8fc c2be 9ddd 033e 3851 4dbd
000002b0: 278e 22be e9c7 a7be 2cf2 2dbe cc45 24bd
000002c0: 7823 aebd 79ba 7ebd 7438 84be a5a8 a4bd
000002d0: f5b5 773e 7aa1 89bc 594f 003e 426e 77bd
000002e0: 018b d4be 424e 863d 7187 15be 5e47 703e
000002f0: 6fc5 da3c cf58 ac3d b7b4 2c3e 79b6 c33d
00000300: cd9d c6be c928 023d 492b 7e3e d87e af3e
00000310: 03a8 70be 1f99 e0bd 7629 883e 3a3c 4dbd
00000320: 01ef 9c3c d592 4abe 0b2d 3c3e 9060 1ab9
00000330: 2d76 333e 9884 4e3e ffce 91be 64b2 06be
00000340: df8f 9c3d fc48 873e 9917 9e3b 22f6 433e
00000350: f04e 923e 19eb f3be 5455 36be af94 6dbe
00000360: 162c a83e 3fe8 32be e782 723e 45a7 f6be
00000370: e96a 99bd 178c b4bc da89 2fbe d3bb b3bc
00000380: 4e45 b4be c20b d1be 9fcb 69be 0ddb 813e
00000390: a3a4 3b3e 8262 20be 2a7a 743d 3c66 a93e
000003a0: 974c 40be 7611 dabc d984 1dbe 979e 9a3e
000003b0: 9bfc 963e 9158 b8be a70f 04be 477c 093e
000003c0: 564b 743d fda8 8f3e 7a97 59bd 360a 943e
000003d0: 9346 02be 226e 083d 8255 443e 7c33 a3be
000003e0: 167a 8b3e 4f2f 09be 8962 3e3e a292 6e3e
000003f0: e975 94be a04c 1d3e 51c0 4d3e 1f38 193e
0.08409016 0.029557712 0.15468591 0.023559177 0.045144714 0.35624224 0.0340371 -0.34241703
0.41979042 0.23270816 0.52561235 -0.5418202 -0.48293582 0.15237512 0.4380399 0.2040955
-0.38773146 0.3800679 0.14147632 0.05028785 0.35689765 -0.48360962 -0.35720244 0.465785
0.014451466 -0.18324575 0.09285111 0.26440257 -0.12838332 0.44363275 0.31055892 -0.15347159
0.07815746 0.10118513 0.13934237 0.29658386 0.12950702 0.16995677 -0.03681454 0.053896997
-0.0517521 0.20000046 -0.08685704 -0.10160039 0.39556035 0.06845156 0.102747954 0.07256871
0.19335134 -0.39505923 -0.05232674 0.16307601 0.11761951 -0.096664995 0.21251944 0.30832404
0.16399437 -0.08385301 0.024580272 0.3397361 0.036483224 0.61665297 0.3906858 -0.122733265
-0.3324583 -0.24570197 0.44660234 -0.6060309 0.102975234 -0.34709668 0.07955929 -0.014771998
0.3517154 -0.35568997 0.1904724 -0.3014995 0.03030367 0.07174816 0.027740004 -0.42975646
0.14211272 -0.014447328 0.086507164 0.21056008 0.4242466 0.04064311 -0.42930016 -0.28300834
-0.14060007 0.17951623 -0.10661603 -0.47832647 0.13713928 0.07690195 0.055892747 -0.13616008
0.067011446 -0.03741778 0.30473447 0.010138905 -0.15500376 0.07480321 -0.10864285 -0.076967224
0.04953134 0.07640605 0.010570529 -0.22267532 -0.17941484 0.27722633 0.33292642 -0.29911447
-0.5025496 0.4313709 0.54177177 0.0048364867 -0.18560688 0.23331596 0.22528087 0.4180722
0.14020552 -0.23717755 -0.37786716 0.11619702 0.3611094 0.02791742 -0.39358008 0.3877447
-0.14660768 0.4131373 0.084874 -0.23324959 -0.42105553 0.038695827 -0.22581361 -0.07239599
-0.24740279 -0.10753897 -0.23708284 0.09221289 0.13288517 -0.25592086 -0.20806497 0.08655142
0.35695085 -0.15045074 -0.32222968 0.21575856 -0.0069882805 -0.0019502415 0.3489753 -0.18707791
-0.32568413 0.25012374 0.24056841 0.30529052 -0.13289727 -0.029229011 0.2561744 0.38195038
-0.44521093 0.5472423 0.26305702 -0.41641104 -0.35587773 -0.37961885 0.33737445 -0.43734685
-0.36869606 -0.38083482 0.12877508 -0.050126284 -0.1587454 -0.32769707 -0.16986912 -0.040105626
-0.08502859 -0.062189553 -0.2582432 -0.08039979 0.24190505 -0.01680063 0.12530269 -0.060407884
-0.41512302 0.06557895 -0.14602448 0.23464724 0.026705472 0.084153764 0.16865812 0.09556288
-0.38792267 0.031777177 0.248212 0.34276462 -0.23501591 -0.109667055 0.26594132 -0.050106265
0.019156935 -0.19782574 0.18376558 -0.00014722557 0.17525549 0.20167768 -0.28478238 -0.13153988
0.07644629 0.2642287 0.0048245904 0.19136861 0.2857585 -0.47640303 -0.17805988 -0.2320125
0.32846135 -0.17471407 0.23682748 -0.48174492 -0.074910946 -0.022039456 -0.1714243 -0.021940148
-0.35209125 -0.40829283 -0.22831582 0.25362435 0.18324523 -0.15662578 0.059686817 0.3308581
-0.18779217 -0.026619654 -0.15382709 0.3019912 0.29489598 -0.3600507 -0.12896596 0.13426314
0.05964216 0.28058615 -0.053122975 0.2891404 -0.12722234 0.033308156 0.19173244 -0.31875217
0.27241582 -0.13396953 0.18592276 0.23298123 -0.28996208 0.15361261 0.20092894 0.14962815

lstm.bias_ih_l1 f4 [40]
00000000: 8e11 1d3e 1296 233f fdff 5b3e b280 c8bd
00000010: 0904 cd3e 6e2f 8f3e bc81 c43e 1761 6e3e
00000020: 8693 3a3e a5c6 453e 1f95 f1bd 5da5 fd3e
00000030: 4c86 9b3e 6dd9 613e d0a6 0cbe fb11 8dbd
00000040: 5a26 6ebc 4fac 27be f9fd a33e 4333 7d3d
00000050: 0b52 6e3e e462 0abf 8d58 ccbe a506 843d
00000060: 79cc a3bd 420a 173e f5b7 8ebe b576 583e
00000070: b4a7 42be 569d 07bc b1e8 653c 27a2 953e
00000080: 73ce 2ebc fdb0 0ebe c78f 8d3e 688b 1f3e
00000090: 4c15 9b3d a2a2 b23e fe94 b03e c9bb 7e3c
0.15338728 0.63900864 0.2148437 -0.09790172 0.4004214 0.27965873 0.3838023 0.23279224
0.18220338 0.19314058 -0.11796021 0.49540225 0.30375898 0.22055598 -0.13735509 -0.06888195
-0.014535511 -0.16374324 0.32029703 0.061816465 0.23273484 -0.54057145 -0.3991131 0.0644658
-0.079979844 0.14750007 -0.27874723 0.21139033 -0.19009286 -0.008277258 0.014032529 0.29225275
-0.0106693385 -0.13934703 0.27648756 0.15580523 0.075724214 0.34889704 0.34488672 0.015547701

lstm.bias_hh_l1 f4 [40]
00000000: 980e f43e 7c1f 043f f55a 02be b556 f9bc
00000010: 2890 0b3e 6d6a c33e 5002 9f3d 6e77 5b3e
00000020: 0d3e db3e 5428 173e dbba bb3e 6ec8 713e
00000030: eeb8 3b3e d903 27be d0ea bebd e456 1b3e
00000040: 939f 0dbe 3077 30be 90b0 21be 9972 10bd
00000050: d097 803e 12e0 57be 2689 33be eaba c13d
00000060: 9852 cf3b c76b c13e 3ceb eebe bd05 dbbc
00000070: 22f8 9fbd 7da9 c03e d6ed c63e 1d4f 6e3e
00000080: d166 1d3d a1ab 723e 4d39 d73e b24a 1a3c
00000090: 1679 a73e 288f 3ebe 44c6 533e 0a60 3d3e
0.47667384 0.5161054 -0.1273001 -0.030436853 0.1362921 0.38167134 0.07764113 0.21432278
0.42820778 0.14761478 0.36665997 0.23611614 0.18332264 -0.16310062 -0.09322131 0.15169865
-0.13830404 -0.17232966 -0.1579001 -0.03526554 0.25115824 -0.2108157 -0.17532787 0.09459479
0.0063269846 0.3777754 -0.46663845 -0.026736135 -0.078109995 0.3762931 0.3885333 0.23272367
0.03842813 0.23698284 0.42035905 0.009417223 0.3270957 -0.18609297 0.20681101 0.18493667

lstm.weight_ih_l2 f4 [40, 10]
00000000: 0f7e 90bd 7b9d 1a3e 8087 9a3d 6a43 3abe
00000010: 7e00 6b3e b4c5 ee3d 327e bdbe e734 32be
00000020: 2035 a03e 8687 e53d 77a8 f83e 09c8 c4be
00000030: 436c 04be 74a4 533d bdd7 843d 8aa3 2e3f
00000040: 63b6 03bf 2fe7 ec3e 16b8 e3bd 5afa 893e
00000050: cfd0 9c3e c8e0 183e 0c96 38be 1e6a 133e
00000060: fbca 5d3e c161 82bd 5a8e 0b3e 2823 3bbe
00000070: 5e56 b53c c546 093e 0b93 9e3e 80f0 803e
00000080: a605 20be 9773 a9bb 2929 053e 97df 553e
00000090: 5cf6 d7be 0acf b23d f63c 093f 9099 25be
000000a0: 4fa6 bd3d 25ff 0bbe a4ec 903e e39e b33e
000000b0: 89af 123f 5e7e 39be ef9d 363e 6d76 69bd
000000c0: b0dd df3e bd90 153e 48c6 b7bb 1e11 b3be
000000d0: be66 d5be 9591 443d 8dfe 833e 79a2 01be
000000e0: b3cf d5be 58dd a8bc 479d 133e 9529 7b3e
000000f0: 54f2 6bbe fe79 e9bd 3ee3 b13c 53ff 693e
00000100: 0b06 8b3e 9abc 97bd 7444 913e 8936 9c3d
00000110: 7088 73bd ada1 0abe eb63 313e d1a9 e33d
00000120: a854 a33e 4b36 4ebe 6cb2 97be 023e 693e
00000130: bd95 973e 2f95 8d3b f0ef b9bd 19a7 a8be
00000140: bd9b e13e 5f8b 3bbe 4da5 73be 6c21 bb3e
00000150: 534c e93e 6ed8 3c3e a9f3 f1bd 7ea7 2cbe
00000160: 35c6 1c3f 818f e23e 2b0e 17be be3b a7bc
00000170: 7af3 213e 2e5a d93e 2a4d 563d 525d 823e
00000180: 9c2a b03d 5112 55bd 9c23 1d3e 155d 58be
00000190: 2b92 2e3b c522 453e 2c1f 463e e867 63be
000001a0: 41d6 c4bd 09a8 833e 3456 26bd 1ad5 1a3e
000001b0: 4337 7dbe 61bc b7be fdc0 193e a98c 7fbe
000001c0: 1960 7ebe eb49 343e e427 83be 7a91 073d
000001d0: b3c1 ddbe 7839 783e d4b2 82bd 34c0 8f3d
000001e0: 6228 583d b6d4 cd3d b9ff 65be de35 403e
000001f0: e3eb 5b3e f20c 0b3e 0aae 4d3b 000f 373e
00000200: ab1b 92bd bcf0 5fbe a7de c9be f537 163f
00000210: 7fe4 2a3d 6a32 33be dba0 4a3e 4482 a0be
00000220: c44e e43c 4b1c a93d bd48 623d c85c 073e
00000230: f3fe 10be 6d18 a73e c6e2 3cbe 9209 9abd
00000240: 7c94 d3bd 9a50 8abd 9967 82be 8a7c 223e
00000250: 9d16 2b3e 0fb6 8bbd 414c 22bd ffa8 013e
00000260: f6eb de3d e61a 013e d0c0 89be 29ea 873e
00000270: 923c 4fbe 744f 6c3e acfc 753e 676b d93d
00000280: 9776 99be 863d 50be 5172 8fbd c7d1 343e
00000290: 58d9 133e 4635 9abe 6d5c 6cbd c9cd ae3b
000002a0: 2633 d03d c94d 583d dfba 6fbd eee1 06bd
000002b0: 1a5c 863e e573 7ebd 632f e5bd 4f68 833e
000002c0: bba8 843e 1500 2f3e e484 1dbe b002 08be
000002d0: 24fa 17bd 2b6a 04be 2e0d 84be 3e42 cd3d
000002e0: c5b3 ca3d f2bc 293e d2e2 233e a64d ab3c
000002f0: d1c2 cc3e f176 473d 56e8 92be 0e35 f43e
00000300: 40e6 483d edfd a63d 80f3 9c3e d07b 913e
00000310: b250 eabd 4082 d9bd afa1 b13d 90e5 d9bc
00000320: 3d71 653d ff33 05be 28ac 953e feb8 12be
00000330: b35c edbe 12f2 73be 0a9a b33d 88f8 90be
00000340: 60af 90bc 9c78 e73c de0e edbd a05d c63e
00000350: f576 a83d bd2f ed3d 906e 333f baad f33d
00000360: 915f c3bc b148 50bd 519c 283f 33d1 c4be
00000370: 2e62 7bbe c498 7f3e 718f 333e 5f12 a93d
00000380: f4c4 23be 7860 343d 04b9 923e 5ea2 0ebd
00000390: 1b9b 7bbe c88c f03d e8ee 853d 7d94 0a3d
000003a0: 6d0c dabd a286 1abd 70bd f6be 9afc 27bd
000003b0: 18db 333e 75ac 2cbe d075 853e 745c 26bc
000003c0: d3d8 5e3e 388a 9bbe 5d9e aebe 9011 833e
000003d0: ff8d d53d 1d33 2ebe 78ed 5bbe 6536 663e
000003e0: 647e f4bc 7ee0 0c3e 8d00 413e 74c5 3e3e
000003f0: 182f aebe 830a 913d 1e41 033f 0ff6 863e
-0.07055294 0.15099137 0.07545376 -0.18189779 0.22949407 0.11658803 -0.37010342 -0.17402993
0.3129053 0.1120749 0.48566028 -0.38433865 -0.12931924 0.051670507 0.06486461 0.6821829
-0.51450175 0.4627013 -0.11119096 0.26948816 0.30628058 0.14929497 -0.18025988 0.14395949
0.21659462 -0.06366301 0.13628522 -0.1827513 0.02213591 0.13405903 0.3097156 0.25183487
-0.15627155 -0.00517125 0.13003983 0.20886074 -0.42180145 0.08730896 0.53608644 -0.1617186
0.092602365 -0.13671549 0.28305542 0.35082158 0.57299095 -0.18114612 0.17833684 -0.056997705
0.43723822 0.14605995 -0.0056083538 -0.34973997 -0.4167995 0.0479904 0.25780144 -0.12659635
-0.41760024 -0.020613357 0.14415465 0.24527581 -0.2304166 -0.11400221 0.021714803 0.22851305
0.27153048 -0.0740902 0.28372538 0.07627589 -0.05945629 -0.13538237 0.17323272 0.11116374
0.31900525 -0.20137899 -0.29628313 0.2277756 0.2960643 0.0043207626 -0.090789676 -0.32939985
0.4406413 -0.18314885 -0.23793526 0.36548936 0.45566043 0.18441936 -0.118140526 -0.16860768
0.6123994 0.4425011 -0.14751498 -0.02041423 0.15815535 0.42451614 0.052319683 0.25461823
0.08601877 -0.05201942 0.15345615 -0.21129258 0.0026637416 0.19251545 0.19347829 -0.22207606
-0.09611178 0.25714138 -0.040609553 0.15120354 -0.24728112 -0.3588591 0.15015025 -0.24956001
-0.24841346 0.17606322 -0.25616372 0.03309772 -0.43311843 0.24240673 -0.06381765 0.07019082
0.052772887 0.10050337 -0.22460832 0.18770549 0.21476702 0.13579157 0.0031384253 0.17876816
-0.071341835 -0.21869177 -0.39427683 0.58679134 0.041721817 -0.174997 0.19787924 -0.31349385
0.02786959 0.082573496 0.05524515 0.13218987 -0.14159755 0.32635823 -0.18445882 -0.07521357
-0.103310555 -0.06753655 -0.25469664 0.1586782 0.16707845 -0.06821834 -0.039623503 0.12662123
0.1088485 0.12607917 -0.26904917 0.26545838 -0.2023795 0.23077184 0.24022168 0.106161885
-0.2997329 -0.2033597 -0.07004226 0.17658149 0.14438379 -0.3011877 -0.05770533 0.00533459
0.10166006 0.052808557 -0.058527824 -0.032930307 0.26242143 -0.062122244 -0.11190679 0.2566552
0.2590998 0.17089875 -0.15382725 -0.13282275 -0.037103787 -0.12931125 -0.25791305 0.100224
0.098975696 0.16575983 0.16004494 0.02091105 0.39992383 0.048697416 -0.28692883 0.47696728
0.04904771 0.08153901 0.30654526 0.28414774 -0.11441173 -0.10620546 0.08673417 -0.026598722
0.056016196 -0.13008116 0.29232907 -0.14328381 -0.46359786 -0.23822811 0.08769615 -0.28314614
-0.01766175 0.028255753 -0.11575101 0.38743305 0.08225814 0.11581371 0.7009058 0.1189837
-0.02384928 -0.050850574 0.6586352 -0.38440856 -0.24549171 0.24960619 0.17535187 0.08255457
-0.159931 0.044037312 0.2865678 -0.034822814 -0.24570887 0.11745602 0.065397084 0.033833016
-0.10646901 -0.037726052 -0.48191404 -0.041012384 0.17564046 -0.16862662 0.26066446 -0.0101538785
0.217624 -0.3037889 -0.34105197 0.25599337 0.10427474 -0.17011686 -0.21477306 0.22481687
-0.029845424 0.13757512 0.18847866 0.1863001 -0.34020305 0.07082083 0.51271236 0.26359603

lstm.weight_hh_l2 f4 [40, 10]
00000000: 55e4 f2bd 5c64 443e 7bd5 8a3d c8bb b6bc
00000010: 348b c5ba 7a3c bdbe 0628 70be c83c 32be
00000020: fbad cd3d 8da7 a63e 2796 e8bd 6807 e5be
00000030: d749 1abe 27d6 98bd 1a63 973e 188a c13e
00000040: 0755 24bd 3ec8 193f b133 01be e547 11bf
00000050: fb4f 23be 73f1 5d3d 4410 3a3e 90d6 b23e
00000060: 2008 693d 4f46 08be 38c4 1d3e bb72 debd
00000070: c8aa 823d 9343 9b3e 0efb 743e 21f0 9d3e
00000080: 4d3c 633d 0385 8eba aeb2 03be 68f2 073e
00000090: a6d5 833e d45e c93d 3398 333e f35a 33be
000000a0: 8123 debd 0a65 ff3d 18ce 373e 6bd8 efbd
000000b0: 6996 033e 270b 4cbe 3f3e 18be 42f2 813e
000000c0: 7364 343e bdbd 4a3e 01ad a1be 2284 863e
000000d0: 9dfc df3d 0900 36be 497d 563e 7735 303e
000000e0: c76a c43c 4596 d73d 7709 0dbd e687 773e
000000f0: 40cf 363c f17a 64bc b814 6d3e a20d 70be
00000100: 102c 283c 5aea 0e3e 98c3 b83d 3fa4 f7bd
00000110: 60b4 983e 8941 5cbe be20 793d 0f91 1abd
00000120: fcf7 543d 7839 f2bc f555 ae3e a23e 1e3e
00000130: b6f1 173e d328 2c3e 6a2f 33be 9c05 fabd
00000140: 382e a63c 7369 903e df50 c2bd bc09 6cbe
00000150: f023 34be d787 133e f2dd 803e 1aa2 883e
00000160: 82de 20be 9b85 bfbd 6d74 22be bbd2 653e
00000170: 24bd 7a3e 4b3b 30bb 5ba0 0e3e 0103 24be
00000180: c012 a03e dd31 bebd 6425 763d a14b 603e
00000190: 9ac6 86be 9461 7bbe 372e 7d3e 2b09 b13c
000001a0: 0d91 803d 1272 08be 1007 8a3e 0150 8abe
000001b0: 705b 123d 02d1 2ebd 088a 81be 79f1 dbbd
000001c0: 78d4 c7be 82db a5be 917a f63c 512e fdbc
000001d0: 7a67 aa3e bffc 213e 656e 323d c9c3 32be
000001e0: c341 dcbb 327a 7b3a 3e76 27be b944 633d
000001f0: de9d 94bd 095b 4d3d f8b4 4f3e 544b a2bc
00000200: 3370 493e 0d9a 883e 4206 123e dcf8 1b3f
00000210: e2fb afbc e3c2 3fbe 123a a83d 50bd 72be
00000220: c9c2 04be a6e2 abbe 5e9f bf3e f0cb 043e
00000230: 8c96 89bd 439e 89bd f11f 203e 6eb8 5f3e
00000240: 26e2 663e 1704 e23c bdb7 6f3c 49a1 3e3e
00000250: 9003 be3e a1f5 b5bd c7f5 6abd 3e4a 123e
00000260: 3405 053d b776 5abe a8db 08be 1cb2 60be
00000270: 9452 51bd 46c9 a13d f089 1ebe ac71 1e3e
00000280: 2813 6ebe 56be a3bd f5cd 78be e0bd 283e
00000290: 4b3d 61bd 755f 8bbe 11e5 933d e0ef acbe
000002a0: e038 1b3e 6d22 923e 8ac8 b1be 4c24 23be
000002b0: c5a5 b3bd f3cd dfbd 0ac7 52bd ff96 8ebe
000002c0: bb33 113e d89f fd3d 9fc2 f43c 45ba 9a3d
000002d0: 26e8 143e f235 05be 621c 823e 7810 243e
000002e0: abaf 5c3d a06c 01be 7b0c 22be 1ae4 a23e
000002f0: 21ac 9dbe c1e4 93be cd8e fabd 4e8f d63e
00000300: d67c 5dbd 2b90 01bd 0693 f93d b413 b3be
00000310: 65cd 803d 6bc9 7bbe fe01 823d a151 fb3c
00000320: 3762 e6bd dc04 b23c cb2f 04bc ff75 a7be
00000330: 53ca aebd bfd3 99be ee1c 903d 1d77 88be
00000340: 0425 8dbd 80d0 49be c897 3f3d 0246 cc3e
00000350: 7959 863d b15d d23e 79ac b5be 8f59 ccbe
00000360: 8a7f 6bbe 61c2 98be 8bc8 913e bea4 c73e
00000370: 5a02 41be 3437 a53c 0115 793e 054c 7abe
00000380: d8d2 ecbd 29b0 723e bd5c 323e 7f9e 65be
00000390: 5bb6 8abe 57d3 08be 2939 28be a237 d0be
000003a0: 9713 87be 1673 23be bb8a e4bd f3c4 50be
000003b0: 6c7d dd3d 737b 843e 3c82 e23d 847d 7d3c
000003c0: 37d4 1dbc af73 7a3e 13bd d43c 3faf a03d
000003d0: 688e 83be 3f40 653e 69c4 293e 4858 ac3e
000003e0: f370 ae3d 1ce6 443d 4a4e 8cbe a23c 6d3c
000003f0: ecc7 1b3d 316f 5fbe f8d0 62be a763 3fbe
-0.11859957 0.19178909 0.067789994 -0.022306338 -0.0015071393 -0.36960202 -0.23452768 -0.17405999
0.1004295 0.32549706 -0.11356764 -0.44732213 -0.1506723 -0.07462721 0.29567796 0.3780067
-0.04012015 0.6007117 -0.12617375 -0.5675033 -0.15948479 0.054185342 0.18170267 0.34929323
0.056892514 -0.1330807 0.15406883 -0.10861727 0.0638023 0.30324993 0.23923895 0.30847266
0.05547743 -0.0010873381 -0.1286113 0.13276064 0.25748938 0.0983254 0.17538528 -0.17515163
-0.108466156 0.124704435 0.17949712 -0.117112 0.12850346 -0.1992613 -0.14867495 0.2538014
0.17616443 0.19798942 -0.31577304 0.26272684 0.10936854 -0.17773451 0.2094623 0.17207895
0.023976697 0.105267085 -0.034432855 0.24172935 0.011157811 -0.013945327 0.23152435 -0.234427
0.010264412 0.13956586 0.090216815 -0.12091874 0.29825115 -0.21509375 0.06082224 -0.037735995
0.05199431 -0.029568419 0.34049955 0.1545358 0.14838299 0.16812448 -0.17498556 -0.12208101
0.02028571 0.2820545 -0.09488081 -0.23050588 -0.17591834 0.14407288 0.2516933 0.26686174
-0.1570988 -0.09351655 -0.15864725 0.22443669 0.24486214 -0.002689081 0.13928358 -0.16016771
0.31264305 -0.092868544 0.060094252 0.2190385 -0.26323396 -0.24548942 0.24724661 0.021610817
0.06277666 -0.13324764 0.26958513 -0.27014163 0.035731733 -0.042679794 -0.25300622 -0.10739417
-0.39029288 -0.32394034 0.030087741 -0.030905874 0.3328207 0.15819071 0.04356231 -0.17457499
-0.0067217066 0.00095930987 -0.163537 0.05548546 -0.07256673 0.050135646 0.20283878 -0.01981131
0.19671707 0.2668003 0.142602 0.60926604 -0.021482412 -0.18726687 0.08214201 -0.2370503
-0.1296493 -0.33571357 0.37426275 0.12968421 -0.06718168 -0.06719639 0.15637185 0.21847698
0.22547206 0.02758984 0.014631209 0.18616213 0.37112093 -0.088847406 -0.057363298 0.14286134
0.032475665 -0.21334349 -0.13365042 -0.21942943 -0.051104143 0.07899718 -0.15482306 0.1547305
-0.23249495 -0.07995288 -0.24297316 0.16478682 -0.054990094 -0.27221265 0.07221425 -0.3377676
0.15158415 0.2854189 -0.34723312 -0.15931815 -0.087718524 -0.109279536 -0.05145935 -0.27849576
0.1417989 0.123840034 0.029877959 0.07555059 0.14541683 -0.1300886 0.2541228 0.16021907
0.053878468 -0.12639093 -0.15825073 0.31814653 -0.30795386 -0.28885463 -0.12234268 0.41906208
-0.05407413 -0.03163163 0.121862456 -0.3497597 0.06289176 -0.24588554 0.06348036 0.030678572
-0.11249202 0.021730833 -0.008068035 -0.3270721 -0.08534684 -0.30044362 0.07036768 -0.26653376
-0.06891826 -0.19708443 0.04677561 0.39897162 0.06560034 0.41087106 -0.3548315 -0.39912078
-0.22997871 -0.298358 0.28473315 0.38992876 -0.18848553 0.020167924 0.24324419 -0.24443062
-0.11563653 0.23700012 0.1741819 -0.22423743 -0.2709225 -0.1336187 -0.16428055 -0.40667444
-0.26382133 -0.1596187 -0.11159273 -0.2038763 0.10814938 0.25875434 0.110599965 0.01547182
-0.0096331155 0.24458192 0.025969064 0.078459255 -0.25694585 0.22387789 0.16578831 0.33661103
0.08517637 0.048071012 -0.2740348 0.014479788 0.038032457 -0.2181976 -0.22150028 -0.18690358

lstm.bias_ih_l2 f4 [40]
00000000: 2df9 d93c 6fab a73e 5325 84be d66b c53d
00000010: 44aa 953c 50c3 7b3d 1caf 943e 2701 343e
00000020: 6ded 133e f6cf ebbd a3ef 52bc 8b5d a53d
00000030: ac22 a43d 7e64 583e 147c 6abd 0bd6 613d
00000040: 0c67 90be 64b8 813d 6611 8d3e 8d84 86be
00000050: ffee 16be 4441 433e 8d9a 5bbe 567e 83be
00000060: 6617 4cbe b258 723e 8ff5 893b 5baf 833e
00000070: 2105 c0be ccf8 59be 4977 973e 0333 a53e
00000080: 6399 44be 7eec 27bb 07bd cabd c988 32bc
00000090: 3d8a 213e 85b4 673e ffc5 43be 53b4 e03e
0.026608074 0.3274798 -0.25809726 0.09639709 0.018269666 0.06146556 0.29039848 0.17578565
0.1444604 -0.11514275 -0.012874517 0.080744825 0.08014426 0.21132085 -0.057247236 0.055135768
-0.2820362 0.06333998 0.27552336 -0.26273003 -0.14739607 0.19067866 -0.21445675 -0.25682324
-0.19930801 0.23666647 0.004210181 0.25719723 -0.37503913 -0.21286315 0.29583195 0.3226548
-0.19199137 -0.0025623138 -0.09899335 -0.01089687 0.1577539 0.22627456 -0.19118498 0.43887576

lstm.bias_hh_l2 f4 [40]
00000000: 1a15 f23d f6a5 0e3f de78 9f3e ec34 bc3d
00000010: 97f5 79be b3e2 b03c f639 7f3e db7b 6c3e
00000020: 1384 c8bd feb6 bf3e 4ce8 c6bd cf56 953e
00000030: e6b7 ef3b 77c5 cc3d 23a6 003e c825 1e3d
00000040: e08e 39bd 997f a8be 1652 d9bc deda 86be
00000050: 03ff 133e 7a18 81be 1f42 553e db1a 58bd
00000060: b2dc 81bd c862 49be fcdc 133e 936b 7a3e
00000070: 9949 cfbe be5a e1bd c817 86bd 9531 533e
00000080: eda3 2e3d 54f6 4a3e ebf2 c23d d378 f73d
00000090: 9781 763e aef3 80bd 9b52 aebd 3c33 15be
0.11820431 0.55721986 0.31146902 0.091897815 -0.24410091 0.021592474 0.24924454 0.23094122
-0.09790816 0.374443 -0.09712276 0.29167792 0.0073156236 0.09998601 0.12563376 0.03861025
-0.04530227 -0.3290985 -0.0265284 -0.26338857 0.14452748 -0.25213987 0.20826004 -0.052759986
-0.063409224 -0.19666588 0.14439768 0.24455099 -0.40485838 -0.11003636 -0.06547505 0.20624383
0.0426368 0.19820529 0.09518989 0.12083592 0.24072872 -0.06296478 -0.085118495 -0.14570326

fc.weight f4 [1, 10]
00000000: 51be 5bbe 80e3 3d3e c7b3 8ebe b3a7 d4be
00000010: 8d94 163e 76cd bf3e fe3d 6dbe 1b7a 51bd
00000020: 4537 cbbe 1fda b8be
-0.21459319 0.18543816 -0.27871534 -0.41534194 0.14705105 0.37461442 -0.2316818 -0.05114184
-0.39690605 -0.36103913
