ec_l2o_log/mtl_0.5_1_1_0.4/lstm_unroll.pth (torch, 13115 bytes, 13 tensors)

lstm.weight_ih_l0 f4 [40, 2]
0	0x3d66c2d0	0.05633813
1	0x3cd291d9	0.025704311
2	0x3eae82e4	0.34084237
3	0x3da2f7b9	0.079574056
4	0x3f04a524	0.51814485
5	0x3e934d29	0.28769806
6	0x3f36e98e	0.71450126
7	0x3ea1b0a5	0.31580082
8	0x3f489759	0.7835594
9	0x3e88b1ef	0.26698253
10	0x3e1a30ff	0.15057753
11	0xbe0c20e6	-0.13684425
12	0x3e5f4eed	0.21807452
13	0x3e252cc3	0.16130356
14	0x3e3c4132	0.18384245
15	0x3d8a3d89	0.06750018
16	0x3e815ff9	0.25268534
17	0x3c4d0591	0.012513534
18	0x3e8f3c4b	0.27975687
19	0x3ef52487	0.4787943
20	0x3e2a0962	0.16605142
21	0x3df6c873	0.120499514
22	0x3e7436a5	0.2384897
23	0xbdfaca8b	-0.12245663
24	0xbe20cf7e	-0.15704152
25	0xbe374492	-0.17897251
26	0x3de0622d	0.109562255
27	0x3ef6f4f7	0.48233768
28	0x3e9bca9f	0.30428025
29	0x3ebaaec4	0.3646146
30	0x3eba09d7	0.36335632
31	0x3edc007b	0.42969117
32	0x3c189ff0	0.009315476
33	0x3c47afd7	0.01218792
34	0xbe5baddc	-0.21453041
35	0xbd05147e	-0.032490246
36	0xbe8111cd	-0.25208893
37	0x3eeddf1b	0.46459278
38	0xbdc1e8bd	-0.094682194
39	0x3e71d9f0	0.23618293
40	0xbdab84ac	-0.083749145
41	0x3e7337f9	0.2375182
42	0xbe2e9f7a	-0.17053023
43	0xbe1d25b3	-0.15346412
44	0xbeb51db6	-0.3537423
45	0xbf120535	-0.57039195
46	0xbe844a52	-0.25837952
47	0xbeb2f89c	-0.349553
48	0xbeddd830	-0.43329
49	0x3b97cef8	0.004632827
50	0x3ead9d74	0.3390919
51	0xbdf3f1b0	-0.119113326
52	0xbeaed1e0	-0.34144497
53	0x3cfba898	0.03072004
54	0xbc8f47ec	-0.01749035
55	0x3d34fc5f	0.044185992
56	0x3f064842	0.52454007
57	0x3d35f75b	0.04442535
58	0xbe5b48e6	-0.21414527
59	0xbece4a01	-0.40290835
60	0x3e871033	0.26379547
61	0x3ec81f13	0.39086208
62	0x3ee12ebd	0.4398097
63	0xbd85d55c	-0.06534836
64	0x3f061e04	0.5238955
65	0x3f2c9072	0.67407906
66	0x3ee4628e	0.4460644
67	0x3e512b1a	0.20426598
68	0x3f573b9a	0.8407532
69	0x3e24bc3a	0.16087428
70	0xbe21f3aa	-0.15815607
71	0x3ecca519	0.3996971
72	0x3ec58f32	0.38585812
73	0x3e0e9ce8	0.13927042
74	0x3efd552a	0.49479038
75	0x3eb6b65b	0.35686
76	0x3eddce44	0.4332143
77	0x3d400269	0.0468773
78	0x3dbd99e0	0.09257865
79	0x3ed89009	0.4229739

lstm.weight_hh_l0 f4 [40, 10]
0	0x3d74b163	0.05973948
1	0xbe01e603	-0.12685399
2	0xba907e9f	-0.0011024064
3	0xbe926ffb	-0.2860106
4	0xbe605204	-0.21906286
5	0x3d6edd4f	0.058316525
6	0xbd951478	-0.07279295
7	0xbd290806	-0.041267417
8	0xbc49defb	-0.012321229
9	0x3dedf2fd	0.11618612
10	0x3e585a03	0.21128087
11	0xbd5d771b	-0.054068666
12	0xbe87f316	-0.26552647
13	0x3e1939be	0.14963433
14	0xbeae7baf	-0.34078738
15	0x3e574fda	0.21026555
16	0xbdc8e3b9	-0.0980906
17	0xbc1119d0	-0.008856252
18	0x3ec6e902	0.38849646
19	0x3e449a8b	0.19199578
20	0xbec2c167	-0.3803818
21	0xbe80280d	-0.25030556
22	0xbd9e5975	-0.07731906
23	0xbde66b71	-0.112509616
24	0xbea57a87	-0.32320043
25	0x3ef1e0f2	0.47241932
26	0xbe5901ea	-0.21192136
27	0xbf15217b	-0.5825421
28	0x3f31c538	0.69441557
29	0xbd684cd8	-0.05671391
30	0xbe56dfd1	-0.20983817
31	0xbdab509a	-0.08364983
32	0x3e4c3779	0.19943036
33	0xbe278ed4	-0.16363078
34	0x3e53936d	0.20661707
35	0xbdfd0111	-0.12353719
36	0xbde8710b	-0.11349686
37	0xbe8fca11	-0.28083852
38	0xbc9130f5	-0.01772354
39	0xbe1a2868	-0.15054476
40	0xbc4a79b2	-0.012358116
41	0xbdb97fe7	-0.090575986
42	0xbda6cd16	-0.08144586
43	0x3de72aab	0.11287435
44	0xbe6fff08	-0.2343713
45	0x3e19c3be	0.15016076
46	0xbe297226	-0.1654745
47	0xbe634070	-0.2219255
48	0x3e4c8dc9	0.19975962
49	0xbe56f599	-0.20992126
50	0xbe8b7f50	-0.2724557
51	0x3e828f1e	0.25499815
52	0xbee1bec3	-0.44090852
53	0xbe891264	-0.26771843
54	0x3d96aae0	0.073568106
55	0xbe243151	-0.16034438
56	0xbdfac0ee	-0.1224383
57	0x3d7ba786	0.06143906
58	0x3de5ab62	0.11214329
59	0x3cf8ef3a	0.03038751
60	0xbe23a40f	-0.15980552
61	0xbe816c42	-0.25277907
62	0x3ec37727	0.38176844
63	0xbe811f62	-0.25219256
64	0xbf16f2f4	-0.5896447
65	0x3ec2d6fc	0.38054645
66	0xbe732e67	-0.2374817
67	0xbe89eb54	-0.26937354
68	0x3eed3f4c	0.46337354
69	0xbdf412ad	-0.119176246
70	0xbe7353c3	-0.23762421
71	0x3d3574d4	0.04430087
72	0x3e305916	0.17221484
73	0xbe39e111	-0.18152262
74	0xbe55be33	-0.20873336
75	0xbd973585	-0.07383255
76	0xbd58665c	-0.052831993
77	0xbd0498d7	-0.032372322
78	0xbe52110f	-0.2051432
79	0x3cfd302f	0.030906765
80	0xbe546994	-0.207434
81	0xbdc82110	-0.09771931
82	0x3d2af515	0.041737635
83	0xbe7c406d	-0.24633951
84	0xbc486b78	-0.012232654
85	0x3e77fa5d	0.242166
86	0x3dd43566	0.103617474
87	0xbec443a3	-0.38332853
88	0x3e0915c5	0.1338721
89	0xbdeb1236	-0.11478083
90	0xbe518044	-0.20459086
91	0x3d51d826	0.051231526
92	0xbecd59bf	-0.40107533
93	0xbf153e42	-0.5829812
94	0xbe0c4410	-0.13697839
95	0x3e318fe8	0.17340052
96	0x3e8221ad	0.25416318
97	0x3deeaccf	0.116540544
98	0xbd293012	-0.04130561
99	0xbdfdc8c5	-0.123918094
100	0xbefb93a4	-0.49136078
101	0xbec015b9	-0.37516573
102	0xbe06f523	-0.1317945
103	0xbf13bf56	-0.5771383
104	0x3bf2c2dc	0.007408483
105	0x3d693121	0.05693162
106	0x3e2156ae	0.15755722
107	0xbdfee4f0	-0.1244601
108	0x3ee395c8	0.44450212
109	0xbe843f6f	-0.25829646
110	0xbe7c0d44	-0.24614435
111	0xbdabeadc	-0.08394405
112	0xbf11d260	-0.5696163
113	0xbd8bc3df	-0.06824469
114	0x3dd6cc42	0.10488178
115	0x3db4dfd5	0.08831755
116	0x3da5f92d	0.08104167
117	0xbe794c03	-0.24345402
118	0x3ec00008	0.37500024
119	0xbe151a92	-0.14560917
120	0x3e4a52d8	0.19758165
121	0x3e3b49f2	0.18289927
122	0xbe53cd75	-0.20683844
123	0x3e03a696	0.12856516
124	0xbdc43cdc	-0.095819205
125	0x3e00f958	0.12595117
126	0xbeabd472	-0.3356052
127	0x3e08172e	0.13290092
128	0x3eac67e5	0.33673015
129	0xbe2726e1	-0.16323425
130	0xbe0661c4	-0.13123232
131	0xbebccc43	-0.3687459
132	0xbdc22952	-0.094805375
133	0xbed0dcb7	-0.40793392
134	0xbe8b7ac7	-0.2724211
135	0x3edc6bd8	0.43051028
136	0xbb63ff7d	-0.0034789734
137	0xbe88bd80	-0.26707077
138	0x3ea2454c	0.31693494
139	0xbec84d70	-0.3912158
140	0xbda410af	-0.08010995
141	0xbe3bbf07	-0.1833459
142	0x3ec94236	0.39308327
143	0x3dbcdd12	0.09221853
144	0xbe58e5e5	-0.21181448
145	0x3e0a3395	0.1349624
146	0xbf00696d	-0.50160867
147	0xba2c189b	-0.0006564946
148	0x3f1e22ce	0.6177186
149	0xbe7c034a	-0.2461063
150	0xbe3aec91	-0.18254305
151	0xbd72a301	-0.059237484
152	0xbe08314b	-0.13300054
153	0xbec93af8	-0.39302802
154	0x3ea19582	0.31559378
155	0x3d1786fb	0.03699396
156	0xbd8dd9bd	-0.06926296
157	0x3e051cd0	0.12999272
158	0x3d906005	0.07049564
159	0x3e4a5648	0.19759476
160	0xbec33912	-0.3812948
161	0xbdf5169c	-0.11967203
162	0x3c9fde6d	0.01951524
163	0xbe75b5db	-0.23995154
164	0xbed4308b	-0.41443285
165	0x3e86eb73	0.26351508
166	0x3e172912	0.14761761
167	0x3e1bfdff	0.1523361
168	0x3e957f2c	0.29198587
169	0xbea363ac	-0.3191198
170	0xbe8f90cc	-0.2804016
171	0xbe12549b	-0.14290087
172	0xbdbf6061	-0.09344555
173	0xbeb1301c	-0.34607017
174	0xbe15228a	-0.14563957
175	0x3e27ad2d	0.16374655
176	0x3cd20f9b	0.025642207
177	0x3de8d1bd	0.113681294
178	0x3e76daf4	0.24106961
179	0xbdbbb755	-0.09165827
180	0x3d162835	0.03665944
181	0xbe7cd85e	-0.24691913
182	0x3df67c57	0.12035435
183	0x3e288f38	0.16460884
184	0xbea52053	-0.32251224
185	0xbc3639fb	-0.011122222
186	0xbe917ad5	-0.28414026
187	0x3e271799	0.16317596
188	0x3ed4f047	0.41589567
189	0x3d558821	0.052131776
190	0xbe5e5f57	-0.21716057
191	0xbea089dc	-0.31355178
192	0xbc805d98	-0.015669629
193	0x3d5afb6a	0.053462423
194	0xbe431b5b	-0.19053404
195	0x3ea60e3f	0.32432744
196	0x3e9456cf	0.2897248
197	0x3e8046e6	0.2505409
198	0xbd8f218d	-0.06988821
199	0xb964f195	-0.00021833771
200	0xbc8f4e31	-0.01749334
201	0x3e011bd2	0.12608269
202	0x3ee30076	0.4433629
203	0x3e58e042	0.21179298
204	0xbec5afb2	-0.38610607
205	0xbe8e27e5	-0.27764812
206	0x3c42b104	0.011883024
207	0xbe9d8a51	-0.3076959
208	0x3b9606f0	0.0045784637
209	0xbe950938	-0.29108596
210	0xbe551b4f	-0.20811199
211	0x3e76d0e9	0.2410313
212	0xbe544e00	-0.2073288
213	0xbd5ed7e8	-0.054405123
214	0x3e8063e4	0.2507621
215	0x3e698ebd	0.22808357
216	0x3e6f2556	0.23354086
217	0x3e9d2347	0.30690977
218	0xbe9649f6	-0.29353303
219	0xbe1da57f	-0.15395163
220	0xbedb207b	-0.42798218
221	0x3d8785b2	0.06617297
222	0x3eadd900	0.3395462
223	0x3e7e9153	0.24860124
224	0xbe6e538d	-0.2327406
225	0xbd810dde	-0.06301473
226	0xbd4a8888	-0.049446613
227	0xbe072255	-0.1319669
228	0xbe344353	-0.17603807
229	0x3d88aa47	0.06673103
230	0x3e03ace3	0.1285892
231	0xbe95d393	-0.2926298
232	0x3ef9bfca	0.48779136
233	0xbdab4cd2	-0.08364262
234	0xbdf044f8	-0.11731905
235	0xbda5b653	-0.08091416
236	0xbecb2c3e	-0.39682192
237	0xbebc7072	-0.3680454
238	0x3e911405	0.28335586
239	0xbd9928ce	-0.07478486
240	0x3e9575fd	0.2919158
241	0xbc8f773d	-0.017512912
242	0x3c88f0ce	0.016716387
243	0x3d541246	0.05177524
244	0x3ec7c233	0.3901535
245	0x3cfe8d78	0.031073317
246	0x3e3b04c8	0.18263543
247	0x3ea7b7b4	0.32757342
248	0xbdd424af	-0.10358559
249	0xbe3103d8	-0.17286623
250	0x3cdc7a65	0.026913831
251	0x3e04cda5	0.12969072
252	0xbe466fa4	-0.19378525
253	0xbe5d7c7a	-0.21629515
254	0x3c47ff12	0.01220681
255	0x3e467949	0.19382204

lstm.bias_ih_l0 f4 [40]
0	0x3ba4df49	0.0050315005
1	0xbe1c1fc7	-0.15246497
2	0x3ec3c898	0.38238978
3	0x3e65cc6d	0.22441263
4	0x3ef49834	0.47772372
5	0x3ebf862e	0.37407058
6	0x3f050530	0.5196104
7	0x3ea419ac	0.32050836
8	0x3ece7a73	0.40327796
9	0x3e5a5c60	0.21324301
10	0x3dbbc59f	0.091685526
11	0x3de8ee98	0.11373633
12	0x3cd32d01	0.025778295
13	0x3e088c93	0.13334875
14	0x3e8834a6	0.26602668
15	0xbde171dd	-0.11008046
16	0x3e7b5292	0.24543217
17	0x3dc75866	0.097336575
18	0xbc9644ec	-0.018343411
19	0x3da9c667	0.08289795
20	0xbdbabd3c	-0.09118125
21	0xbe169bfd	-0.14707942
22	0x3d15d27d	0.03657769
23	0xbe04940e	-0.12947103
24	0x3da9ce8f	0.08291351
25	0xbd782e0f	-0.0605908
26	0xbccd58e2	-0.025066797
27	0xbeb9c4f5	-0.3628308
28	0x3eac2196	0.33619374
29	0xbe8abd84	-0.27097714
30	0x3e22b413	0.15889005
31	0x3b6fb62a	0.0036577084
32	0x3f072430	0.5278959
33	0x3e7f1fb9	0.24914445
34	0x3edbc89e	0.42926496
35	0x3e94605d	0.2897977
36	0xbd8cdd0f	-0.06878101
37	0xbc52c28e	-0.012863768
38	0x3eb6eefe	0.35729212
39	0x3d9ce06b	0.07659992

lstm.bias_hh_l0 f4 [40]
0	0x3ee38448	0.4443686
1	0x3cc93cfe	0.024565216
2	0x3ea52734	0.32256472
3	0xbc45c924	-0.012071881
4	0x3eb3a661	0.35087875
5	0x3ed35f62	0.4128371
6	0x3e796669	0.24355473
7	0x3e0edc5f	0.13951252
8	0x3eafc1d3	0.34327564
9	0x3efb26eb	0.4905313
10	0x3d2250dd	0.0396279
11	0xbda7a130	-0.08185041
12	0x3eff346d	0.49844685
13	0x3c6b6044	0.014366213
14	0x3e321e2e	0.17394325
15	0xbe48d842	-0.19613746
16	0x3e8e837c	0.2783469
17	0xbcee002b	-0.029052814
18	0xbe45d008	-0.19317639
19	0x3ea00c49	0.31259373
20	0xbe9d1bae	-0.3068518
21	0xbed181a8	-0.40919232
22	0x3e534d48	0.20634949
23	0xbe95f947	-0.29291746
24	0xbe43643e	-0.19081208
25	0x3e90bec1	0.28270534
26	0xbe30a25c	-0.17249435
27	0xbee5ed51	-0.4490762
28	0x3d3c23bf	0.045932528
29	0xbe86ae0b	-0.2630466
30	0x3f09547d	0.53644544
31	0x3e9aebbb	0.30257973
32	0x3e9f789c	0.31146705
33	0x3e6aa066	0.2291275
34	0x3dfa45b7	0.12220328
35	0x3e57e547	0.21083556
36	0x3eb1e827	0.3474743
37	0x3eeceb0a	0.4627307
38	0x3ed44996	0.41462392
39	0xbd843f53	-0.06457391

lstm.weight_ih_l1 f4 [40, 10]
0	0xbd3306b7	-0.043707576
1	0xbe9afc22	-0.30270487
2	0xbee5b7c9	-0.4486678
3	0xbd697e58	-0.057005256
4	0xbef204fd	-0.4726943
5	0x3e8f0d7a	0.2793997
6	0xbddd48a3	-0.1080487
7	0xbebe47e7	-0.37164232
8	0x3de7dfb6	0.11321966
9	0x3d39d6a8	0.045370728
10	0xbec49ab3	-0.38399276
11	0xbec31c58	-0.38107562
12	0x3ee1f3fa	0.44131452
13	0xbebcf574	-0.36906016
14	0xbde61868	-0.11235124
15	0x3d83b1f5	0.06430427
16	0xbd32bd5d	-0.043637622
17	0xbec5e6f6	-0.38652772
18	0x3ea3c8c2	0.31989104
19	0xbe05b4a8	-0.13057196
20	0xbea4fcb0	-0.32224035
21	0xbe1da30f	-0.15394233
22	0xbde47275	-0.111546434
23	0xbf06f548	-0.5271802
24	0xbf0aeb44	-0.54265237
25	0x3eb6228b	0.3557323
26	0xbeced7c4	-0.4039899
27	0x3db659f7	0.08903878
28	0x3e9970cc	0.2996887
29	0xbeae3123	-0.34021863
30	0xbf10fa46	-0.56631887
31	0xbee82449	-0.45340183
32	0x3dd79772	0.10526933
33	0xbed41474	-0.41421854
34	0xbf09bdc7	-0.538052
35	0x3f0a39fe	0.5399474
36	0xbf5cdc4a	-0.86273634
37	0xbf250e43	-0.64474887
38	0x3f3bc9b6	0.7335466
39	0xbeafb04c	-0.3431419
40	0x3d307ad1	0.043085877
41	0xbe5ecb82	-0.2175732
42	0xbea0cbd9	-0.31405523
43	0xbec9ee3d	-0.39439574
44	0xbf03c30f	-0.5146951
45	0x3e2ce379	0.16883649
46	0xbee1b34d	-0.44082108
47	0xbe6da9df	-0.23209332
48	0x3e72249a	0.23646775
49	0xbe184a46	-0.14872083
50	0x3d52b9b3	0.051446628
51	0xbebb7c3e	-0.36618227
52	0xbf0295b7	-0.51009697
53	0xbef1fc93	-0.4726301
54	0xbd82b978	-0.063830316
55	0x3e322bae	0.17399475
56	0xbe86fcd4	-0.26364768
57	0x3cc597d4	0.024120249
58	0x3d85431d	0.065069415
59	0xbe42eb57	-0.19035088
60	0x3c914adf	0.017735897
61	0x3d5942d3	0.053042244
62	0xbf159832	-0.58435357
63	0xbe46fdd6	-0.19432768
64	0xbdb7d186	-0.0897551
65	0x3e1e64b6	0.15468106
66	0xbe28408c	-0.16430873
67	0xbe8a8e65	-0.27061763
68	0xbcf2469e	-0.029574689
69	0xbe6dd9b4	-0.23227578
70	0xbf09c9c6	-0.53823507
71	0xbede4695	-0.43413225
72	0xbe803c9d	-0.25046244
73	0xbec294bb	-0.38004097
74	0xbeb5d8a4	-0.35516846
75	0xbad67d00	-0.0016364157
76	0x3d84def6	0.06487839
77	0xbe8c2980	-0.27375412
78	0x3da660d4	0.08123937
79	0xbec72040	-0.38891792
80	0xbebcaa0a	-0.3684848
81	0x3d751ff0	0.05984491
82	0xbf3e1523	-0.74251
83	0xbeca60f7	-0.39527103
84	0xbe093891	-0.13400485
85	0x3c774ee3	0.015094492
86	0x3d1a31ed	0.03764527
87	0xbea51c59	-0.3224819
88	0x3e5717b3	0.21005134
89	0xbebff56f	-0.37491938
90	0xbee4361f	-0.4457254
91	0x3d0a4a64	0.03376235
92	0xbed6b266	-0.41932982
93	0x3d2f8d16	0.04285916
94	0xbf0085bd	-0.5020407
95	0x3e9fddb0	0.31223822
96	0xbe091320	-0.13386202
97	0xbe44b36d	-0.1920907
98	0x3e856eb2	0.26061016
99	0xbd986a17	-0.0744211
100	0xbe60d063	-0.21954493
101	0xbdcccb45	-0.09999708
102	0xbe0fcad3	-0.14042215
103	0xbe8ff586	-0.28117007
104	0x3df33bef	0.11876666
105	0xbe6ea183	-0.233038
106	0x3cb49589	0.02204396
107	0xbdd8142f	-0.10550725
108	0x3e9d9dc3	0.30784425
109	0xbe812a1c	-0.2522744
110	0xbe0cdd91	-0.13756396
111	0xbbe33c48	-0.0069346763
112	0x3ea16051	0.31518796
113	0xbeb64b30	-0.3560424
114	0xbeb3319d	-0.3499879
115	0xbd895dcc	-0.067073435
116	0xbed84772	-0.42242008
117	0xbea47f94	-0.32128584
118	0x3ee41a8f	0.44551513
119	0xbe94c454	-0.29056036
120	0xbe088a67	-0.13334046
121	0xbcaa22b3	-0.020768499
122	0xbe119709	-0.14217772
123	0xbedcc09e	-0.43115705
124	0x3e5f9aa3	0.21836333
125	0x3de9551f	0.11393189
126	0x3c8def72	0.01732609
127	0xbe3149ea	-0.17313352
128	0xbe714a2d	-0.23563452
129	0xbebbe9e6	-0.36701888
130	0xbd64df41	-0.055876974
131	0xbec70625	-0.38871875
132	0xbf542257	-0.828649
133	0xbe2b689f	-0.16739129
134	0xbf488c7f	-0.7833938
135	0x3ebb025c	0.36525238
136	0xbf261d70	-0.6488867
137	0xbd9cb819	-0.07652301
138	0xbe10905d	-0.1411757
139	0xbec96b78	-0.39339805
140	0x3ddd995b	0.10820266
141	0xbe40a589	-0.18813147
142	0xbdf1eafe	-0.11812399
143	0xbea31650	-0.3185296
144	0xbd3e3b5d	-0.046443332
145	0xbe17cfae	-0.14825317
146	0xbe057535	-0.13032992
147	0xbea547af	-0.32281253
148	0x3d188ede	0.037245624
149	0xbc462197	-0.012092969
150	0xbe917881	-0.2841225
151	0x3e620d8c	0.2207548
152	0x3d1e9c86	0.03872349
153	0x3e35996f	0.17734312
154	0xbe346b8a	-0.17619148
155	0x3e8ad3fd	0.2711486
156	0x3c9f9185	0.019478569
157	0x3d26cce0	0.040722728
158	0xbe742a83	-0.23844342
159	0xbdd8e660	-0.105908155
160	0xbebb20f3	-0.36548576
161	0xbea44f9d	-0.3209199
162	0xbea39383	-0.3194848
163	0xbee1f3ad	-0.44131222
164	0x3e9fe89e	0.3123216
165	0x3d88e675	0.06684581
166	0xbd60d340	-0.054888964
167	0x3dddc1bf	0.1082797
168	0xbe15e4b0	-0.14638019
169	0xbead7d4d	-0.3388466
170	0x3dcbc6d1	0.099500306
171	0xbe6b3f1a	-0.2297329
172	0xbe63e953	-0.22256975
173	0xbe873f17	-0.2641532
174	0xbe1c9cc4	-0.15294176
175	0x3e7f1c35	0.24913104
176	0x3d8e68c0	0.06953573
177	0xbe44adec	-0.19206971
178	0xbc91d91c	-0.017803721
179	0xbbc3cd01	-0.005975366
180	0xbea5d62a	-0.32389957
181	0xbe88ebb0	-0.26742315
182	0xbeb6dae7	-0.35713884
183	0xbe9458b1	-0.28973916
184	0xbc805e0c	-0.015669845
185	0x3e33d890	0.17563081
186	0x3e77ff55	0.24218495
187	0xbe93a034	-0.28833163
188	0xbe34e0b2	-0.1766384
189	0xbe5243df	-0.20533703
190	0x3d7fb019	0.0624238
191	0xbebc2bd9	-0.36752203
192	0xbed38119	-0.4130943
193	0xbe9fb7d6	-0.31194943
194	0x3e76bc25	0.24095209
195	0xbc7df5b8	-0.015500478
196	0x3df0a117	0.117494754
197	0xbe8ce089	-0.27515057
198	0xbe031f09	-0.12804808
199	0xbe253b31	-0.16135861
200	0x3eb00bda	0.34384042
201	0x3e2ddcd0	0.16978765
202	0x3eb575d0	0.35441446
203	0xbd254d14	-0.04035671
204	0x3d27e51f	0.04098999
205	0xbe1cf198	-0.15326536
206	0x3e78da76	0.24302086
207	0x3e930a5b	0.28718838
208	0xbd4d34fd	-0.05009936
209	0x3ddda1c7	0.10821872
210	0x3b315ddb	0.0027064
211	0x3e0a894d	0.13528939
212	0xbf1e8175	-0.61916286
213	0xbe6ed401	-0.2332306
214	0x3e896d0f	0.26841018
215	0xbddebfb2	-0.10876407
216	0x3e3f70b8	0.18695343
217	0x3e272309	0.16321959
218	0xbe824042	-0.2543965
219	0x3e7a7ddc	0.24462074
220	0xbe8b54e2	-0.27213198
221	0xbeb31db9	-0.34983614
222	0x3cea3176	0.028588038
223	0x3d16f641	0.03685594
224	0xbeb0c3aa	-0.3452428
225	0x3e91cb85	0.28475586
226	0xbed38fc0	-0.4132061
227	0xbeb67bec	-0.3564142
228	0xbd82422e	-0.06360279
229	0xba353f5b	-0.0006914043
230	0xbe46e227	-0.19422208
231	0x3e55b8c3	0.20871262
232	0x3f23e252	0.6401721
233	0x3ef87226	0.48524588
234	0x3f026342	0.50932705
235	0x3e365746	0.1780673
236	0x3d50077d	0.05078839
237	0x3cc1a60b	0.023638746
238	0xbe557f16	-0.2084926
239	0x3d20fa23	0.03930105
240	0xbe66a86a	-0.22525182
241	0xbec3132e	-0.3810057
242	0x3d7baa01	0.061441425
243	0xbed71207	-0.4200594
244	0xbebbdb8f	-0.36690947
245	0xbde0ef2b	-0.10983118
246	0xbee5485e	-0.44781774
247	0xba75b85b	-0.00093734794
248	0x3e9c6de7	0.305526
249	0xbebcdba2	-0.36886317
250	0xbe5cf134	-0.21576387
251	0xbe873d8a	-0.26414138
252	0xbec907d4	-0.39263785
253	0xbee5839c	-0.44826972
254	0xbef10928	-0.47077298
255	0x3d0c33f4	0.034229234

lstm.weight_hh_l1 f4 [40, 10]
0	0x3e4089f0	0.18802619
1	0x3e65704a	0.22406116
2	0x3e3b29fb	0.18277733
3	0xbe9a41dd	-0.30128375
4	0xbdff2cb5	-0.12459699
5	0xbdfd48bc	-0.123673886
6	0xbe45668f	-0.19277404
7	0x3e54dd3c	0.20787519
8	0x3e7321c4	0.2374335
9	0xbdfb25fb	-0.122631036
10	0xbec81555	-0.39078775
11	0x3c6f5bad	0.01460926
12	0x3ef7ce0b	0.48399386
13	0x3ebfa210	0.3742833
14	0x3d9b6ae3	0.075887464
15	0xbd2d4627	-0.04230323
16	0xbe4ea36e	-0.20179531
17	0x3bb8c336	0.0056385053
18	0x3d9b51b4	0.07583943
19	0xbf08467e	-0.5323256
20	0xbd226824	-0.039650097
21	0x3dbfe45b	0.09369727
22	0x3d68a7e5	0.05680074
23	0xbe99a385	-0.30007568
24	0xbe3391c2	-0.17536071
25	0xbd85d7f6	-0.06535332
26	0x3e643f21	0.22289707
27	0x3b931411	0.004488476
28	0xbe70e893	-0.2352622
29	0xbea41e74	-0.32054484
30	0xbf02f982	-0.5116197
31	0xbf10c193	-0.5654537
32	0x3eda002e	0.42578262
33	0x3e45ec41	0.19328405
34	0x3f0e32d0	0.55546284
35	0x3f117095	0.5681241
36	0xbeebc076	-0.46045274
37	0xbe2e8b76	-0.17045388
38	0xbf082066	-0.53174436
39	0xbebd89fb	-0.37019333
40	0xbe613083	-0.21991162
41	0x3e213b0f	0.15745185
42	0xbdc9a199	-0.098452754
43	0xbdd15c4f	-0.102226846
44	0xbe391ad0	-0.18076634
45	0x3ea5a20e	0.323502
46	0xbdf4a999	-0.11946411
47	0xbe8fcea3	-0.2808734
48	0x3e4e1898	0.2012657
49	0x3e4418f0	0.19150138
50	0xbd9e638e	-0.07733832
51	0xbe2c0725	-0.167996
52	0x3e949d38	0.29026198
53	0xbed9833c	-0.42482936
54	0x3e440fd1	0.19146658
55	0xbdeb06d7	-0.11475914
56	0xbde29531	-0.11063612
57	0xbe8d1039	-0.2755144
58	0xbbf4f419	-0.007475388
59	0xbea63271	-0.3246036
60	0xbdc5a982	-0.09651472
61	0x3e4048ed	0.18777819
62	0xbec62a39	-0.38704088
63	0xbec32c83	-0.38119897
64	0xbe4d3fe6	-0.20043907
65	0xbc8ac537	-0.016939742
66	0xbea669e2	-0.32502657
67	0x3de9e59d	0.114207484
68	0xbe0b22c3	-0.1358748
69	0x3e86582d	0.26239148
70	0xbeb633b5	-0.35586324
71	0x3e99e94b	0.300608
72	0x3da1fa24	0.07909039
73	0xbee5561f	-0.44792268
74	0xbd87816d	-0.06616483
75	0x3de1be02	0.11022569
76	0xbe8d894f	-0.2764382
77	0xbde3d670	-0.11124885
78	0xbe9607bc	-0.29302776
79	0xbe88d274	-0.26723063
80	0x3e1d5f8d	0.15368481
81	0xbe3fdfe3	-0.1873775
82	0x3e3a8720	0.18215609
83	0xbed1f64f	-0.4100823
84	0xbe45d0e4	-0.19317967
85	0x3ea55cb6	0.32297295
86	0x3e31b452	0.17353943
87	0x3e6e365c	0.23262924
88	0xbe560003	-0.20898442
89	0xbdcc0547	-0.09961944
90	0xbe63551c	-0.22200435
91	0x3eb8c335	0.3608643
92	0xbea08679	-0.31352594
93	0xbcaaf816	-0.02087025
94	0xbe820735	-0.25396124
95	0x3e03eeed	0.12884112
96	0x3e17a2ed	0.14808245
97	0xbe97e49e	-0.2966661
98	0x3de93ca2	0.11388518
99	0xbcdcba7c	-0.026944391
100	0x3da62d3e	0.08114098
101	0x3eab41f5	0.3344876
102	0xbe9dac43	-0.30795488
103	0xbdece7cd	-0.1156765
104	0xbe81504a	-0.25256568
105	0xbc937a4b	-0.01800265
106	0x3dc3a53c	0.09553
107	0x3e51f823	0.20504813
108	0x3d58bc87	0.05291417
109	0x3e07b55b	0.13252775
110	0xbe68228b	-0.22669427
111	0xbed6d16a	-0.41956645
112	0x3e7c52d7	0.24640976
113	0x3eb561cb	0.35426173
114	0x3f00b4a2	0.50275624
115	0x3eabd892	0.33563668
116	0x3e2abef3	0.16674404
117	0xbea70b05	-0.32625595
118	0xbde6e9ab	-0.112750374
119	0xbdf13c54	-0.11779085
120	0xbe9e20da	-0.3088444
121	0x3e9b884d	0.30377427
122	0x3e150f39	0.14556588
123	0xbe1a0a52	-0.15043
124	0x3e757687	0.23970996
125	0x3d59bb04	0.053156868
126	0xbe92a214	-0.2863928
127	0xbdb4b184	-0.08822921
128	0xbe2abf3c	-0.16674513
129	0x3e4a1eed	0.1973836
130	0xbed9e697	-0.4255874
131	0xbe4d57c4	-0.20053011
132	0x3e8e603f	0.27807805
133	0xbe2fce38	-0.1716851
134	0x3ec891a3	0.39173612
135	0xbc400ec6	-0.011722272
136	0xbea09cdb	-0.3136967
137	0x3d31b953	0.04338963
138	0x3deda93f	0.11604547
139	0xbeb43b5c	-0.35201538
140	0xbd92bdb9	-0.07165093
141	0xbe6018b1	-0.21884419
142	0xbe35b299	-0.17743911
143	0xbd9e30f5	-0.077241816
144	0x3e86da6d	0.2633852
145	0x3e8ab6a5	0.27092472
146	0xbec2cd90	-0.38047457
147	0x3e121bdd	0.14268441
148	0x3d99408c	0.074830145
149	0x3e549ec2	0.20763686
150	0x3dc0d859	0.09416265
151	0xbe00feda	-0.12597218
152	0xbc3ab94f	-0.01139672
153	0xbecf92ad	-0.40541592
154	0x3e6e91b9	0.23297776
155	0x3d713e6d	0.058897424
156	0x3e4e8b74	0.20170385
157	0xbdabcad6	-0.08388297
158	0xbe53a4c8	-0.20668328
159	0x3dc6cbba	0.097068265
160	0xbe948e5d	-0.29014865
161	0xbc9eba4a	-0.019375939
162	0xbe154ce6	-0.14580116
163	0x3e168590	0.14699388
164	0x3d9018f2	0.07036008
165	0xbe59dc04	-0.21275336
166	0xbe8ca573	-0.27469978
167	0xbcff1ef0	-0.031142682
168	0x3d4ed0c6	0.05049207
169	0xbe2d6910	-0.1693461
170	0x3e5071ce	0.20355913
171	0xbe1fdc95	-0.15611489
172	0x3dd6f7ef	0.10496508
173	0xbf096718	-0.53672934
174	0xbe6bf7f8	-0.23043811
175	0x3eb447b4	0.35210955
176	0xbd8d7faa	-0.069091156
177	0xbe2de021	-0.1698003
178	0xbe7ff830	-0.2499702
179	0x3d276340	0.040866137
180	0xbea4fc57	-0.3222377
181	0x3e7d9cb6	0.24766812
182	0xbd7570aa	-0.059921898
183	0xbe8fd0c2	-0.28088957
184	0xbd3f2d4e	-0.046674065
185	0xbe7a029e	-0.24415061
186	0xbcbe1ee3	-0.023208087
187	0xbdd7377c	-0.1050863
188	0xbe9b161e	-0.30290312
189	0x3dadee5a	0.084927276
190	0xbea12486	-0.31473178
191	0x3e355fc7	0.17712317
192	0xbe0c2c76	-0.13688836
193	0xbd9cc728	-0.076551735
194	0x3e193d19	0.14964713
195	0x3dd54f18	0.104154766
196	0xbe0cd7c7	-0.13754188
197	0xbeb9e17c	-0.36304843
198	0xbeb2b5a9	-0.3490422
199	0x3dbcd48d	0.09220228
200	0x3e5f1754	0.21786243
201	0xbdff8c80	-0.1247797
202	0xbe200ef5	-0.15630706
203	0x3e8d8403	0.2763978
204	0x3d69b36c	0.057055876
205	0x3e9132a4	0.28358948
206	0x3e9bf879	0.30463007
207	0xbd9a80d7	-0.075441055
208	0x3e56381b	0.2091984
209	0x3e0ac133	0.13550262
210	0xbd8c3ee2	-0.068479314
211	0x3d95645e	0.07294534
212	0xbf0c1adc	-0.54728484
213	0xbeb8a742	-0.36065108
214	0xbea6a86f	-0.3255038
215	0xbbb6a011	-0.0055732806
216	0xbc37dc46	-0.011221951
217	0xbe260135	-0.16211398
218	0x3eadd226	0.33949393
219	0xbe036014	-0.1282962
220	0xbeb99351	-0.36245206
221	0xbd72c205	-0.059267063
222	0xbcab7f22	-0.020934645
223	0xbc65d385	-0.014027481
224	0xbe0d4d0c	-0.13798922
225	0x3da5fe07	0.081050925
226	0xbdea7b0c	-0.114492506
227	0x3e415d13	0.18883161
228	0x3e1bb3ec	0.15205353
229	0xbe94aed7	-0.29039642
230	0xbe9120b8	-0.28345275
231	0xbf20b164	-0.62770677
232	0x3f00b898	0.5028167
233	0x3dd7ff8d	0.10546789
234	0x3eb7002c	0.3574232
235	0x3ef2e101	0.4743729
236	0xbebf6710	-0.37383318
237	0xbe39e7a7	-0.18154775
238	0xbf16fdaf	-0.5898084
239	0xbef7f3c2	-0.4842816
240	0x3e5a84fb	0.2133979
241	0x3dec02c1	0.11523963
242	0x3dadad36	0.08480303
243	0x3e148ca3	0.14506774
244	0x3cbafccc	0.022825621
245	0x3e877948	0.26459718
246	0xbebeb842	-0.37249953
247	0xbdc3b230	-0.09555471
248	0xbe18383f	-0.14865206
249	0xbe9d03e2	-0.30667025
250	0xbe75daf1	-0.24009301
251	0xbd0f26ab	-0.034948986
252	0xbe39d0a4	-0.18145996
253	0xbdfda424	-0.12384823
254	0x3e09dde4	0.13463551
255	0xbd273bfd	-0.040828694

lstm.bias_ih_l1 f4 [40]
0	0x3e8e7636	0.27824563
1	0xbcd60182	-0.026123766
2	0x3dd9f232	0.10641898
3	0x3f0e9ef4	0.55711293
4	0xbdc47e89	-0.09594447
5	0xbe30a183	-0.17249112
6	0x3eb5ebb0	0.35531378
7	0xbdab0120	-0.08349824
8	0xbdec72b7	-0.115453176
9	0x3dfaf599	0.12253875
10	0xbe9fe5d8	-0.31230044
11	0x3df4f224	0.11960247
12	0xbd31be22	-0.043394215
13	0x3ce16645	0.027514586
14	0x3e0d1d14	0.13780624
15	0x3e60b002	0.21942142
16	0xbc50193f	-0.012701332
17	0xbe19aa42	-0.15006354
18	0x3e9a25c6	0.30106944
19	0xbe12d5b4	-0.14339334
20	0xbe4a9ea6	-0.19787082
21	0xbdf82f19	-0.12118358
22	0x3e60a321	0.21937229
23	0xbdb38fed	-0.08767686
24	0x3e9bdbc1	0.30441096
25	0x3e6a0744	0.22854334
26	0xbe89205e	-0.26782507
27	0xbdf2c0c9	-0.11853177
28	0xbdadb161	-0.08481098
29	0xbd870223	-0.065922044
30	0x3e856f19	0.26061323
31	0x3e336153	0.17517595
32	0x3d8bd65c	0.06827995
33	0x3d5973cd	0.05308895
34	0xbcec439f	-0.028840838
35	0xbd50144e	-0.050800614
36	0x3e9989c7	0.29987928
37	0x3e8a399f	0.26997086
38	0x3e2d07fd	0.16897579
39	0xbdef9b73	-0.116995715

lstm.bias_hh_l1 f4 [40]
0	0x3cd51e05	0.026015291
1	0xbd821b13	-0.0635282
2	0x3ea2e10e	0.31812328
3	0x3e8a3fd6	0.27001828
4	0x3de2bc62	0.110710874
5	0x3ed6dcd0	0.41965342
6	0xbbc90cfc	-0.006135581
7	0xbe01fb36	-0.12693486
8	0xbd3e87ca	-0.046516217
9	0x3ee37fba	0.44433385
10	0x3e6ee857	0.23330818
11	0xbe0efe88	-0.13964283
12	0x3bb9a4d9	0.0056654033
13	0x3e00d889	0.12582602
14	0x3d615152	0.055009194
15	0x3e3ea0f3	0.18616085
16	0x3cbb6848	0.022876874
17	0x3e4d8c3c	0.20073026
18	0x3e043b68	0.12913287
19	0x3e625488	0.22102559
20	0xbd353eb7	-0.044249263
21	0xbe015ace	-0.12632295
22	0x3cb835a7	0.02248652
23	0x3dca9f6c	0.098936886
24	0x3e4aeb15	0.19816239
25	0x3d404cb3	0.046948146
26	0xbec5273c	-0.38506496
27	0xbea6d2fc	-0.32582843
28	0xbec1d244	-0.37855732
29	0xbec88fc3	-0.3917218
30	0x3e4718de	0.1944308
31	0xbe294b22	-0.16532567
32	0x3e4768f7	0.19473635
33	0x3e0bdf07	0.13659297
34	0x3de67754	0.11253229
35	0x3e30bfd3	0.17260675
36	0xbe5b50d4	-0.21417552
37	0x3d1efd40	0.038815737
38	0x3e28a265	0.16468199
39	0x3e832051	0.25610593

lstm.weight_ih_l2 f4 [40, 10]
0	0xbd81b3e4	-0.063331395
1	0xbeb85933	-0.36005554
2	0x3ef9dd04	0.48801434
3	0xbedb6171	-0.4284778
4	0x3ed09813	0.40741023
5	0x3dc40b60	0.09572482
6	0xbec9be3b	-0.39402947
7	0xbefaff9f	-0.49023148
8	0xbd0ad6b8	-0.033896178
9	0x3dba4116	0.090944454
10	0xbe3109f5	-0.17288955
11	0x3e80f5cf	0.25187537
12	0x3ea9afc5	0.33141914
13	0xbd779ef0	-0.06045431
14	0xbdb97dff	-0.09057235
15	0x3de97a30	0.114002585
16	0x3e70aba6	0.23502979
17	0xbd869439	-0.0657124
18	0x3e76f0ec	0.24115342
19	0xbdc793c6	-0.097449824
20	0xbeb107e6	-0.3457634
21	0x3d669d26	0.056302212
22	0x3dc2ebcb	0.0951763
23	0x3ba91e87	0.00516111
24	0x3e3dbfde	0.18530223
25	0xbd8d36cb	-0.068952166
26	0xbe8df9ea	-0.27729732
27	0x3e455ee8	0.19274485
28	0x3df77348	0.12082535
29	0x3d8130e4	0.06308153
30	0xbe2ec21f	-0.17066239
31	0x3e40ca73	0.18827228
32	0xbde979b9	-0.1140017
33	0xbea6dec1	-0.32591823
34	0xbdf05532	-0.11735
35	0x3db068f1	0.08613766
36	0x3c1419ce	0.009039355
37	0x3e5e74a1	0.21724178
38	0x3eb968cd	0.3621277
39	0x3e1c38d1	0.15256049
40	0x3c510013	0.012756365
41	0xbe90d890	-0.28290224
42	0x3e418929	0.18899979
43	0xbea51ba6	-0.32247657
44	0x3ed345d7	0.4126422
45	0x3ed99e3a	0.4250353
46	0xbed1273a	-0.4085024
47	0xbe790946	-0.24319944
48	0xbea91c34	-0.3302933
49	0xbedf1147	-0.4356787
50	0x3e8696ec	0.2628702
51	0xbe231692	-0.15926579
52	0x3d2d7ac2	0.0423534
53	0x3c672afc	0.014109369
54	0xbdee918e	-0.11648856
55	0x3e353f6c	0.17699975
56	0xbe7c3699	-0.24630202
57	0x3c35c93b	0.01109534
58	0x3e542af5	0.20719512
59	0xbe2137e4	-0.15743977
60	0xbe059419	-0.13044776
61	0x3d002afc	0.031290993
62	0x3ed30831	0.41217187
63	0xbe7b559b	-0.24544375
64	0x3ec5b8d6	0.3861758
65	0x3e51b37a	0.20478621
66	0x3e2bdc41	0.16783239
67	0xbed43d62	-0.4145308
68	0x3e3afd7c	0.18260759
69	0xbec8829a	-0.3916214
70	0xbecb2ea0	-0.3968401
71	0xbea1d51c	-0.31607902
72	0x3ee00ca9	0.4375966
73	0xbdd7511b	-0.105135165
74	0x3d9c94e8	0.07645589
75	0x3ee3868f	0.44438598
76	0x3d9c9e62	0.076473966
77	0xbeea5dcb	-0.45774683
78	0xbef92553	-0.4866129
79	0xbe2887cb	-0.16458051
80	0xbe2d79be	-0.16940972
81	0xbe72db6d	-0.23716517
82	0x3ee4f902	0.44721228
83	0x3ec0569f	0.37566087
84	0xbc104476	-0.008805385
85	0x3e8979fe	0.26850885
86	0x3dbf5142	0.093416706
87	0x3bd3a0f6	0.006458397
88	0x3e3ee873	0.1864336
89	0xbeb54a69	-0.35408333
90	0xbed182c0	-0.40920067
91	0x3c3f9b3d	0.0116947265
92	0xbd31dd0e	-0.043423705
93	0xbe3f8d01	-0.18706132
94	0xbd17d38d	-0.037066985
95	0x3e4e4d4d	0.20146675
96	0xbe29c3f3	-0.16578655
97	0xbeded298	-0.43520045
98	0x3dd1c518	0.10242671
99	0xbc691cf2	-0.0142280925
100	0x3d200d7a	0.039075352
101	0x3db4892b	0.08815225
102	0x3e87d5b5	0.26530233
103	0xbefefa41	-0.49800304
104	0x3e48bd9a	0.19603577
105	0x3daa5e7a	0.08318801
106	0x3e0da0c7	0.13830863
107	0xbec5cf7c	-0.3863486
108	0x3e3b992a	0.18320146
109	0xbd19d03b	-0.0375521
110	0x3cd83aab	0.026395163
111	0x3d9ceb34	0.07662049
112	0xbdeb9599	-0.11503143
113	0xbe13bf5a	-0.14428464
114	0xbe9de27e	-0.30836862
115	0xbeb4d5aa	-0.35319263
116	0xbc962c41	-0.018331649
117	0x3cf7a38c	0.030229352
118	0x3eb9bc65	0.36276546
119	0x3d7b165a	0.061300613
120	0x3df52262	0.119694486
121	0xbde1872d	-0.11012111
122	0x3e99cc12	0.30038506
123	0xbdebfd4d	-0.11522923
124	0xbcc944e8	-0.02456899
125	0xbe77119b	-0.2412781
126	0xbe137146	-0.14398679
127	0xbeb16969	-0.34650734
128	0x3db81622	0.089885965
129	0xbe9c33b2	-0.3050819
130	0x3d8588da	0.06520243
131	0x3e80d957	0.25165817
132	0xbecffe3a	-0.40623647
133	0xbef5ca31	-0.48005822
134	0xbe08fc35	-0.1337746
135	0xbed1a4c9	-0.40946034
136	0x3e2989f1	0.16556527
137	0x3e071f20	0.13195467
138	0xbca106b7	-0.019656522
139	0x3e5310b9	0.20611848
140	0x3e0dbee8	0.13842356
141	0xbe972582	-0.29520804
142	0x3ea433a4	0.3207065
143	0xbe65b28d	-0.22431393
144	0x3ea8f83a	0.33001882
145	0x3e51c626	0.20485744
146	0x3d6161f1	0.055025045
147	0xbea9abb8	-0.33138824
148	0x3e71a416	0.2359775
149	0x3e5b5946	0.21420774
150	0x3e43e7cd	0.19131394
151	0x3d90385f	0.07042002
152	0x3d1fda4b	0.03902654
153	0x3dad3dad	0.08459029
154	0x3e19987a	0.14999571
155	0xbcb56d46	-0.022146832
156	0x3e76f5c9	0.24117197
157	0x3e232465	0.15931852
158	0x3d848b32	0.06471862
159	0xbd4bd9aa	-0.049768128
160	0xbe8d82da	-0.27638894
161	0x3eb1077c	0.34576023
162	0x3c9249a8	0.017857388
163	0xbe090cab	-0.13383739
164	0xbdcfc335	-0.10144655
165	0xbd95f4ac	-0.07322058
166	0xbe2194e6	-0.15779456
167	0x3e550a0f	0.20804618
168	0xbdf3ffd8	-0.11914033
169	0x3d865153	0.0655848
170	0xbd8706b2	-0.06593074
171	0xbd6dfc40	-0.058101892
172	0x3e1249e7	0.14286004
173	0xbe789083	-0.24273877
174	0x3e861510	0.26187944
175	0x3e3e8d40	0.1860857
176	0x3cc22784	0.023700483
177	0xbe99a729	-0.30010346
178	0xbd27072c	-0.040778324
179	0xbe0f58da	-0.13998738
180	0xbe86371d	-0.26213923
181	0x3ea1501b	0.31506428
182	0x3cb865b8	0.02250944
183	0xbe2e4471	-0.17018296
184	0xbe7cb268	-0.24677432
185	0xbe771277	-0.24128138
186	0xbd2d089d	-0.042244542
187	0xbe4c8b22	-0.1997495
188	0x3ead3274	0.33827555
189	0xbd6c39f1	-0.057672445
190	0x3d76c49c	0.060246095
191	0x3e572742	0.2101107
192	0x3e2fdfb6	0.17175183
193	0xbecaca18	-0.3960731
194	0x3ec365a5	0.38163486
195	0x3eacf83f	0.33783147
196	0xbe4a9a38	-0.19785392
197	0xbe7a013b	-0.24414532
198	0x3d88a8d4	0.066728264
199	0xbb5e8fa5	-0.003396013
200	0xbd43b61a	-0.047781087
201	0x3e33fc36	0.1757668
202	0xbec9893b	-0.3936251
203	0xbd8653ea	-0.06558974
204	0xbed52697	-0.41631004
205	0xbed3395e	-0.41254705
206	0x3e48c5a6	0.19606647
207	0x3e0f05e5	0.13967092
208	0x3d4c5205	0.049882907
209	0xbd902a22	-0.07039286
210	0xbe328da3	-0.17436843
211	0xbe988c57	-0.2979457
212	0x3e7a186c	0.24423379
213	0xbec5cc81	-0.38632587
214	0x3ebab742	0.3646794
215	0x3e180a42	0.14847663
216	0x3e22d03b	0.15899746
217	0x3e168504	0.14699179
218	0xbe58a091	-0.21155001
219	0xbdef68cf	-0.116899125
220	0x3e2334bf	0.1593809
221	0x3da12d1c	0.07869932
222	0x3ee0b7d5	0.43890253
223	0xbd187f6b	-0.03723089
224	0x3cd53323	0.02602536
225	0x3dd0d8ea	0.10197623
226	0xbe007b7e	-0.12547109
227	0xbd719c90	-0.0589872
228	0xbec6044a	-0.38675147
229	0xbe9b8390	-0.30373812
230	0xbe883776	-0.26604813
231	0x3d1fd4f2	0.03902144
232	0x3ea34259	0.31886557
233	0x3e2c4840	0.16824436
234	0x3e50efb8	0.20403945
235	0x3ee63eb3	0.4496971
236	0xbee0cf46	-0.43908137
237	0xbe163ff8	-0.1467284
238	0x3d75073f	0.059821364
239	0x3d278338	0.040896624
240	0x3ed357c4	0.41277897
241	0x3ea77268	0.32704473
242	0xbeea4795	-0.45757738
243	0xbd9c702b	-0.07638582
244	0xbe82afb4	-0.25524676
245	0xbd5c51ae	-0.053788833
246	0x3e926ad2	0.28597122
247	0x3ec2b924	0.38031876
248	0xbe047543	-0.12935357
249	0x3ed546ce	0.41655582
250	0xbea914b9	-0.33023623
251	0xbec60def	-0.38682505
252	0x3e950b2f	0.29110095
253	0xbde24d77	-0.110499315
254	0x3e9d6d11	0.30747274
255	0xbe43a9c9	-0.19107737

lstm.weight_hh_l2 f4 [40, 10]
0	0xbe8b73de	-0.27236837
1	0xbe9429b3	-0.28938064
2	0xbbd2b17e	-0.00642985
3	0x3ced42f1	0.028962584
4	0xbda45fa3	-0.08026054
5	0x3e2fbd2b	0.17162006
6	0x3e576a12	0.21036556
7	0xbc7a55d0	-0.015279248
8	0xbe1c91de	-0.15290019
9	0xbd80cb4d	-0.062887765
10	0x3e1ac1e1	0.15113021
11	0x3e22c96e	0.15897152
12	0xbe690242	-0.22754768
13	0xbe595dd1	-0.21227194
14	0xbd99098c	-0.07472524
15	0xbc75d2cf	-0.015003874
16	0xbe40c087	-0.18823443
17	0xbe92daf5	-0.28682676
18	0xbde60375	-0.11231128
19	0x3df98037	0.12182658
20	0x3e8c8cc3	0.27451143
21	0x3e4e32a9	0.20136513
22	0xbe832ff5	-0.25622526
23	0xbdbe1284	-0.09280875
24	0xbc73f7ed	-0.014890653
25	0xbd87467d	-0.066052414
26	0xbda06293	-0.078313015
27	0x3e9559ad	0.2916998
28	0xbe69b7c2	-0.22824004
29	0xbdc547cd	-0.096328355
30	0xbd8be190	-0.06830132
31	0x3da8dc56	0.08245151
32	0x3db3e9b6	0.08784811
33	0x3e0107ef	0.12600683
34	0x3da9bec4	0.08288339
35	0x3e91b345	0.28457084
36	0x3eb781e8	0.35841298
37	0xbc44589f	-0.01198402
38	0xbeab4e00	-0.33457947
39	0x3edd32b6	0.43202752
40	0xbeb3bcc4	-0.35104954
41	0xbe52ccfe	-0.20586011
42	0x3d2c5602	0.04207421
43	0x3e35086e	0.17678997
44	0x3db8684a	0.090042666
45	0x3e8091d5	0.2511126
46	0xbe52a3ea	-0.20570341
47	0x3dfab61f	0.12241768
48	0xbea61136	-0.32435006
49	0xbe629db7	-0.22130476
50	0x3e42447e	0.1897144
51	0xbe3a3296	-0.1818336
52	0xbb89ab95	-0.0042013624
53	0xbdcbf89a	-0.09959526
54	0xbdc59533	-0.09647598
55	0x3e717795	0.23580773
56	0xbc24d60d	-0.010060799
57	0x3e35af03	0.17742543
58	0x3d5a57d1	0.053306405
59	0x3ea787e5	0.32720867
60	0xbd1ee61e	-0.038793676
61	0xbdf68e51	-0.120388635
62	0x3e683e04	0.22679907
63	0xbe9f7704	-0.3114549
64	0x3e7a894f	0.24466442
65	0xbe1b2c44	-0.15153605
66	0x3e5a1cdf	0.21300076
67	0x3bbd6297	0.005779575
68	0xbe920ec3	-0.28526887
69	0xbbf85cbb	-0.0075794137
70	0xbd7c4243	-0.06158663
71	0xbec67eb8	-0.38768554
72	0x3e128f80	0.14312553
73	0xbe2aff88	-0.1669904
74	0xbbb2309c	-0.0054379236
75	0x3e10fe81	0.14159586
76	0xbe872a6c	-0.26399553
77	0x3cd57955	0.026058832
78	0xbd30033e	-0.042971842
79	0xbe5fbbaf	-0.2184894
80	0xbeaf5c84	-0.3425027
81	0xbe6a1550	-0.22859693
82	0x3d6a8b3a	0.057261683
83	0xbe43ae81	-0.19109537
84	0x3d89e8a3	0.06733825
85	0xbd9e3e1e	-0.07726692
86	0x3e6d77db	0.23190252
87	0xbd77e9c5	-0.060525674
88	0xbe9483e4	-0.29006875
89	0x3e0bf1d5	0.1366647
90	0xbc8467cf	-0.016162781
91	0xbdb64734	-0.089003
92	0xbead646c	-0.33865678
93	0xbe8237c3	-0.25433168
94	0xbe235036	-0.15948567
95	0xbe17a74f	-0.14809917
96	0xbe05e6e9	-0.13076366
97	0x3e898625	0.26860157
98	0xbea02bc7	-0.312834
99	0xbe8537af	-0.26019046
100	0x3e037db6	0.12840924
101	0x3e3c4bc3	0.18388276
102	0xbd07500e	-0.03303533
103	0x3d6f8546	0.05847671
104	0xbe9684c4	-0.29398167
105	0xbe89cb33	-0.2691284
106	0xbe8f4c35	-0.2798783
107	0xbd034891	-0.032051627
108	0xbdde51ba	-0.10855432
109	0xbe0aec4f	-0.13566707
110	0x3df93f8e	0.12170325
111	0xbdcea27d	-0.10089586
112	0x3e869c6c	0.26291215
113	0xbdf3e4d3	-0.11908879
114	0xbe161b55	-0.14658864
115	0xbe299bab	-0.16563289
116	0x3edb6f7a	0.42858487
117	0x3e1a1824	0.15048271
118	0x3d1a02eb	0.03760044
119	0x3ebeb8d6	0.37250394
120	0x3e5c61fc	0.21521753
121	0x3e9d52fb	0.30727372
122	0x3ea598de	0.3234319
123	0x3e838fae	0.25695556
124	0xbc9b368f	-0.018946914
125	0x3e7923b5	0.24330027
126	0xbd8c4b02	-0.06850244
127	0xbe76b891	-0.24093844
128	0x3e47a3da	0.19496098
129	0xbe1d8b2d	-0.15385123
130	0x3e9bd691	0.3043714
131	0x3e3efe1b	0.18651621
132	0xbe009a54	-0.12558872
133	0x3e3da270	0.18518996
134	0x3e28b35d	0.16474672
135	0xbd910d72	-0.070826426
136	0x3ecf8b8e	0.4053616
137	0x3d9074bb	0.070535146
138	0xbe413c70	-0.18870711
139	0xbdd61cdf	-0.104547255
140	0xbdc97002	-0.09835817
141	0xbe019d42	-0.12657645
142	0x3dd2997a	0.102831796
143	0xbdef68c3	-0.116899036
144	0x3e1fb5a9	0.15596642
145	0xbe9bb5c7	-0.30412123
146	0x3d6813fe	0.05665969
147	0xbe38e60e	-0.18056509
148	0x3dad8e0e	0.084743604
149	0xbe6b9c71	-0.23008896
150	0xbe85782e	-0.26068252
151	0xbe58d2cf	-0.21174167
152	0x3e852a7f	0.26008984
153	0xbe1c3305	-0.15253837
154	0xbd2aa7c7	-0.04166391
155	0x3dce4712	0.10072149
156	0xbe72907c	-0.23687929
157	0x3e3e226c	0.18567818
158	0xbe208c7c	-0.1567859
159	0xbe1b983b	-0.1519479
160	0xbd27fffb	-0.041015606
161	0xbe5d3a9b	-0.21604387
162	0xbe55c1d3	-0.2087472
163	0xbe498afe	-0.19681928
164	0x3e8f794d	0.28022233
165	0xbeb737d4	-0.3578478
166	0x3e9d500b	0.3072513
167	0xbde1e22e	-0.110294685
168	0x3e1e769f	0.15474938
169	0xbe3b8e3e	-0.1831598
170	0xbe9144bb	-0.2837275
171	0x3e10a7b8	0.1412648
172	0x3d6feda4	0.05857624
173	0xbe3c1b77	-0.18369852
174	0xbe50fbab	-0.20408504
175	0xbea7974e	-0.32732624
176	0xbea7d190	-0.3277707
177	0x3e8364f0	0.25662947
178	0x3e542dce	0.20720598
179	0x3e2dee44	0.16985422
180	0x3ea4829c	0.32130897
181	0xbe331ab2	-0.17490652
182	0xbd49ce4f	-0.049269017
183	0x3e1c509f	0.1526513
184	0x3e1c3908	0.1525613
185	0xbe6c507a	-0.23077574
186	0xbe0d1b1f	-0.13779877
187	0x3e459f0c	0.19298953
188	0x3e6827a5	0.22671373
189	0x3e6b3b35	0.22971804
190	0xbe17853b	-0.14796917
191	0xbd862d1f	-0.06551575
192	0x3e52d4a5	0.2058893
193	0x3d0b5e2c	0.034025356
194	0xbe4e376d	-0.20138331
195	0xbe349b3d	-0.17637344
196	0x3d7c827e	0.061647885
197	0xbdf0cccd	-0.11757813
198	0x3e466ae3	0.19376712
199	0xbde0d61c	-0.10978338
200	0xbe21f603	-0.15816502
201	0x3e9982c4	0.2998258
202	0x3e73178d	0.23739453
203	0x3e3f762d	0.18697424
204	0xbd71be45	-0.059019346
205	0x3bad9273	0.005296999
206	0x3d5cc386	0.053897403
207	0x3dbd0ac2	0.092305675
208	0x3e97deed	0.29662266
209	0x3e23e116	0.16003832
210	0xbe512ecc	-0.20428008
211	0x3e5162d4	0.20447856
212	0xbeaa4527	-0.33255884
213	0x3d9f0f39	0.07766575
214	0xbda95961	-0.08269001
215	0xbe62c2db	-0.22144644
216	0xbe804385	-0.25051513
217	0x3d87dd0e	0.0663396
218	0xbe3aebd8	-0.1825403
219	0x3e4b87f3	0.1987608
220	0xbd65c087	-0.05609181
221	0xbe37c508	-0.17946255
222	0x3c329d35	0.010901739
223	0xbeb72005	-0.35766616
224	0x3d57ef61	0.052718524
225	0xbea14a08	-0.31501794
226	0x3e51246b	0.20424049
227	0xbe7fba59	-0.2497343
228	0x3ce96150	0.028488785
229	0x3e86852c	0.26273477
230	0xbe35a266	-0.17737731
231	0x3e16b81e	0.14718673
232	0x3e23519b	0.15949099
233	0xbe76e2a5	-0.24109896
234	0xbd678134	-0.056519702
235	0xbe7f7979	-0.24948682
236	0xbe922134	-0.28540957
237	0xbd750caf	-0.05982655
238	0x3e87f2f8	0.26552558
239	0xbdb69a75	-0.08916179
240	0x3dd17aa2	0.102284685
241	0xbe0beb40	-0.1366396
242	0x3e3141ca	0.17310253
243	0x3dd8f252	0.10593094
244	0xbe09c96c	-0.13455743
245	0x3eadfe21	0.33982947
246	0xbe171ff8	-0.14758289
247	0xbe757f95	-0.2397445
248	0x3e5399f9	0.20664205
249	0x3e8a5035	0.27014318
250	0xbd6bf7da	-0.057609417
251	0xbeb618b7	-0.3556573
252	0xbe936822	-0.28790385
253	0xbcf31038	-0.02967082
254	0x3e764e2a	0.24053255
255	0x3e8dcf5d	0.27697268

lstm.bias_ih_l2 f4 [40]
0	0x3eae5b01	0.34053805
1	0xbe0056b8	-0.1253308
2	0xbd73b289	-0.059496436
3	0x3ceaba87	0.028653396
4	0x3e75ddc0	0.24010372
5	0xbe2ecefa	-0.17071143
6	0x3c9c1736	0.019054037
7	0x3e955ce4	0.29172432
8	0x3e2a0275	0.166025
9	0x3db244eb	0.08704551
10	0x3e868d0c	0.26279485
11	0xbe0866ab	-0.13320415
12	0xbddea0fe	-0.108705506
13	0xbdd52cfd	-0.104089715
14	0x3e84137d	0.25796118
15	0x3e52f98f	0.20603012
16	0xbd01afc4	-0.031661764
17	0x3c351954	0.011053402
18	0x3ddc0e00	0.10744858
19	0xbe7c1a31	-0.24619366
20	0x3d840751	0.06446708
21	0xbdadc891	-0.08485521
22	0xbd0d0ad1	-0.034434143
23	0xbd2e13f1	-0.042499486
24	0xbd8d4520	-0.0689795
25	0x3d24beaa	0.040220894
26	0xbe909019	-0.28234938
27	0x3ec9b00f	0.39392135
28	0xbd9dfa58	-0.07713765
29	0xbe9501f1	-0.29103044
30	0x3ea16f51	0.3153024
31	0x3e3cf00c	0.18450946
32	0x3d1685a5	0.036748547
33	0xbdd92c01	-0.10604096
34	0xbda44541	-0.08021022
35	0xbe65df26	-0.22448406
36	0x3e658aae	0.22416183
37	0xbce802b2	-0.028321598
38	0x3e2b3943	0.16721062
39	0x3de6a899	0.11262626

lstm.bias_hh_l2 f4 [40]
0	0xbda7ad1c	-0.08187315
1	0xbe944e25	-0.2896587
2	0xbcb7a49e	-0.022417363
3	0xbe8dfb39	-0.2773073
4	0x3edfa7f1	0.43682817
5	0x3e4dd8ea	0.20102277
6	0x3c812e21	0.015769066
7	0x3e5113f1	0.20417763
8	0x3e75b421	0.23994495
9	0x3e2b617e	0.16736409
10	0xbd8371c2	-0.06418182
11	0x3d1320db	0.035920005
12	0xbd161b4e	-0.036647134
13	0xbeb99063	-0.3624297
14	0xbd6ba399	-0.057529066
15	0x3e5a130b	0.21296327
16	0x3e5d4606	0.21608743
17	0x3ea3b341	0.31972697
18	0xbe1f4615	-0.15554078
19	0xbe792d6f	-0.24333738
20	0xbec57e8e	-0.38573116
21	0xbdd348bc	-0.10316607
22	0xbe231cd7	-0.1592897
23	0xbd9d7194	-0.07687679
24	0xbe8fdd87	-0.280987
25	0xbe78bae3	-0.24290042
26	0x3dc360db	0.09539958
27	0xba3793f2	-0.00070029416
28	0x3d1422f6	0.036166154
29	0xbe4378e4	-0.19089085
30	0x3e8fa6a2	0.28056818
31	0x3de70278	0.11279768
32	0xbc7f41b8	-0.015579633
33	0x3d50caec	0.05097477
34	0x3e6a80dd	0.2290072
35	0xbe7c1cd0	-0.24620366
36	0x3dfc3721	0.123152025
37	0x3ee6d548	0.45084596
38	0xbd03e022	-0.03219617
39	0x3ec99e34	0.39378512

fc.weight f4 [1, 10]
0	0xbeb9d6ad	-0.36296597
1	0x3e038bbe	0.12846276
2	0x3e928450	0.2861657
3	0x3e03b185	0.12860687
4	0xbe37dd56	-0.17955527
5	0x3e379034	0.17926103
6	0xbed03f3d	-0.40673247
7	0x3e4dfdf7	0.20116411
8	0xbec987d3	-0.39361438
9	0xbed486ec	-0.41509187
