ec_l2o_log/mtl_0.5_1_1_0.9/lstm_unroll.pth (torch, 13115 bytes, 13 tensors)

lstm.weight_ih_l0 f4 [40, 2]
000000 34 3d a8 3e f3 3f a0 3e 35 ed 00 3f 7f b9 66 be
       0.32859194 0.3129879 0.5036195 -0.22531699
000010 99 00 31 3f 20 8c 4c 3e 0e 22 02 3f 8c 37 8a 3e
       0.69141537 0.19975328 0.50833213 0.26995504
000020 4c 4b a4 3e ca 39 40 bd e5 ba 44 3f d8 9a 7a 3e
       0.32088697 -0.046930112 0.7684768 0.2447313
000030 d5 92 11 3f 64 f0 3c bd ca 22 51 be 53 2c 23 3d
       0.5686467 -0.046127692 -0.20423427 0.039837193
000040 6c 08 79 3d 90 4f be 3d a9 19 e9 3e f5 b3 fb 3e
       0.060799047 0.09292519 0.4552739 0.49160734
000050 5d e9 0f 3c 90 f3 c9 3d 76 e0 a9 3e c3 d3 05 3e
       0.0087836655 0.09860909 0.33179063 0.13069062
000060 cb 91 5d 3e f8 72 d7 3e 57 3c 0c 3f 6b 98 5d 3e
       0.21637647 0.42079902 0.5477957 0.21640174
000070 c9 61 84 3e c6 95 f4 bc 0a ff 4a bd b3 91 aa 3e
       0.25855854 -0.029856574 -0.04955963 0.33314285
000080 0d 13 87 bd b9 dc 5a 3d ee 02 d8 3e a0 ce ba 3e
       -0.065954305 0.053433154 0.42189735 0.36485767
000090 24 45 9c 3e 10 80 0d 3e 7f 38 10 3e 28 03 62 bc
       0.305215 0.13818383 0.14084052 -0.013794698
0000a0 a7 8e 09 3e 04 9e a5 3e a0 8d c4 be 8c 0d c1 3d
       0.13433324 0.3234712 -0.383893 0.09426412
0000b0 23 4e 03 bf 87 2d 35 be 97 07 b7 bd 7f 13 6f 3e
       -0.512911 -0.17693149 -0.089369945 0.23347281
0000c0 cb b7 63 be 6b 95 2a be d9 b4 26 bf cd c7 ab be
       -0.2223808 -0.16658561 -0.651197 -0.33550873
0000d0 56 10 1d 3f 19 80 3a be 47 0d b7 3d 81 16 94 3e
       0.6135305 -0.18212928 0.08938079 0.2892342
0000e0 20 cb 87 3c 89 cb 86 3e b5 6b f1 3e cb e1 f9 bd
       0.01657635 0.2632716 0.47152486 -0.1220127
0000f0 7f 9c 0c bd 5f 9c bf 3e 01 75 6f 3e 8d 62 74 3e
       -0.034328934 0.3742399 0.23384477 0.23865719
000100 e5 41 2e 3f 5c 16 d0 3e c3 8a d5 3e 78 f1 e3 3e
       0.680693 0.4064206 0.4170743 0.44520164
000110 bd 6e ff 3e 9a 1e 06 3f 0f b2 9e 3e 4f 09 41 3e
       0.49889174 0.52390444 0.30995223 0.18851207
000120 d4 da 26 3f ee 75 aa 3e 33 8f 99 be 43 17 f1 3d
       0.65177655 0.33293098 -0.29992065 0.11772015
000130 d8 74 83 be 94 f7 1d 3e 24 80 f4 3e 11 9c c3 3e
       -0.25675082 0.15426475 0.47754014 0.38205007

lstm.weight_hh_l0 f4 [40, 10]
000000 b2 2e 7f bd 3f da 7a bd 80 cf 1b bf 66 b2 c0 be
       -0.06230039 -0.061243292 -0.60863495 -0.37636107
000010 dc c0 5b 3c ca a4 93 be 2e a1 ba 3e 99 12 81 be
       0.0134126805 -0.28836662 0.36451095 -0.252095
000020 72 db 3a 3e f6 c0 a9 3e 39 74 8c bd 7a 2b 55 bd
       0.18247774 0.3315503 -0.06858105 -0.052043416
000030 6a cb cd 3d b0 7d 93 be 29 17 9a be fe ac 9c 3e
       0.10048564 -0.2880683 -0.30095795 0.30600733
000040 6e 3e 55 3e 40 d3 53 be 6d 82 a1 3d 4f 49 37 be
       0.20824596 -0.20686054 0.07886205 -0.17899059
000050 36 39 e3 be 66 d7 63 3e d9 9d cf 3c 6f f7 8f bd
       -0.44379586 0.22250137 0.025343822 -0.07029616
000060 ac 86 2c bf 1e 72 0f be 63 b0 de 3e b8 eb 7e be
       -0.6739299 -0.14008376 0.43493947 -0.24894607
000070 7f 7f 24 be d1 1c 9e 3e cf 7b 72 3c cf bb 24 ba
       -0.16064261 0.3088136 0.014800026 -0.0006284089
000080 c8 d1 23 be 5c e9 3e 3d 9c 8d 0d be b7 da 93 be
       -0.15997994 0.046609268 -0.13823551 -0.28877804
000090 83 c0 b6 3d 26 21 41 3e a1 00 c4 bd 83 4a 50 3e
       0.089234374 0.18860301 -0.095704325 0.20340924
0000a0 8b ec 4e 3e d9 2e d8 3e 60 c2 b7 3e de 52 10 be
       0.20207421 0.42223242 0.35890484 -0.14094111
0000b0 ab f3 9d 3e 68 10 6d 3e e7 50 26 3e 77 47 b6 bd
       0.30849966 0.2315079 0.162418 -0.089003496
0000c0 f3 ca 63 3e ce ba 71 3e 05 14 65 3e dc ec 9b be
       0.22245388 0.23606417 0.22370918 -0.30454147
0000d0 e4 47 99 be 35 54 03 bf ce 95 df bd 13 27 b4 3a
       -0.2993766 -0.51300365 -0.10917245 0.0013744555
0000e0 18 37 02 3e f1 60 8e be f4 02 2f be f2 ef da 3e
       0.12716329 -0.27808335 -0.1709097 0.4276119
0000f0 09 4f 69 be 6b 67 97 3e 44 18 55 3e 15 ea fe 3d
       -0.22784056 0.2957109 0.20810038 0.12446991
000100 6d 83 29 bf b0 92 90 3e 98 40 9e 3e 34 3b b2 be
       -0.66216165 0.28236914 0.30908656 -0.34810793
000110 cb 08 80 3e 36 f4 49 3d 64 9a b8 be a1 b3 19 bd
       0.25006709 0.049305163 -0.3605529 -0.037524823
000120 8e 88 eb bc 3f 9e fb bd 24 17 c5 bd 88 5d 2e be
       -0.028751638 -0.122860424 -0.09623554 -0.17027867
000130 fc 86 83 be b2 31 ad be c3 dd 57 3e e2 82 5a 3e
       -0.25688922 -0.33826977 0.21080689 0.2133899
000140 61 8f 78 3e 56 f6 93 3e 08 e4 89 be c0 05 32 be
       0.24273445 0.28898877 -0.26931787 -0.17385006
000150 f1 dd ab bd 0e 7e 72 3e a7 3d 84 3e cb 31 42 be
       -0.08391941 0.23680899 0.25828287 -0.18964307
000160 37 3e 57 be 53 02 02 be 9b 6f 9c 3e fc c4 90 3c
       -0.21019827 -0.12696199 0.30553898 0.017672054
000170 91 d1 42 be dd c1 c1 be 56 bb ed 3b 01 40 15 3c
       -0.19025256 -0.37843218 0.007254998 0.009109498
000180 7b 1e 0f 3e 8e ea 05 be 8b 6f c8 3e d6 66 15 3e
       0.13976471 -0.13077757 0.391476 0.1459001
000190 d9 14 c5 3d 66 df a6 3e b9 87 91 bd af 94 ee bd
       0.09623117 0.32592314 -0.07105965 -0.11649453
0001a0 79 42 31 3b 36 f3 f3 bd 03 74 90 3e a0 f2 8f 3e
       0.0027047677 -0.11911623 0.2821351 0.28114796
0001b0 29 fa c7 3e 58 b3 c1 3d d8 87 c7 bd 67 70 81 3e
       0.39058045 0.09458035 -0.09742707 0.2528107
0001c0 f2 36 b0 3e 43 60 70 3c b6 d1 24 3e 95 03 f5 3e
       0.3441692 0.014671388 0.16095623 0.47854295
0001d0 a5 92 1c 3d fa 4c e3 3d 43 38 9c 3e 0e 8a 02 bd
       0.03822579 0.110986665 0.30511674 -0.03186994
0001e0 10 d7 3f 3e 63 71 9f 3e 94 93 a0 be 32 a6 92 be
       0.18734384 0.31141195 -0.31362593 -0.28642422
0001f0 e6 63 73 be ee 8e d0 bd a4 23 79 3e a8 3e b6 be
       -0.23768577 -0.10183512 0.24330002 -0.35594678
000200 4e 5c e4 3d 76 ae f9 3d b2 3e 21 3e 22 87 8a 3e
       0.11150418 0.12191479 0.15746573 0.27056223
000210 de cb fb 3d 8b 14 8a 3d d5 33 03 bf a7 b2 94 3d
       0.12294744 0.067421995 -0.51250964 0.07260638
000220 16 e6 84 3d 5b 8e 93 be 6a 15 6a be 90 51 9c 3e
       0.06489198 -0.28819546 -0.22859731 0.30530977
000230 11 d1 e7 3d 01 81 74 3e 85 ed ee 3e eb dc 82 be
       0.11319173 0.23877336 0.46665588 -0.25559172
000240 d2 ba ca 3e 74 74 3f 3e 1f ef e7 3d ba ed b0 be
       0.39595658 0.18696767 0.113249056 -0.3455637
000250 f9 5c 60 3e 4e 60 95 bd 78 74 e5 3e e3 19 0b be
       0.21910466 -0.07293759 0.4481542 -0.13584094
000260 1c 16 92 be 7a 8c 96 be 07 7f 9a 3d c2 5a 38 3e
       -0.28532493 -0.2940405 0.0754376 0.18003371
000270 d8 07 ca 3e 14 b0 e6 3d 0e 5b cf 3e f5 cc 0b bd
       0.3945911 0.11264053 0.40499157 -0.03413101
000280 cb 5e 04 be b2 d0 0e 3d 80 8d fd 3d 53 aa 94 be
       -0.12926786 0.034866996 0.123805046 -0.29036197
000290 75 81 c1 3d 8a 12 91 3e d8 2a 33 be 76 22 f6 bc
       0.0944852 0.28334457 -0.17496812 -0.03004573
0002a0 39 98 2c 3e 3d 94 4a be fa 43 8d bd e2 85 8a 3e
       0.16854943 -0.19783111 -0.06897731 0.2705527
0002b0 41 b8 3a 3e 9e 43 c3 be bc 46 e4 be d0 8f a3 3d
       0.1823435 -0.38137525 -0.44585216 0.079864144
0002c0 99 50 e6 3e 3e cf c6 be c9 49 6c 3c ce 2a 88 bd
       0.44983366 -0.38829988 0.014421889 -0.06648789
0002d0 15 e3 7a be ba e0 ab be e4 82 1e bf 0f a0 d0 bd
       -0.24500687 -0.3356989 -0.61918473 -0.10186779
0002e0 f1 06 ab be c5 ca c6 bc f6 40 ac 3e 01 fa 72 bc
       -0.33403733 -0.02426661 0.3364331 -0.014830113
0002f0 df 59 80 bd 61 0b 7b 3e 1f 85 ad bd 58 22 1e 3e
       -0.062671416 0.2451606 -0.084726565 0.15442789
000300 1b 53 36 3e 6e 81 0a be c2 39 ff 3b 70 43 26 3c
       0.1780514 -0.13525936 0.0077888677 0.010147914
000310 82 fa 7c 3e 4c 2b 29 3e f5 3d fd bd 87 36 42 3c
       0.24704936 0.16520423 -0.12365333 0.011853821
000320 90 62 c9 bd 29 74 00 be bc c1 fc be ec 11 9f 3e
       -0.098332524 -0.12544312 -0.49366558 0.3106836
000330 39 e8 42 3e 86 4a 03 be 1f 19 e7 3c da 56 e9 3c
       0.19033898 -0.12821397 0.02821022 0.028483797
000340 6a 4d 32 3d a5 ae 29 3d 50 e4 bb be 99 6d 4a 3e
       0.04353086 0.04142632 -0.36697626 0.1976837
000350 c4 42 2a bd 26 51 1e 3e 7c 20 82 bd 7e 74 53 bb
       -0.04156758 0.15460643 -0.06353852 -0.003226548
000360 ad d3 60 bd a8 b5 54 be 43 d9 65 3e 35 6d 81 3e
       -0.05488937 -0.20772421 0.2244616 0.2527863
000370 82 e3 62 be 8f e7 70 3e 64 62 29 bd 3e 20 9d be
       -0.221571 0.23525833 -0.0413536 -0.3068866
000380 17 88 ce 3e 3d b8 ca bd e6 08 25 3b 94 11 d3 be
       0.40338203 -0.09898422 0.0025182306 -0.4122435
000390 08 d5 80 bd c2 74 a5 3e b4 ec ab bd 23 ea 88 3e
       -0.062906325 0.32315642 -0.08394757 0.26741132
0003a0 53 ad 04 3f a6 82 55 3e fb b0 27 3f cc 09 4c 3d
       0.5182697 0.2085062 0.65504426 0.04981403
0003b0 ee b2 b0 bd 11 a3 a6 3e 7f 09 c1 bd 4d e3 01 3e
       -0.08627878 0.32546285 -0.09425639 0.12684365
0003c0 d1 d9 be 3e 46 42 22 be 1b 9e ce bd 6a ef 7a 3e
       0.37275556 -0.15845594 -0.1008875 0.24505392
0003d0 ea 26 bc 3e c0 66 86 be 4e 31 f9 bd 55 70 af bd
       0.3674844 -0.26250267 -0.12167607 -0.085663475
0003e0 41 ba c5 bd f3 26 40 be d0 36 c8 be 65 8b 86 3e
       -0.09654666 -0.18764858 -0.3910432 0.26278225
0003f0 65 c7 d1 3e a5 df 20 3d 6c b7 b0 bd e7 5b 05 3f
       0.40972438 0.039275784 -0.08628735 0.52093357

lstm.bias_ih_l0 f4 [40]
000000 c9 33 f7 3e f5 79 aa 3e 9a 42 29 3f ee 9a f4 bd
       0.48281696 0.3329617 0.6611725 -0.11943613
000010 9a 36 c3 3e 63 a5 40 3f ae 62 f1 3e 85 73 85 3e
       0.38127595 0.7525236 0.471456 0.26064697
000020 da cf 93 3e a8 aa 83 3e 80 52 76 3e ca e2 be 3e
       0.28869516 0.25716138 0.24054909 0.372824
000030 1f 55 c6 3d 41 2a 2a be fa a8 3e bd 05 f8 28 3e
       0.09684204 -0.16617681 -0.046547867 0.16500862
000040 2f 2a f1 3d e1 65 5e 3e 3d 98 f7 bd 97 cb b5 3e
       0.11775624 0.21718551 -0.12089584 0.3550689
000050 2f e2 88 3c 12 14 11 be 91 88 59 3e 3d 7f 89 be
       0.016709415 -0.14167812 0.21243502 -0.26854888
000060 fc 26 a8 3e 0b a5 cf 3d 93 48 86 3b 47 a1 9d be
       0.32842243 0.10138901 0.004098007 -0.30787107
000070 dd 04 97 3e 72 25 06 3e 1c 79 19 3d 43 af 72 3e
       0.29495898 0.13100222 0.037469015 0.2369967
000080 3d 97 2d 3f d4 d0 88 3e 8c 27 01 3f ef 97 10 3e
       0.67808896 0.26721823 0.5045097 0.14120458
000090 f3 f9 a9 3e 9f eb 45 be 26 ac 7f 3e 01 51 65 3e
       0.3319851 -0.19328164 0.24968013 0.22394182

lstm.bias_hh_l0 f4 [40]
000000 60 21 f9 3e 14 fd 89 3d 75 c4 d2 3e 05 e6 be 3e
       0.48658276 0.06737724 0.4116551 0.37284866
000010 3c d0 b6 3e 6b 4d ea 3e 23 4b eb 3e ac 01 95 bd
       0.35705745 0.4576219 0.45955762 -0.072757095
000020 0b d1 d1 3d 83 24 a9 3e d6 81 ae 3e e0 0e e3 3d
       0.1024495 0.3303567 0.34083432 0.110868216
000030 8f 94 ab 3e 55 ae 9e 3c bd 2c f1 3e cf 05 7b 3d
       0.3351178 0.019370237 0.47104445 0.061284836
000040 0e 7c 9e be 03 89 2c 3e a7 a7 38 3c 2c 0b 56 3e
       -0.3095402 0.16849141 0.01127044 0.20902699
000050 b0 53 11 be 48 94 b5 3e 04 f1 4c bc 77 f5 d0 bd
       -0.1419208 0.35464692 -0.0125086345 -0.10203069
000060 d6 32 6f bd aa b1 36 bd 33 7d c2 bb d5 dc a6 3d
       -0.05839809 -0.044603027 -0.005935335 0.08147589
000070 c7 46 9c 3e 69 00 52 3e 60 4f 44 3d 25 98 91 3d
       0.3052275 0.20507969 0.04792726 0.071090974
000080 d7 4a ef 3e 10 11 6e bd 43 08 ad 3e 99 70 ec 3e
       0.46736786 -0.05812174 0.33795366 0.46179655
000090 8b ae 9b 3d 4d ec 20 3e d4 a6 bd 3e 91 65 42 3e
       0.07601651 0.15715142 0.37041342 0.18984057

lstm.weight_ih_l1 f4 [40, 10]
000000 a4 55 f9 3e 92 dc e3 be 5f b2 57 bf a9 6f 9c be
       0.4869815 -0.4450422 -0.8425655 -0.3055394
000010 3a 8d a6 3d 6b 8f 11 bf bb 9d ce 3e 51 f3 f1 3e
       0.081324056 -0.56859463 0.40354714 0.47255948
000020 54 25 a7 3e 45 b4 58 3e 49 b0 a6 3d 99 4e e6 be
       0.32645667 0.21162517 0.081390925 -0.4498184
000030 69 41 f7 be 44 68 d6 be 33 44 03 bf f5 50 37 bf
       -0.4829209 -0.41876423 -0.5127594 -0.71607906
000040 30 57 2c 3e 22 ca 20 3e db b5 90 3d b6 5e 08 3f
       0.16830134 0.15702108 0.07065936 0.5326952
000050 3a ac f4 3e ab d9 19 3e 21 03 ab be 46 93 a9 be
       0.47787648 0.1502444 -0.33400825 -0.33120173
000060 8e 6f 2f 3d b0 4d cf be 81 ba 33 3e f2 af 48 3d
       0.042830996 -0.40488958 0.17551614 0.04899592
000070 b6 ff 35 3e ef b6 e1 3e cd ee c1 3e d8 34 97 3e
       0.17773327 0.4408488 0.37877503 0.29532504
000080 84 7c 4c be ef e5 dc be 35 5e 36 bd ef 86 86 be
       -0.19969374 -0.43144175 -0.044523437 -0.2627482
000090 21 75 ad 3e 71 ab d1 bb 91 c8 3e be 98 26 70 bd
       0.33878425 -0.0063986112 -0.18631198 -0.058630556
0000a0 81 65 87 be c5 70 ff be b9 b7 bb be 61 b3 e8 3d
       -0.2644463 -0.49890724 -0.36663607 0.11362339
0000b0 2a 96 b7 bc c4 b6 9c be 80 88 5f 3e e2 6c df 3d
       -0.022410471 -0.3060819 0.21829414 0.109094396
0000c0 d4 90 7f be 09 e2 4c 3c 5b 92 35 3e 60 2e c8 3e
       -0.24957591 0.012505063 0.17731611 0.3909788
0000d0 27 08 f5 3c 47 51 f6 be cd 58 a1 3e 5c 70 42 bf
       0.029911114 -0.48108885 0.31513062 -0.75952697
0000e0 1c 1c c1 3e 10 48 9b 3d 83 42 f0 3e 1f 69 2f 3f
       0.37716758 0.07582104 0.46925744 0.6851978
0000f0 89 20 81 3e a2 61 98 be 6f b6 26 bf 72 2a 64 be
       0.25220135 -0.29761988 -0.6512212 -0.22281817
000100 eb f2 bb be d9 53 0b bf c9 0d c9 3e 22 4e 84 3d
       -0.3670877 -0.54424816 0.3926833 0.06460215
000110 f9 0d f2 bd 3a 1c ca 3e 30 6d 48 3e da d2 4d be
       -0.11819071 0.3947466 0.19572902 -0.20099965
000120 53 4e c1 be 2e bf 95 be 15 e9 89 3e d4 56 4d 3e
       -0.3775507 -0.2924742 0.2693564 0.20052654
000130 ac 56 06 3f f0 a7 7b be ba 8a 03 be 98 68 81 3e
       0.52476 -0.24575782 -0.12845889 0.2527511
000140 4b a8 91 3e 92 4f e2 bd 91 68 17 3f 96 a8 48 be
       0.2844871 -0.11050333 0.5914393 -0.1959556
000150 c4 a5 e9 bd 80 5d 47 bd 13 09 7f be b1 21 62 be
       -0.114085704 -0.048673153 -0.24905805 -0.22083165
000160 44 5e 26 3e cc 40 c5 3e c9 80 09 3e 1a 4a 18 bf
       0.16246897 0.38526 0.13428034 -0.5948807
000170 f5 5b 5a bf 9e f6 01 bf 18 11 a2 be db 23 a7 be
       -0.85296565 -0.5076693 -0.31653666 -0.32644543
000180 6c 24 27 3f a6 02 01 3d 99 79 7a bd 21 9a c8 3e
       0.6528995 0.031496666 -0.06115112 0.3918009
000190 a6 69 a5 be 11 7a c6 3c a6 79 92 3e dd 79 f2 bc
       -0.32307166 0.024228128 0.28608435 -0.029599125
0001a0 ec 3f c2 3e 62 11 82 be c4 34 88 3e 75 4d 73 3e
       0.37939394 -0.25403887 0.26602757 0.23760016
0001b0 4d e0 ee bd 61 10 10 be 39 53 84 3d f6 55 33 3e
       -0.11663876 -0.14068748 0.06461186 0.1751326
0001c0 07 7c 8b 3e 44 a7 d6 be 81 bd 2c bc 95 8b b5 be
       0.27243063 -0.4192449 -0.010543228 -0.35458055
0001d0 98 8a 97 3e 8e 89 47 3e 41 e0 67 3e 46 d9 ac 3e
       0.29597926 0.19486067 0.2264414 0.33759516
0001e0 57 6b 47 3e 65 68 96 be d4 f8 fe be 63 c0 d6 be
       0.1947454 -0.29376522 -0.49799216 -0.41943654
0001f0 16 ff f3 be ba 3d c2 be 81 cb d9 3e bf 69 cc 3e
       -0.47655553 -0.3793772 0.42538074 0.39924428
000200 7b 89 9f bd 39 06 08 3f c2 28 b9 3e 48 da 63 be
       -0.07789894 0.53134495 0.36163908 -0.22251236
000210 d2 8b 88 bc 4d e0 61 be e9 5d 34 be 40 d7 b2 bd
       -0.016668234 -0.2205822 -0.17613949 -0.08732462
000220 bb 80 cc 3e 6d 1b d7 3a b2 f0 88 3e 19 1d aa 3e
       0.39941964 0.0016411372 0.26746136 0.33225325
000230 83 2e a8 be f9 db 0f 3e fb 62 84 be 6a a6 6d 3e
       -0.32847986 0.14048757 -0.25856766 0.23208013
000240 11 9c 6e 3d 34 aa 5f 3c f9 14 15 be ca 9c 11 be
       0.058254305 0.013651419 -0.14558782 -0.14219967
000250 37 51 75 3e 06 f6 8f be 5c 7c ff 3d c9 7c b0 be
       0.23956762 -0.28117388 0.124748915 -0.34470204
000260 0c 5d fc be 69 27 c0 3c a3 6d 4e bd fc 6d 0b 3e
       -0.4928974 0.023456292 -0.050397526 0.13616174
000270 ca 14 b6 be 8c 2a f1 3d 83 00 a9 bd 49 a1 d2 be
       -0.35562736 0.11775693 -0.08252051 -0.41138676
000280 4d 8f 44 3d fd d3 dd 3d 9c 75 99 be cf e2 cc 3e
       0.047988225 0.10831449 -0.2997254 0.4001679
000290 d2 71 90 3e 24 9c d8 bd 4e 41 8c be 44 b8 8a 3d
       0.28211838 -0.105766565 -0.27393574 0.06773427
0002a0 08 e3 ee bd 5c 20 86 3e ac ef a1 3d 49 36 d5 bd
       -0.116643965 0.26196563 0.07907042 -0.10410745
0002b0 55 64 38 3e a8 73 fd be f2 47 3f be 75 37 a6 be
       0.18007024 -0.495023 -0.18679789 -0.32464185
0002c0 72 d8 b9 3e b2 f7 97 be 50 02 03 3e e8 26 58 bd
       0.36297947 -0.29681164 0.12793851 -0.05277148
0002d0 5a c1 48 3e 7d f3 13 3e c4 8d 39 3e 91 53 23 be
       0.19605008 0.14448352 0.18120486 -0.15949847
0002e0 22 9c bf 3d f1 8d 3a 3e 7f df 98 bd cd e3 d0 be
       0.09355952 0.18218209 -0.074645035 -0.40798798
0002f0 e4 9d ae be 20 2d 5d be 62 73 a6 be d7 0c 1b bd
       -0.34104836 -0.21599245 -0.32509905 -0.037854042
000300 2c ce 8c bd b9 f2 18 be 17 f9 80 3e 91 d1 38 3d
       -0.06875262 -0.14936341 0.2519004 0.045121733
000310 74 e8 9d 3e 26 96 c7 3e b2 46 a2 3d 97 69 ad be
       0.3084141 0.38981742 0.0792364 -0.3386962
000320 9e 30 48 be 11 3d 8a 3e 73 70 a1 3e 99 f0 a3 bd
       -0.19549796 0.26999715 0.31531104 -0.08004875
000330 d0 60 7a 3e 13 aa 7f 3e d4 b1 be bd bd 3d fd 3c
       0.24450994 0.24967222 -0.09311262 0.030913228
000340 be a8 90 3d 9b 6e 44 be 4a 0f 05 3f 39 a9 36 3d
       0.07063435 -0.19182818 0.51976454 0.044594977
000350 e0 b4 2b bf d8 50 54 3d 9b a2 9b bd b0 f8 01 bf
       -0.6707287 0.05183491 -0.07599374 -0.5077009
000360 79 54 bf 3d e1 80 da 3d 6e f0 83 3e 1e ab 49 3e
       0.09342284 0.10669113 0.2576937 0.19694182
000370 03 b2 0a bf 9c a8 4d 3d e2 bd 6b 3e 00 f4 10 3f
       -0.54177874 0.050209627 0.23021653 0.56622314
000380 5a b4 4f 3e 25 98 6c 3d 52 7c 2b be 94 71 f3 bd
       0.20283642 0.057762284 -0.16746643 -0.11886898
000390 11 64 c3 be 84 ff e0 be 1f a4 8c be c8 55 c4 3e
       -0.38162282 -0.43944943 -0.27468964 0.38346696
0003a0 4e c1 e3 3e e2 95 af 3e 81 68 9e bd c5 25 c2 3e
       0.44483417 0.3429404 -0.07734776 0.3791944
0003b0 47 ea e7 bb 84 53 c4 3d 55 87 5a 3e 50 bb 9c be
       -0.0070774886 0.09586242 0.21340688 -0.30611658
0003c0 d1 5f 22 3e 03 af 9d 3c 10 31 f7 3e 2f 5d f8 3b
       0.15856864 0.019248491 0.4827962 0.0075794677
0003d0 2d 30 38 be 0a 9a e7 3e c9 bf 0f 3e fd 86 63 be
       -0.17987128 0.4523471 0.14038004 -0.22219463
0003e0 4f 92 56 bd b6 ae b8 be c1 e6 74 3e 06 ab 2a bf
       -0.052385624 -0.36070794 0.2391615 -0.6666721
0003f0 29 aa 81 bf 5a d8 96 3d 3b 6b 25 bf 2f dc 84 be
       -1.0130054 0.073654845 -0.64616746 -0.25949237

lstm.weight_hh_l1 f4 [40, 10]
000000 34 ad 66 3d 9f 9e 94 3e ba 90 bf 3e b6 b0 34 be
       0.056317523 0.29027268 0.37415105 -0.17645535
000010 11 14 49 3e 3b bb 2c 3d 63 f6 66 bd c8 0d d3 be
       0.19636561 0.042170744 -0.056387316 -0.41221452
000020 a9 a1 51 be df 61 3f be 29 a5 76 bd 5a 28 4b 3e
       -0.20471825 -0.18689679 -0.060216103 0.19839612
000030 5c d6 db 3d 46 03 8a 3d fb 3e 87 bd 7b e3 93 3e
       0.10734245 0.067389056 -0.066038094 0.2888449
000040 13 cd 32 bd 3c bb 2b bf 8d 5a ae be 98 4e bf be
       -0.043652605 -0.6708257 -0.3405346 -0.3736465
000050 cf 6f 42 be d5 3a 80 3e 52 24 99 be c3 9f 01 3e
       -0.18987964 0.25044885 -0.29910523 0.126586
000060 b2 59 f6 3d 7e ca 22 3e 7d 6d 72 3e ed 4c 9a 3e
       0.12028827 0.15897557 0.23674579 0.30136815
000070 8a 51 d9 bb 80 84 ba bd d6 4a 3c be e2 13 5d bc
       -0.0066320347 -0.091073036 -0.18387923 -0.01349351
000080 92 96 14 3e b5 05 95 be d4 4e d4 3c 64 fd 68 be
       0.14510563 -0.29105917 0.025916494 -0.22752911
000090 d5 8c 55 3d e5 e3 a6 bd af 8c c3 3d ce f5 2b bd
       0.05213626 -0.08148936 0.09548318 -0.041982464
0000a0 21 ae ac bb 48 22 cf bc 1e b1 0c 3e 29 08 ac 3e
       -0.005269781 -0.025284901 0.1373944 0.33599976
0000b0 3b 41 82 3e 45 86 0f be 4f da 95 be 47 31 2e be
       0.25440392 -0.14016064 -0.2926812 -0.17010985
0000c0 e8 5d 19 be 68 79 a7 be 54 d4 92 3d 6e 52 c5 3e
       -0.14977229 -0.32709813 0.071694046 0.3853945
0000d0 d2 27 d6 be 32 13 33 be a5 6c 8f bd 78 30 8c bd
       -0.41827255 -0.17487791 -0.07003144 -0.06845182
0000e0 78 97 09 bf 54 bc f1 bd a6 20 86 3e 56 b5 21 bd
       -0.5374675 -0.11803499 0.26196784 -0.039479576
0000f0 e7 70 8e be 71 99 8b be 01 c7 6c 3d 53 14 ba 3d
       -0.27820513 -0.27265504 0.057806972 0.09085908
000100 09 96 28 be d1 dd 07 3d bc 45 4f be 35 c2 37 3e
       -0.16463484 0.033170525 -0.20241445 0.17945178
000110 a2 af a4 3d 16 fe 48 3e 2a 74 4d 3e 6a 39 04 bf
       0.08041312 0.19628176 0.20063844 -0.51650107
000120 18 9a 18 3e d9 4d 6a be ee a5 d1 3d 34 ae 6a 3f
       0.14902532 -0.22881259 0.10236727 0.9167206
000130 3b e0 3d 3e 65 c2 87 be b4 7f 00 bf d1 47 50 3e
       0.18542568 -0.265155 -0.5019486 0.20339896
000140 6b 09 11 bd 4c 76 1e be 32 63 d3 be 51 d1 a9 3d
       -0.035409372 -0.15474814 -0.41286618 0.08291877
000150 71 a3 83 bd ed 2d 0d 3e f9 4e 5c be f9 8e 88 be
       -0.06427658 0.1378705 -0.215145 -0.2667158
000160 46 d7 43 3e 81 12 dc 3d 64 0d ad 3d 59 a1 43 bd
       0.19125089 0.10745717 0.0844982 -0.047761295
000170 50 70 19 be b4 da c5 3d 08 f4 97 bd c1 5c 93 3d
       -0.1498425 0.09660855 -0.07419592 0.07195426
000180 e1 9b 81 be a7 17 ac bb f3 2c 0e bf b4 00 12 be
       -0.2531424 -0.005251843 -0.5553734 -0.1425808
000190 cb b5 00 bd 3f 6d 26 3d 25 75 a4 bd 6e d0 d0 bd
       -0.03142337 0.04063153 -0.08030156 -0.10196005
0001a0 65 33 32 bd 86 2c 1e 3e 47 a2 59 3d a1 6e 44 be
       -0.043506045 0.15446672 0.053133275 -0.19182827
0001b0 77 34 13 3e 38 04 78 3e e5 5e fe 3d 10 4d a1 3e
       0.14375482 0.2422036 0.124204434 0.31504107
0001c0 1f 4f 72 be ed 07 16 be a4 45 8f be 57 6a 0a 3c
       -0.23662995 -0.14651461 -0.2798282 0.008448205
0001d0 78 c3 56 3d da ad 36 3e 5e c6 a5 3e 48 59 e8 bd
       0.052432507 0.17839757 0.32377905 -0.11345154
0001e0 e1 57 76 3e 1e 8c 72 3e bf b5 b4 3c 11 a6 31 be
       0.2405696 0.23686263 0.02205932 -0.17348506
0001f0 3b 19 52 3e 4e 65 6a bd c5 37 2d be 0f d3 43 3d
       0.20517437 -0.057225518 -0.16915806 0.047808703
000200 01 a2 9d be 90 82 90 be e3 63 de be 6f f6 32 3d
       -0.30787662 -0.2822461 -0.43435583 0.04369205
000210 86 08 bd be d7 31 d0 3c 9c f9 08 bd 63 c3 91 bc
       -0.36920565 0.02541439 -0.03344117 -0.017793363
000220 4b 42 2a 3e 13 6e 8e be 0a bd 59 3d a2 f0 ed be
       0.16626851 -0.27818355 0.053158797 -0.4647265
000230 d1 50 87 3e 46 97 3b 3e ed aa 94 bd 20 22 2d 3d
       0.26428846 0.18319425 -0.07259164 0.042268872
000240 f3 5d 80 be 89 59 31 bc e9 11 37 3d 06 0b bd 3d
       -0.25071678 -0.0108245695 0.044694815 0.09230618
000250 3d 68 b5 3c ce 9f 2c be 37 ba 6d 3e 9e 8c da be
       0.022144431 -0.16857836 0.23215567 -0.42685407
000260 49 bb b0 3d ee 96 76 3d bc cf 9b 3e b0 79 b3 be
       0.08629472 0.06020253 0.30431926 -0.35053778
000270 bd d3 e2 3d 9a 4c 45 3e 61 da 21 3e 55 55 0e 3e
       0.11075542 0.19267502 0.15805961 0.13899739
000280 c6 ac 32 3e 09 5d 37 be 02 23 2c 3e 1c aa 1b 3e
       0.1744872 -0.17906584 0.1681023 0.1520161
000290 33 b0 d8 bd db 08 2b be db 36 a3 3d 70 8f 3e be
       -0.10580482 -0.16702597 0.07969447 -0.18609405
0002a0 f7 e0 92 3d a4 18 92 3e aa 7f f2 bd 6e c6 ec 3e
       0.07171815 0.28534424 -0.11840756 0.4624514
0002b0 c3 aa bf be 0e 0b 8d bb e0 f3 d8 be 76 0a 39 be
       -0.37434968 -0.0043042963 -0.42373562 -0.18070397
0002c0 01 b4 75 be a2 0e be be 10 d3 36 be 20 a3 d5 3d
       -0.23994447 -0.3712054 -0.17853951 0.10431504
0002d0 41 6a 59 bd 60 39 2c 3c f0 25 d9 be fd 2b 68 3e
       -0.053079847 0.010511726 -0.42411757 0.2267303
0002e0 ed 5f 15 3e 50 a4 54 be 76 76 90 be 23 a9 34 3e
       0.14587374 -0.20765805 -0.2821538 0.17642646
0002f0 90 fb 57 be 97 06 1f bc 8d 13 45 3e 58 41 a3 be
       -0.21092057 -0.009706161 0.1924574 -0.3188579
000300 2a 79 99 3d 60 a7 48 bc 7e 37 83 3d 53 41 50 bd
       0.07493813 -0.012246937 0.06407069 -0.050843548
000310 f4 1b dd 3e 57 ee a3 3e 81 14 95 be 91 e8 49 3e
       0.4318539 0.32017776 -0.29117206 0.19717623
000320 e6 44 33 3e 66 f7 25 bd b7 c8 36 3e 2f 3a 9a 3c
       0.17506751 -0.04051914 0.17850004 0.018826572
000330 d3 90 f7 bd 23 a7 8a bd d8 3f ef 3d 3c e2 c6 3d
       -0.1208817 -0.0677016 0.11682099 0.097111195
000340 41 4f 0c 3e cb 72 ba bd 84 5b 8f bb 7e c4 e5 bc
       0.13702108 -0.09103926 -0.004374923 -0.028047796
000350 a0 4f 50 be 57 55 13 3e 0d 52 8f be c7 62 eb bd
       -0.20342875 0.14388023 -0.27992287 -0.1149345
000360 ce d9 d7 3d 75 2e 96 be 47 1d 4d 3d ec a9 ba be
       0.1053959 -0.2933232 0.05007675 -0.36457765
000370 97 e0 88 3e 1e 84 44 bd 7f 79 03 be 03 eb bb 3e
       0.26733848 -0.04797756 -0.12839316 0.36702737
000380 42 f7 1e 3e 1c 3f 28 be 2b a2 b9 3d 88 8a 2d 3c
       0.15524009 -0.16430324 0.09064134 0.01059211
000390 5a 21 fa 3e 8f 10 98 3e 25 32 b4 3d 99 d8 a2 bd
       0.4885357 0.29700133 0.08798627 -0.07951469
0003a0 2e 82 81 be a3 0c 8e 3e b6 6c 85 be 5d 24 6d be
       -0.25294632 0.27744016 -0.26059502 -0.23158403
0003b0 11 ea 2a be 06 84 86 3e 3c 2a 00 3e b6 56 1b 3e
       -0.16690852 0.262726 0.12516111 0.15169796
0003c0 56 3a 29 3e 17 b8 38 3e 19 cb 67 3e af 3c 3f 3e
       0.1652616 0.18038975 0.2263607 0.18675493
0003d0 f7 87 9a 3e aa d7 9a 3e 64 bf 53 be 5e bf 8b 3e
       0.30181858 0.30242664 -0.20678478 0.2729444
0003e0 ae f5 6c bd 11 a0 1c 3e c2 97 5f 3e 8b 12 16 be
       -0.057851486 0.15295435 0.21835235 -0.14655511
0003f0 41 c1 cf 3e 1e 36 2f be ba 7d 08 3e 41 2f 8b bd
       0.4057713 -0.17110488 0.13329211 -0.06796122

lstm.bias_ih_l1 f4 [40]
000000 c2 98 df bd 94 64 9a 3e 52 b5 23 3d ff 47 c3 3e
       -0.10917808 0.3015486 0.039967842 0.38140866
000010 0a 59 92 3d 98 94 bf 3d 87 7c 60 be d4 b7 cc 3e
       0.07145889 0.09354514 -0.21922503 0.39984
000020 59 32 0a 3d 23 17 6a 3e ef eb 93 3e b1 bd 6f 3d
       0.03373942 0.22860388 0.2889094 0.058530513
000030 e0 4f 79 be 7b 5c ae 3e f2 19 b2 3e 9c ae 05 be
       -0.24346876 0.34054932 0.3478542 -0.1305489
000040 e4 30 77 be 8e e2 b1 3d f0 6f 5a 3e c3 eb 8b bd
       -0.24139744 0.0868579 0.21331763 -0.06832077
000050 80 4c 27 3d 55 e0 50 3d d0 69 a6 be c6 e7 19 be
       0.04084444 0.05099519 -0.32502604 -0.15029821
000060 6f f5 35 3d a8 a6 35 3e 48 24 2e be 08 6d 39 3e
       0.044423517 0.17739356 -0.17006028 0.18107998
000070 12 5c 67 3c 79 f0 4f be 81 21 2d be 30 16 46 be
       0.014121072 -0.20306577 -0.16907312 -0.19344401
000080 91 8e 93 3d 8b 86 02 bd 26 91 d6 3e c1 ba a7 3d
       0.07204927 -0.03186659 0.41907614 0.08189917
000090 e2 01 53 be cf 84 d4 3e 68 47 0d be 0d 11 7e 3e
       -0.20606187 0.41507575 -0.1379677 0.24811192

lstm.bias_hh_l1 f4 [40]
000000 4b 86 0a 3e 66 5f 8f 3e 7d 45 73 3e 69 36 3d be
       0.13527791 0.2800247 0.23756976 -0.18477787
000010 72 2e 09 3d f1 a4 52 3e 14 75 d4 3d 06 78 04 3f
       0.03349156 0.20570733 0.103738934 0.5174564
000020 16 c3 82 3e 04 47 e1 3e 00 54 b2 3e 9d 7b 76 3b
       0.25539464 0.43999493 0.34829712 0.00376103
000030 1b 92 bb 3c 33 a0 dc bd 86 01 53 3e 2a 48 ea be
       0.022896817 -0.10772743 0.2060605 -0.45758182
000040 82 bc 5a 3d a0 f1 00 3f 6b b4 25 3e 41 9f 22 3c
       0.05340243 0.5036869 0.16182105 0.009925664
000050 e0 f7 45 be ab 6d a3 3d 54 5c ba be 46 46 81 3e
       -0.19332838 0.07979902 -0.36398566 0.25248927
000060 51 73 62 be 3a 07 54 3e dd 56 b0 be 0a 57 c6 bc
       -0.22114302 0.20705882 -0.3444127 -0.024211425
000070 00 d4 3c be 8d 4e 7d 3e be f3 15 bd 04 f1 e7 3d
       -0.18440247 0.24736996 -0.036609404 0.11325267
000080 84 14 57 3e 40 26 64 39 eb bf c0 bd 6f ef cc 3d
       0.2100392 0.00021758024 -0.094116054 0.10006606
000090 1e 33 bf 3e d6 ad d7 3e ac 5f ec bc aa 6a d9 3d
       0.37343687 0.42124814 -0.028854214 0.10616048

lstm.weight_ih_l2 f4 [40, 10]
000000 d9 56 16 be d6 f7 c9 3d 42 14 42 bf 70 74 06 bf
       -0.14681567 0.09861724 -0.7581216 -0.5252142
000010 c9 1f e8 be f0 c1 ec 3e 0e a5 25 be e8 90 19 be
       -0.4533675 0.46241713 -0.16176245 -0.14996684
000020 d8 ea a2 be 26 5d 2b bf 9a f5 ea 3d ee da 5b 3d
       -0.31819797 -0.6693901 0.11472626 0.053675584
000030 49 5d a8 be eb 07 ea bc c0 13 69 bd 21 1d b3 3e
       -0.3288367 -0.028568229 -0.0569036 0.3498316
000040 4e c7 8d be 13 21 b2 be 05 b8 c4 bd 64 f4 84 be
       -0.2769112 -0.3479086 -0.096054114 -0.25967705
000050 d4 e3 c2 be 37 24 30 3d bf 6d e2 bb 6a 87 74 be
       -0.38064444 0.043003287 -0.0069100554 -0.23879781
000060 10 da 97 be ef 13 98 3e dc 61 11 3e e2 1e fa be
       -0.29658556 0.29702708 0.14197487 -0.48851687
000070 76 5a 55 be a8 29 8b bb 98 4a a4 be d6 88 ba 3d
       -0.2083529 -0.004246909 -0.3208816 0.09108131
000080 79 cc b0 bc b4 6b 63 3c 64 5c 23 3e 67 e6 7c bd
       -0.021581875 0.013880659 0.15953213 -0.061743166
000090 8b 49 b7 be 4a ac dd 3d ac 95 88 3e e3 01 b3 be
       -0.35798296 0.10823877 0.2667669 -0.34962377
0000a0 6d 02 a5 be 28 6f 6c 3e e9 3a 04 be be 82 e1 3c
       -0.32228413 0.23089278 -0.12913097 0.027528163
0000b0 59 53 96 be f2 1f f2 3d 4c 17 02 be 9d 30 b8 be
       -0.29360464 0.11822499 -0.127042 -0.3597459
0000c0 d1 d4 6c be 21 97 98 be 43 78 fa be 08 b3 a4 3e
       -0.23128058 -0.29802802 -0.48919877 0.3216784
0000d0 dc 34 28 3c ab 85 ab ba 25 e4 29 be f4 3e 68 3e
       0.010266509 -0.0013086101 -0.16590936 0.22680265
0000e0 a8 9d 30 be 45 3e 01 bd b9 c7 a0 be 96 12 06 bf
       -0.17247641 -0.031553525 -0.31402376 -0.5237211
0000f0 27 c4 04 bf 5d e2 55 3e bf 64 e4 be 8b 9f 44 be
       -0.51861805 0.20887132 -0.44608113 -0.19201486
000100 91 64 60 be 07 b3 18 3f 9e 04 3c bf f5 97 b4 be
       -0.21913363 0.59648174 -0.73444545 -0.35272184
000110 15 42 2f 3e 4f 00 1a bf 1d 95 16 bf a5 d6 3a 3d
       0.17115052 -0.6015672 -0.5882128 0.045614857
000120 eb 73 11 bf 18 30 62 bc d5 04 31 bf 3b a2 20 3e
       -0.568175 -0.013805412 -0.69148 0.15686886
000130 0c d0 0a bf fc 1c 17 bf 4d 86 87 3e 61 a4 33 bf
       -0.54223704 -0.590286 0.2646965 -0.701727
000140 67 ba 23 be 03 b8 e9 3d 1c b5 28 be 41 2f ca bb
       -0.15989076 0.114120506 -0.16475338 -0.006170184
000150 33 7e 00 be 40 cc 52 be fc a0 46 3e 40 d2 5f be
       -0.12548141 -0.20585728 0.19397348 -0.21857548
000160 c4 51 10 3e d3 e3 0c 3e 76 69 b6 3d eb 5e 15 bd
       0.14093691 0.13758783 0.08906834 -0.036467474
000170 95 06 09 3e 57 e1 52 be 20 b3 91 bd b4 82 98 3e
       0.13381417 -0.20593773 -0.071142435 0.2978722
000180 1b 2a 7d be 20 2a 8d be 15 cb ba bd 55 bf cc 3c
       -0.24723093 -0.275712 -0.09120766 0.024993578
000190 d0 c4 e7 be 38 d0 bd 3e 2b 85 f2 3c 2e 3d d9 be
       -0.45267344 0.3707292 0.029604515 -0.4242949
0001a0 73 5e 9b be 3d 29 5c 3d 93 e4 28 3e 03 f0 ea be
       -0.30345497 0.053750265 0.16493444 -0.4588624
0001b0 e1 21 81 3e bb 19 ce be 3b f2 72 be f5 e0 08 3e
       0.2522116 -0.40254006 -0.23725216 0.13367064
0001c0 57 23 ce 3d 94 eb b5 bd 89 42 9e 3d 19 a2 70 3e
       0.10065334 -0.088828236 0.07727534 0.23499335
0001d0 a4 d5 80 be 77 32 03 3e fe cd 8f 3e a7 18 7c bd
       -0.25162995 0.1281222 0.28086847 -0.061546948
0001e0 01 82 4e be 53 ea 11 3c ee d1 50 3e 48 ab 29 3e
       -0.2016678 0.008905965 0.20392582 0.16569245
0001f0 cd 84 61 bd d0 dc 7d 3e 5f 43 c1 3d 07 0a a9 bc
       -0.05505829 0.24791265 0.09436678 -0.020634664
000200 78 43 aa 3e 16 03 db bd 68 34 6f 3e 04 3b 6c 3e
       0.332546 -0.10693948 0.23359835 0.23069388
000210 c3 43 33 3e 58 f1 8f 3e 20 3a 66 3c 17 3e 6c 3e
       0.17506318 0.28113818 0.014051944 0.2307056
000220 66 3e b9 bd 69 bc 54 3e e1 4c 28 3e 7c 9a 37 3d
       -0.09045105 0.20774998 0.16435577 0.044825062
000230 4a d5 62 3e 0c 92 80 3e 83 c2 c3 bd 75 3d 15 bd
       0.22151676 0.25111425 -0.095585845 -0.036435563
000240 75 d9 5c be 42 78 8e 3e 5d ad 37 be 82 c9 1e 3e
       -0.21567328 0.27826124 -0.17937227 0.15506557
000250 5c 0b 66 be 47 ef 9b 3e f4 e2 55 be 22 42 3f 3d
       -0.22465271 0.30455992 -0.20887357 0.04669393
000260 ce ce 94 3e 47 67 97 3d 6d a4 82 3e fb ce 9e 3e
       0.2906403 0.073927455 0.25516072 0.3101729
000270 ed ed cd bc 6d b7 74 bd 4e 93 64 bc c5 e1 74 be
       -0.025137866 -0.05974524 -0.013951136 -0.23914249
000280 dc 26 23 3e d2 3e 71 3e 58 2d 1e 3d 33 83 1c be
       0.15932792 0.2355912 0.038617462 -0.15284424
000290 a7 a6 87 3e c4 f2 3e 3e db 47 1f be fe f3 78 bc
       0.26494333 0.18647295 -0.15554754 -0.015194891
0002a0 ad 12 47 be 63 bd 21 3d 61 b0 9d bd 21 10 45 3d
       -0.19440718 0.039487254 -0.07699657 0.048111085
0002b0 36 10 b3 3e 08 ea 8b bd 8f 49 51 bd 8e ce 5e 3e
       0.34973305 -0.06831747 -0.05109554 0.21758482
0002c0 58 b4 14 3c b5 7e 7a be 67 71 48 3e 92 c0 e0 be
       0.0090762 -0.24462397 0.1957451 -0.4389692
0002d0 71 19 c7 3d c8 e8 a3 be d2 48 1f 3e 54 17 82 3e
       0.097216494 -0.32013535 0.15555122 0.25408423
0002e0 ff 3c a5 3e f0 e0 d0 3d 49 3a 4c be b0 5a 9d 3e
       0.322731 0.101991534 -0.19944109 0.30733252
0002f0 78 5e ee 3d b9 fe a7 bd dc 06 79 3e b8 6f dd bd
       0.11639112 -0.08202881 0.24319023 -0.10812324
000300 75 2f e9 b7 50 a5 17 3e 01 28 df 3d 7c a4 dc bd
       -2.7797863e-05 0.14809155 0.10896302 -0.107735604
000310 e3 dc b6 bd 6c 1b 49 be ae cb 22 be 6e e8 ec 3d
       -0.089288495 -0.19639367 -0.1589801 0.1156777
000320 43 95 89 3e e2 be a4 be 17 07 36 bd 72 db 1f be
       0.2687169 -0.32176882 -0.044440355 -0.15611055
000330 53 c5 a5 3e ce f7 57 bc 18 0e 94 3d c4 8a 92 3e
       0.3237711 -0.01318164 0.07229251 0.28621495
000340 bf 09 85 bc 0a 91 f6 3e 55 8d 67 3d 84 3f b8 3d
       -0.016239999 0.4815753 0.05653127 0.0899649
000350 31 cb 53 be d3 77 31 be 57 1b f1 3d af 8a 95 be
       -0.2068298 -0.17330866 0.11772793 -0.2920737
000360 e0 1f 7f bc 85 05 d8 3e 60 61 bb 3c d4 9f 2f bc
       -0.015571564 0.4219171 0.02287358 -0.010719258
000370 e1 79 aa be e4 ba 81 3e c4 53 b6 3d c6 fb 13 bb
       -0.3329611 0.253379 0.08902696 -0.0022580489
000380 2b c9 a1 be 2f 4d 79 3d 99 b7 69 be 44 b5 b2 be
       -0.3159879 0.060864624 -0.22823943 -0.3490392
000390 6d 03 9e bd 10 59 b6 3d 9f 78 b0 3e 64 3e bc be
       -0.07715497 0.08903706 0.34467027 -0.3676635
0003a0 ec 7c db 3d 56 59 78 3e 42 ba 76 3e 6b b9 50 3e
       0.10717186 0.24252829 0.24094489 0.20383231
0003b0 dd dd 10 3e 33 8b 99 3e 55 21 8a be 9a 38 8c 3e
       0.14147134 0.29989013 -0.26978555 0.27386934
0003c0 3a 0c 94 bd 18 2d 6a 3e fb 5f 1b 3e 09 1b ab 3e
       -0.072288945 0.22868764 0.15173332 0.33419064
0003d0 15 f3 c1 3e d7 30 df bd 7d 14 8f 3e ac bd 2a be
       0.3788077 -0.10897987 0.2794532 -0.16673917
0003e0 18 4e 6a be 18 62 db 3e 51 97 fa bd 15 1d f7 3e
       -0.22881353 0.42848277 -0.122358926 0.48264375
0003f0 cd 01 e2 be cb aa 68 bc aa 86 f7 be 13 f0 1a be
       -0.44142 -0.0142008765 -0.48344928 -0.15130644

lstm.weight_hh_l2 f4 [40, 10]
000000 0a 5b ac be b1 a5 c9 be c1 d7 20 be bf 02 78 be
       -0.33663207 -0.39384225 -0.15707304 -0.24219798
000010 c5 44 07 bf 51 9e 56 be c7 76 c1 3d a4 2a ff 3d
       -0.5283931 -0.2095883 0.09446483 0.12459305
000020 69 26 44 3d 6b 74 57 3d 8f cf 19 bf ad a8 f7 3d
       0.047888193 0.05260126 -0.60082334 0.12092719
000030 43 e2 9d 3e bf 64 e3 3d f0 08 de 3d db f3 32 be
       0.30836686 0.111032 0.108415484 -0.17475836
000040 c0 6d 5c be a8 6f 82 be 25 d6 19 3e 2b 82 4e 3e
       -0.21526241 -0.25475812 0.15023096 0.20166843
000050 1e 64 de bc 76 13 8d 3e e4 ae de 3c a4 e7 be 3d
       -0.027147349 0.2755391 0.027183004 0.09321526
000060 c1 31 34 bd e2 0e 80 3e 58 dc b9 3d 38 f1 3d be
       -0.04399276 0.25011355 0.0907523 -0.18549049
000070 2b a8 38 3d 5f d2 7b be 76 9d 0a 3e 72 8d 92 be
       0.045082252 -0.24591969 0.13536629 -0.2862354
000080 f3 9d ba bd cb d5 1a be f6 c7 45 be 68 6a 35 be
       -0.09112158 -0.15120618 -0.1931456 -0.17716372
000090 f8 69 9a be ba 60 12 3e d4 dd 71 bd 22 cd 03 be
       -0.30158973 0.14294711 -0.059049442 -0.1287122
0000a0 93 1f c3 be 61 a5 21 3e 0c e3 7a be 0b b0 49 3d
       -0.38110027 0.15785743 -0.24500674 0.049240153
0000b0 90 e2 00 be d0 6d ed 3d d3 a4 59 be 35 f4 ac bd
       -0.12586427 0.11593211 -0.21254282 -0.08445016
0000c0 e4 c1 60 bd 62 d4 ab 3e 16 c5 52 3e 33 c9 4b be
       -0.05487241 0.33560473 0.20582995 -0.1990097
0000d0 5c e4 b4 be 58 91 58 be 8b b4 9d 3e ac a7 f2 bd
       -0.35330474 -0.21149194 0.30801806 -0.11848387
0000e0 2e 37 d5 bd cb 1e f7 3d a4 14 46 bd 4e 15 02 3e
       -0.10410915 0.1206642 -0.04835953 0.1270344
0000f0 a9 27 c5 be 6c f7 ba be a0 c1 a4 3e 07 82 e8 be
       -0.3850682 -0.36516893 0.32178974 -0.45411703
000100 25 de fd be d7 fe df 3e 53 3b ed 3e b5 f6 71 be
       -0.49583545 0.43749115 0.46334323 -0.23629268
000110 d8 63 a5 3e a0 2c 00 3f b7 ac 5c be 0f b3 1f be
       0.32302737 0.5006809 -0.2155026 -0.15595649
000120 ab 47 44 bd 98 c9 90 be 6e 77 d3 be 6f a9 22 be
       -0.04791991 -0.28278804 -0.41302055 -0.15884946
000130 ef 63 1c 3d ff 98 05 3e 7d a5 26 3e da 48 02 be
       0.03818124 0.13046645 0.16274066 -0.12723103
000140 60 5b 1a bd 8f dc 89 be 7b 53 0e 3d b8 68 11 3e
       -0.0376848 -0.26926085 0.034747582 0.14200103
000150 24 cd 90 bd 74 a2 78 bd e1 ca 38 be fe a7 c6 3d
       -0.070703775 -0.060701802 -0.18046142 0.09700011
000160 b7 2c 62 3e 0e ae e4 3d aa 00 da be 50 0a c3 3d
       0.2208737 0.11166011 -0.42578632 0.09523451
000170 f4 0f 2f 3e 20 7c 05 3e 30 b3 bd be 6b 2c 17 bd
       0.1709593 0.13035631 -0.37050772 -0.036907595
000180 8b ce e4 3e ef 7a a0 bd 12 82 a4 3d ae 5c f9 3e
       0.4468883 -0.07835948 0.080326214 0.4870352
000190 c2 b9 0b bf ba ab 5f 3d 00 41 b9 be 25 6c b1 3e
       -0.5458032 0.05460713 -0.36182404 0.3465282
0001a0 f7 19 b2 be cc 4f f6 bd b9 35 43 bc 07 ab cc 3e
       -0.34785435 -0.12026939 -0.011914664 0.39974234
0001b0 e4 7c d8 3e 17 97 12 3e 63 83 ba be fa c1 24 be
       0.42282784 0.14315449 -0.36428365 -0.16089621
0001c0 d3 fc 2a be ea 8f ab 3d a3 3b 3d be e3 1b 0b 3e
       -0.16698007 0.08377059 -0.18479781 0.13584857
0001d0 d1 bf 30 be 54 41 b3 bd b0 a8 33 be 55 68 57 3d
       -0.17260672 -0.08752695 -0.17544818 0.052589733
0001e0 f1 ee 58 3c 91 39 bd bc 57 7d a5 bb 55 e8 2e 3e
       0.013240562 -0.023098739 -0.005050342 0.17080815
0001f0 33 f3 90 be 9a d6 11 be 4e 7b 20 bc 80 15 19 3d
       -0.28310546 -0.1424202 -0.009795023 0.03737402
000200 97 b5 e1 bd df 5a 6f be 03 63 b4 3e e5 cf 7b bd
       -0.11020964 -0.23374508 0.3523179 -0.06147756
000210 7e dd 63 3e bc d1 75 be ac 68 bc bd b8 bd 84 bd
       0.22252461 -0.24005789 -0.09199652 -0.064814985
000220 68 5f d3 bd cf 8b e5 bd b2 5a 05 3e e0 c3 6b be
       -0.10320932 -0.11208307 0.13022879 -0.23023939
000230 e6 e2 c2 3e ec 83 35 3e 61 8d a5 3d b5 dc 03 be
       0.38063735 0.17726105 0.080836065 -0.12877162
000240 9c 44 6c be 0e 30 50 be b4 25 ee be 76 64 06 be
       -0.23073047 -0.20330831 -0.4651314 -0.1312426
000250 c2 08 8d bc fb 9b 53 3d 0d df 94 bd ad 75 8f 3e
       -0.01721609 0.051662426 -0.07269106 0.28019467
000260 fc bb c4 bd d6 fd be bd 33 f7 56 be 3a 66 08 3e
       -0.09606168 -0.09325759 -0.20992737 0.13320246
000270 71 2a 32 be c8 e7 9e bc 03 a8 9c be a6 f4 d1 3d
       -0.17399003 -0.019397631 -0.30596933 0.10251741
000280 bb fe 8a be c3 b5 70 3d 8a fe e9 be 88 dd 97 3e
       -0.2714747 0.05876709 -0.4570201 0.29661202
000290 6a 48 da 3d 65 88 56 3d 67 17 c0 bd d9 d2 0a bd
       0.10658343 0.05237617 -0.09379464 -0.033892486
0002a0 d2 46 5a 3e 65 7d 11 3f de c9 23 3c a5 86 ab 3d
       0.21316078 0.5683196 0.009996859 0.08375291
0002b0 d0 16 d2 3b 8c e1 70 3e 84 07 1d 3e 60 3f 75 bd
       0.006411411 0.2352354 0.15334898 -0.059874892
0002c0 19 97 dd be 3f 1e ed 3d b3 d6 48 bd 43 ca 87 bd
       -0.4327934 0.115780346 -0.049032878 -0.06630375
0002d0 c5 5e 40 3d c9 87 82 3e 50 e8 48 3e 88 0c bd bd
       0.04696538 0.2549422 0.1961987 -0.09230906
0002e0 6c 9f 6b 3e 15 53 69 3e 15 77 d1 bd 54 a0 ad 3d
       0.23010033 0.227856 -0.10227791 0.08477846
0002f0 c9 7e 51 3e 49 c0 86 3e 98 f2 ad bd a5 9c c3 3d
       0.20458521 0.26318577 -0.08493537 0.09551362
000300 c9 73 b0 bd 1c 28 3b 3e 1e 13 46 be ea e9 8c be
       -0.08615834 0.1827702 -0.1934323 -0.27522212
000310 d2 c5 2f be b7 1e 38 3e 91 39 a9 3e b4 6d 04 bd
       -0.17165306 0.17980467 0.33051732 -0.032331184
000320 96 92 ac be 05 03 49 be 69 cf a2 3e 30 f6 0b bd
       -0.33705586 -0.19630058 0.31798866 -0.03417033
000330 59 72 3d 3d 16 57 62 3e cf 1f f2 3e cf 53 b5 be
       0.04625163 0.22103533 0.47289893 -0.35415503
000340 37 5a 9f 3e 42 05 b2 bd fc e0 31 be 31 55 72 3d
       0.31123516 -0.08692409 -0.17370981 0.059163276
000350 a0 74 b3 3d 5d 34 17 bd fb 1f 2d 3b f4 b5 94 3e
       0.08762479 -0.036915172 0.0026416767 0.2904507
000360 68 64 ba 3e 18 2a 8b be 41 06 a9 3e c5 25 0b be
       0.3640473 -0.27180552 0.33012584 -0.13588627
000370 14 ff 2f bd 85 0c 8a be 60 28 72 3d 9e c6 d0 bd
       -0.04296787 -0.26962677 0.059120536 -0.10194133
000380 35 e1 2f 3e 88 ef 48 3e 3f 5e cd be 3c ab a7 bd
       0.17175753 0.19622624 -0.40110967 -0.08186957
000390 0e 31 32 be 65 b1 18 3c 2e 73 2f be ef db b5 be
       -0.17401525 0.009319638 -0.17133781 -0.3551936
0003a0 ef ad 5e 3e 12 25 20 be a3 62 3f 3e 12 ce b5 be
       0.21746038 -0.15639141 0.1868997 -0.35508782
0003b0 25 02 a2 3e 46 ab 78 be da 67 a6 3e 90 71 f0 bd
       0.3164226 -0.24284086 0.32501107 -0.1174041
0003c0 3b 32 9e bd 0b db 8f 3e e8 51 84 3e 95 55 2b 3e
       -0.077244245 0.28096804 0.2584374 0.16731866
0003d0 f0 21 a5 be 03 74 6c 3d a8 65 96 3e 32 46 0c 3e
       -0.32252455 0.057727825 0.29374433 0.13698652
0003e0 01 eb 25 3e 6e e7 ec bd fb 6a e9 bd 89 34 37 3e
       0.16202928 -0.11567579 -0.11397358 0.17891134
0003f0 f9 ce 5e 3e 81 6c 88 be f9 86 50 be 0e 4c 81 3e
       0.21758641 -0.26645282 -0.20363988 0.25253338

lstm.bias_ih_l2 f4 [40]
000000 9c 2a db 3e 23 0f 4e 3c 83 e7 e6 bd a9 df 8d 3e
       0.42805946 0.012576851 -0.11274626 0.27709702
000010 4f 9b f8 bd 8f 8b b5 3e d8 32 30 3f a4 64 6f 3e
       -0.12138998 0.35458037 0.6882758 0.23378235
000020 ee 37 0f be 80 f2 31 3d 81 ea 03 bd 14 b0 10 3e
       -0.13986179 0.043444157 -0.032206062 0.14129668
000030 ae c5 20 3e 4c 17 54 3e 86 13 c3 3d 50 9d 11 3d
       0.15700409 0.20712012 0.09525208 0.035550416
000040 6c 78 ef be aa 94 10 3c 4f 89 e1 bc 12 cd 74 3d
       -0.46771562 0.008824507 -0.027531294 0.059765883
000050 3f e3 86 3e f4 d5 13 be f7 ea 89 3e 41 6c 9b be
       0.2634525 -0.14437085 0.26937076 -0.3035603
000060 59 22 6b 3e 46 84 71 3e 06 e7 85 bd 9b 2f 67 be
       0.22962321 0.23585615 -0.06538205 -0.22576754
000070 66 c6 20 be 3e d5 ba bc 80 22 fb 3e 4e 15 59 3d
       -0.15700683 -0.02280676 0.4904976 0.052998833
000080 5c d0 3d 3e 4b 2d b1 3e a3 75 7a be 24 72 a1 3e
       0.18536514 0.34604868 -0.24458937 0.31532395
000090 0c 23 d9 3e e6 ff 5f 3e ab 4a 99 3e e1 d3 7c 3d
       0.4240955 0.21874961 0.2993978 0.0617255

lstm.bias_hh_l2 f4 [40]
000000 e3 c2 92 3e 37 ac f2 3d f4 2b 2e be 20 05 84 3e
       0.28664312 0.118492536 -0.17008954 0.2578516
000010 68 21 2a 3c ba 68 99 3e 18 97 88 3e 5a 8e d3 3e
       0.010383941 0.29962713 0.26677775 0.41319543
000020 22 47 0e be 6b 55 97 3e 12 77 5e be 18 55 50 3e
       -0.13894323 0.29557356 -0.21725109 0.2034496
000030 f1 03 99 3d da 48 1c 3e d1 61 b6 3c 2a 5b 44 be
       0.07471455 0.15262166 0.02226344 -0.19175401
000040 c3 eb f9 3c 9d 3e 31 3e f4 43 72 3e d8 b6 8d 3d
       0.030507928 0.17309041 0.23658735 0.0691964
000050 cf 43 65 be 70 c5 e8 bd 23 d7 80 3e 93 43 d8 bd
       -0.22389148 -0.11365783 0.25164136 -0.10559764
000060 1b 5c 9b be 16 ee bd 3e 79 bf 7c 3e 7c 79 05 be
       -0.30343708 0.37095708 0.24682416 -0.13034624
000070 d7 0d 6a 3d 12 a0 9a bd b7 1a 86 3e 2d c5 68 3d
       0.057142105 -0.07550062 0.26192257 0.056828666
000080 fd 89 3b be 5b 09 6b 3d c2 77 e0 3d f7 52 84 3e
       -0.18314357 0.05738197 0.10960342 0.25844547
000090 83 95 1e 3e 7a 72 99 3e 3b c6 00 3e d5 c6 5f 3e
       0.15486722 0.2997015 0.12575619 0.21853192

fc.weight f4 [1, 10]
000000 01 3d 10 bf a3 68 ad bd 2a 42 a1 3e 9e 16 85 be
       -0.56343085 -0.084672235 0.31495792 -0.25993818
000010 92 f9 c0 bd 7e bf 79 3d ed 02 dd 3d 66 78 06 be
       -0.09422602 0.060973637 0.10791574 -0.13131866
000020 aa a8 a3 3e 42 42 2f 3e
       0.31964618 0.17115119
