ec_l2o_log/mtl_0.00/lstm_unroll.pth (torch, 13115 bytes, 13 tensors)

lstm.weight_ih_l0 f4 [40, 2]
0	0x3f591124	0.8479178
1	0x3da82fa0	0.08212209
2	0x3f390fff	0.72290033
3	0x3f04db36	0.5189699
4	0x3e7ba27a	0.24573699
5	0x3ecd90c2	0.40149504
6	0x3e4b677b	0.19863693
7	0x3e88783a	0.26654226
8	0x3e5cf22c	0.21576756
9	0x3e64c0bd	0.22339149
10	0x3eac6a15	0.33674684
11	0x3d5af0c7	0.05345228
12	0x3e074311	0.13209178
13	0x3ee62792	0.44952065
14	0x3effc58c	0.49955404
15	0xbbc8fa5a	-0.00613336
16	0x3f008334	0.502002
17	0x3dc12fe9	0.09432966
18	0x3f1c20f5	0.6098779
19	0x3ea9e343	0.331812
20	0x3ef8d00c	0.48596227
21	0x3ed3fb73	0.41402778
22	0x3f2a1b31	0.6644774
23	0x3e916950	0.2840066
24	0x3d42698d	0.047463942
25	0x3e4b4cda	0.19853535
26	0xbe4debcd	-0.20109482
27	0x3e74dfcb	0.23913495
28	0x3e11c8b7	0.14236723
29	0x3ed0b6e3	0.40764531
30	0x3cd0f63f	0.025508044
31	0xbd048fd1	-0.032363717
32	0x3e075c24	0.13218743
33	0x3edd3768	0.43206334
34	0x3dd53c22	0.1041186
35	0x3f06e3b6	0.5269121
36	0x3ecb7986	0.39741153
37	0xbe48425a	-0.19556561
38	0x3daa8892	0.0832683
39	0x3e8e80e1	0.27832702
40	0xbf3a528f	-0.72782224
41	0x3e233914	0.15939742
42	0xbf046175	-0.5171121
43	0x3e64ec01	0.22355653
44	0x3e009e1c	0.12560314
45	0x3d3d2f32	0.046187587
46	0x3dc2a225	0.09503583
47	0x3e045902	0.12924579
48	0x3e0cab3b	0.13737194
49	0x3e1e90ad	0.15484877
50	0xbe4ae573	-0.1981409
51	0xbde7257d	-0.11286447
52	0x3d16fb66	0.036860846
53	0x3e3c212c	0.18372029
54	0xbee78e90	-0.45225954
55	0xbedc1fc2	-0.4299298
56	0xbea30607	-0.31840536
57	0xbe9ac5b4	-0.3022896
58	0xbd3a77b3	-0.04552431
59	0x3e985593	0.29752788
60	0x3f452e3f	0.7702369
61	0x3ea21739	0.31658342
62	0x3f21f473	0.63263625
63	0x3eebaa06	0.46028155
64	0x3f16163a	0.58627665
65	0x3e725420	0.23664904
66	0xbf522290	-0.8208399
67	0x3e2e6ffa	0.17034903
68	0xbf47fa11	-0.78115946
69	0xbd053ea5	-0.032530446
70	0x3f0e3926	0.5555595
71	0x3e9f28dd	0.31085864
72	0x3e93d412	0.28872734
73	0x3efc03e8	0.4922173
74	0x3ee2b1bf	0.44276235
75	0x3d98a62c	0.0745357
76	0x3ed5ea6e	0.41780418
77	0x3d869494	0.06571308
78	0x3f297dc8	0.6620755
79	0x3ea154e7	0.31510088

lstm.weight_hh_l0 f4 [40, 10]
0	0xbebf3442	-0.37344557
1	0xbe408139	-0.18799295
2	0x3f3fff1e	0.7499865
3	0xbf30e6a2	-0.6910192
4	0xbdc10244	-0.0942426
5	0xbf1655b6	-0.58724535
6	0x3e02ef72	0.12786654
7	0xbec9da83	-0.39424524
8	0xbf0d8f32	-0.55296624
9	0x3eccb6e2	0.3998328
10	0x3d3582ab	0.044314068
11	0xbd2ff895	-0.042961676
12	0x3ec8cae0	0.3921728
13	0xbed9807a	-0.42480832
14	0xbea38cd8	-0.31943393
15	0xbe9682b2	-0.29396588
16	0xbdc6a4ee	-0.096994266
17	0xbef873d5	-0.48525873
18	0xbe193558	-0.14961755
19	0x3d81f842	0.063461795
20	0x3b984456	0.004646818
21	0xbe56f84c	-0.20993155
22	0x3f11b89c	0.56922317
23	0xbec38e76	-0.38194627
24	0xbdd68c0e	-0.10475932
25	0x3c0069a3	0.007837686
26	0x3ece779f	0.4032564
27	0xbc970858	-0.018436596
28	0xbe29baa3	-0.16575103
29	0x3d7a7180	0.0611434
30	0xbdb5f24f	-0.08884107
31	0xbeb69ad1	-0.3566499
32	0xbd03b2ec	-0.032153055
33	0xbeaf947a	-0.34292966
34	0xbdf0be47	-0.117550425
35	0x3e382756	0.17983755
36	0x3d5e47c5	0.054267664
37	0x3e3db07e	0.18524358
38	0xbe4635a8	-0.19356406
39	0x3d913594	0.07090297
40	0x3d5ea35a	0.054355003
41	0xbed34af1	-0.41268113
42	0x3d4aa518	0.049473852
43	0x3dc087ae	0.09400879
44	0x3de6b25b	0.11264487
45	0xbe40f827	-0.18844663
46	0xbe007bdb	-0.12547247
47	0x3e4c0883	0.19925122
48	0xbddb739a	-0.107154086
49	0x3e8c0da4	0.27354157
50	0x3d06f37d	0.032947052
51	0xbc064438	-0.008194976
52	0x3d1cffe5	0.038329978
53	0x3cfdf3e8	0.031000093
54	0xbd3a1c93	-0.045437407
55	0xbdcaa87f	-0.09895419
56	0xbd0fee30	-0.035139263
57	0xbd3678dd	-0.044548858
58	0xbd7e7dd3	-0.062131714
59	0xbe4c5a54	-0.19956332
60	0xbc4bac5e	-0.012431232
61	0xbeace2b8	-0.33766723
62	0x3e21482c	0.15750188
63	0x3dd8a4bc	0.105782956
64	0xbe147c9f	-0.14500664
65	0xbed3bdbc	-0.41355693
66	0x3d91b068	0.07113725
67	0x3e1c78da	0.15280476
68	0xbea6951d	-0.3253564
69	0x3e093b3e	0.13401505
70	0xbe336d32	-0.17522123
71	0x3dccaac4	0.099935085
72	0x3dc825c9	0.09772832
73	0xbcaafd1f	-0.02087265
74	0x3e55f1d8	0.20893037
75	0x3d9599ac	0.07304701
76	0xbdb4c544	-0.08826688
77	0xbe76ed5a	-0.2411398
78	0x3dfa6ff2	0.12228383
79	0x3ec70adb	0.3887547
80	0x3d9f0111	0.07763875
81	0x3de79e79	0.11309523
82	0x3e3a7cc3	0.18211655
83	0xbe3e80c5	-0.18603809
84	0x3e1e5e4d	0.1546566
85	0x3cf9e04f	0.030502466
86	0x3e0f4924	0.13992745
87	0xbd13a065	-0.036041636
88	0x3c48321c	0.012218978
89	0xbe4eef37	-0.2020844
90	0x3ec0927c	0.3761176
91	0x3e475120	0.1946454
92	0x3e9dc98c	0.3081783
93	0x3dd81d6c	0.10552487
94	0x3c743baa	0.014906803
95	0xbdfef595	-0.12449185
96	0x3cf5450c	0.02994015
97	0x3e454c37	0.19267355
98	0xbbf897a5	-0.007586437
99	0x3cedf012	0.029045139
100	0xbeaa3ee3	-0.33251104
101	0xbe51857b	-0.20461075
102	0xbe36ee90	-0.17864442
103	0x3e9a3344	0.30117238
104	0xbdaafeff	-0.08349418
105	0xbe450ff4	-0.19244367
106	0xbe024ea8	-0.12725317
107	0xbc0d621d	-0.008629349
108	0x3e931b2a	0.28731662
109	0xbe805b72	-0.25069767
110	0xbe3ad735	-0.18246157
111	0x3e8b06b1	0.27153543
112	0xbe8e1b1d	-0.2775506
113	0xbd631929	-0.055443916
114	0x3e73237c	0.23744005
115	0x3e678de7	0.22612725
116	0xbdd0673c	-0.101759404
117	0x3e346856	0.17617926
118	0x3de1c07f	0.11023044
119	0xbe9390e9	-0.28821495
120	0x3e7bdc41	0.24595739
121	0x3d8a0d40	0.067408085
122	0x3f100e90	0.5627222
123	0xbe927e08	-0.2861178
124	0xbf03bfe3	-0.5146467
125	0xbf062ccb	-0.524121
126	0xbbc16ebf	-0.0059030945
127	0x3e78f9e6	0.24314079
128	0xbe11d081	-0.14239694
129	0x3d53d8d1	0.051720444
130	0xbe94322d	-0.2894453
131	0xbce76053	-0.028244173
132	0x3e9c87e0	0.30572414
133	0x3e19417d	0.14966388
134	0xbc84eb51	-0.016225489
135	0xbec09fb0	-0.37621832
136	0x3ec14880	0.37750626
137	0x3e418859	0.18899669
138	0xbe89291a	-0.2678917
139	0x3d9fa99a	0.07796021
140	0xbefd822d	-0.4951338
141	0xbebbb6d8	-0.36662936
142	0x3e417c7b	0.18895142
143	0x3e0c4569	0.13698353
144	0x3db36c97	0.08760946
145	0xbe25eccf	-0.16203617
146	0xbc522ac8	-0.012827583
147	0x3d4f81d8	0.050660938
148	0x3e0c5159	0.13702907
149	0x3e366d82	0.17815211
150	0xbce5d0a1	-0.028053584
151	0x3e41172c	0.18856496
152	0x3e11da34	0.14243394
153	0xbd20d0f2	-0.039261766
154	0xbe7d592b	-0.24741046
155	0x3cd7dbc8	0.026349917
156	0xbc7f59ba	-0.015585357
157	0xbed5019f	-0.416028
158	0x3e7362cc	0.23768157
159	0xbe273a99	-0.16330947
160	0xbe3f1619	-0.18660773
161	0xbdd9b07f	-0.10629367
162	0x3e5cba32	0.21555403
163	0xbe22b3c8	-0.15888894
164	0xbe854d18	-0.2603538
165	0xbec90f83	-0.39269647
166	0x3e2c3874	0.1681841
167	0x3e06b32f	0.1315429
168	0xbe68277e	-0.22671315
169	0xbd87b62c	-0.066265434
170	0xbdfef986	-0.124499366
171	0x3e2bab12	0.16764477
172	0x3dbb9df4	0.091609865
173	0xbeb8cbcc	-0.36092985
174	0xbe8553b7	-0.26040432
175	0x3df4e86d	0.11958394
176	0x3eb161ff	0.34645078
177	0xbdf28076	-0.11840908
178	0xbdfc9918	-0.12333888
179	0xbdb32c4c	-0.08748683
180	0xbe7eb940	-0.24875355
181	0x3e3d8394	0.18507224
182	0x3e3b3479	0.18281735
183	0xbd144590	-0.036199152
184	0x3e399a63	0.181253
185	0xbdd1f463	-0.10251691
186	0x3e9fa13c	0.311777
187	0xbe6df50d	-0.2323801
188	0x3e6e3db5	0.23265727
189	0x3da298ea	0.07939322
190	0xbb94f557	-0.0045458484
191	0x3e29c82f	0.1658027
192	0x3eca19db	0.3947285
193	0x3d034cb8	0.032055587
194	0xbe58d753	-0.2117589
195	0x3d28a962	0.04117716
196	0xbde22c1b	-0.11043569
197	0xbe396875	-0.18106253
198	0x3e012318	0.12611043
199	0xbd8b8865	-0.068131246
200	0xbea7ca03	-0.3277131
201	0x3e165565	0.14681013
202	0xbe044158	-0.12915552
203	0x3e914654	0.2837397
204	0xbe8433fb	-0.25820908
205	0x3c2b1b12	0.010443466
206	0x3ea139fb	0.31489548
207	0xbe43cc28	-0.19120848
208	0xbe0d5865	-0.13803251
209	0xbd9beedc	-0.07613918
210	0xbe9677a1	-0.29388145
211	0xbd18e35e	-0.03732621
212	0x3e2e1f4a	0.17004123
213	0xbe1eb254	-0.15497714
214	0xbe7a0f22	-0.24419835
215	0xbda8b64a	-0.08237894
216	0xbe816527	-0.25272486
217	0xbdbca663	-0.09211423
218	0xbc869e7d	-0.016432995
219	0xbde3074f	-0.110853784
220	0x3d50a3ba	0.05093739
221	0xbcda405d	-0.026642019
222	0xbc7f7c25	-0.015593563
223	0xbd6d4738	-0.057929248
224	0xbddc3370	-0.107519984
225	0xba898c19	-0.0010494023
226	0x3ec565bf	0.3855419
227	0xbe8e0ecf	-0.27745673
228	0xbe04a7b4	-0.12954599
229	0x3ecdd407	0.40200827
230	0x3ee1e599	0.44120482
231	0x3dfa2f6f	0.122160785
232	0xbd96526f	-0.07339942
233	0x3dc8a4cf	0.0979706
234	0x3ea83d3b	0.32859215
235	0x3cda53c1	0.026651265
236	0x3e80187e	0.25018686
237	0x3d99dafb	0.0751247
238	0x3e6c79a4	0.23093277
239	0x3e845f6f	0.2585406
240	0x3ec378e7	0.3817818
241	0x3ea0bbb3	0.31393203
242	0x3e8aabd2	0.27084213
243	0x3d5a6e37	0.053327765
244	0x3d8955dd	0.0670583
245	0x3caa6765	0.020801255
246	0x3d4c1977	0.049828973
247	0xbda6df26	-0.08148031
248	0x3e09eb32	0.13468626
249	0xbe2b1404	-0.16706854
250	0xbdd940d9	-0.10608072
251	0xbe152cc4	-0.14567858
252	0xbec589f4	-0.38581812
253	0x3e6147f5	0.22000106
254	0xbd7ebf1f	-0.062193986
255	0x3d9193d5	0.07108275

lstm.bias_ih_l0 f4 [40]
0	0x3ade9948	0.0016982937
1	0x3ca773c8	0.020440951
2	0x3e7c4510	0.2463572
3	0xbc417119	-0.01180675
4	0xbb91ff37	-0.004455473
5	0xbdcc1027	-0.09964018
6	0x3dee436d	0.11633954
7	0xbd4c2283	-0.0498376
8	0x3dac3335	0.084082045
9	0xbdc2b169	-0.095064946
10	0xbe98da0e	-0.29853863
11	0x3c8515e0	0.016245782
12	0x3eb26b6e	0.34847587
13	0x3e80839b	0.25100407
14	0xbd6cc508	-0.05780509
15	0x3e5b48ad	0.21414442
16	0xbcbe169c	-0.02320414
17	0x3ecef26a	0.40419322
18	0x3c130510	0.008973375
19	0xbc9fd3c7	-0.019510163
20	0x3db3f45b	0.087868415
21	0xbd022a7c	-0.031778798
22	0x3ec0b0d4	0.3763491
23	0xbe8f93c6	-0.2804243
24	0xbeb33d9a	-0.35007936
25	0xbcef541e	-0.029214915
26	0x3e7a51a6	0.24445209
27	0xbd7e8411	-0.062137667
28	0xbe97547c	-0.29556644
29	0x3e0d0821	0.13772632
30	0x3f0ecb3c	0.5577886
31	0x3d99c56c	0.07508358
32	0x3ebd0883	0.36920556
33	0x3eb91350	0.36147547
34	0x3de7e46f	0.11322867
35	0x3e162b07	0.14664851
36	0xbd9309e0	-0.07179618
37	0xbd01ab86	-0.031657718
38	0x3dce5ef8	0.100767076
39	0x3dca0195	0.09863583

lstm.bias_hh_l0 f4 [40]
0	0x3e792257	0.24329506
1	0xbdf22576	-0.11823551
2	0x3da142d7	0.07874077
3	0x3e3229a5	0.17398699
4	0x3ad17ebe	0.0015983207
5	0x3ead496c	0.3384508
6	0x3e176aa8	0.1478678
7	0x3ef87548	0.48526978
8	0x3dd4bbd1	0.10387386
9	0x3e8e0501	0.27738193
10	0xbec06d28	-0.3758328
11	0x3cedc411	0.029024156
12	0x3effd15e	0.49964422
13	0x3e3d9779	0.18514813
14	0x3e52a0b3	0.20569114
15	0xbe29e767	-0.16592179
16	0xbe0c10d4	-0.13678294
17	0x3e3ea11c	0.18616146
18	0xbdbe403c	-0.092895955
19	0x3e8a8dc2	0.27061278
20	0xbe7f7a54	-0.24949008
21	0xbe96a1e2	-0.29420382
22	0xbd39d6a3	-0.04537071
23	0xbdd18c23	-0.10231807
24	0xbe8619d4	-0.2619158
25	0xbe2eaf7a	-0.17059126
26	0x3e8f3af6	0.2797467
27	0x3cd43d18	0.025908038
28	0xbe94e014	-0.29077208
29	0x3e6f5fbe	0.23376366
30	0x3e0fc0d3	0.140384
31	0xbe155908	-0.14584744
32	0xbe001c17	-0.12510715
33	0x3b928456	0.004471342
34	0x3ea0bfe4	0.313964
35	0x3ec79ee5	0.38988414
36	0x3ebf3414	0.3734442
37	0x3d01f453	0.031727146
38	0x3e8dfa1c	0.2772988
39	0x3d842dd1	0.06454051

lstm.weight_ih_l1 f4 [40, 10]
0	0xbe11e5bb	-0.14247791
1	0x3acefe1e	0.0015792286
2	0x3ef809ad	0.48444882
3	0xbeb81ad2	-0.35957962
4	0x3e63c7b5	0.22244151
5	0xbe74b9dc	-0.23899025
6	0x3e684868	0.22683871
7	0x3cd922f3	0.026505923
8	0xbec70717	-0.38872597
9	0xbdb9e24a	-0.09076364
10	0x3e00c6c2	0.1257582
11	0x3e8084bb	0.25101265
12	0xbe6a57c2	-0.2288504
13	0x3d6cc38a	0.057803668
14	0xbed1f2d1	-0.41005567
15	0x3b678002	0.0035324101
16	0x3e5c9cc0	0.2154417
17	0x3e43accb	0.19108884
18	0x3e48f49c	0.19624561
19	0xbcd99b50	-0.026563317
20	0x3a720d72	0.0009233571
21	0x3d29018f	0.041261252
22	0x3dea8599	0.11451263
23	0xbe7df847	-0.24801742
24	0x3d8b6a17	0.068073444
25	0xbe83ad77	-0.2571828
26	0x3e865594	0.26237166
27	0x3e0cfaec	0.13767594
28	0x3de0944f	0.109657876
29	0x3c0cc663	0.008592221
30	0xbf08abc8	-0.5338712
31	0xbedae3b7	-0.42751858
32	0x3effa513	0.4993063
33	0xbf643009	-0.89135796
34	0xbee043c1	-0.43801692
35	0xbf0aff85	-0.5429614
36	0x3ea51465	0.32242122
37	0xbf011cb2	-0.5043441
38	0xbf157015	-0.5837415
39	0x3f2b0d85	0.66817504
40	0xbefd9ef5	-0.49535337
41	0xbe8f6a43	-0.2801076
42	0x3ebce674	0.36894572
43	0x3e8f2933	0.2796112
44	0xbe60ab29	-0.21940292
45	0x3d4ace79	0.049513314
46	0x3e5f1969	0.21787037
47	0xbec042b0	-0.3755088
48	0xbe92b300	-0.2865219
49	0xbc457c93	-0.012053627
50	0xbe3b723d	-0.18305297
51	0xbea6cb06	-0.3257677
52	0x3f2cbff7	0.67480415
53	0xbee3e2d4	-0.44508994
54	0xbd84ee22	-0.06490733
55	0xbf1689cd	-0.5880402
56	0x3edfb456	0.43692273
57	0xbe2922a9	-0.16517128
58	0xbe43e90f	-0.19131874
59	0x3e3c190f	0.18368934
60	0xbf0c1e7f	-0.54734033
61	0xbdcbdec4	-0.099545985
62	0x3ebcdf04	0.36888897
63	0xbe97bdaf	-0.29636905
64	0xbe5d9ba0	-0.21641397
65	0x3debfc43	0.115227245
66	0xbd559ce0	-0.05215156
67	0xbec74c7f	-0.3892555
68	0xbee11042	-0.43957716
69	0xbe37d040	-0.17950535
70	0xbf0f66b6	-0.560161
71	0x3d04db13	0.032435488
72	0x3e0b94d5	0.13630994
73	0x3bc0099a	0.0058605196
74	0xbea14675	-0.31499067
75	0xbef58153	-0.4795023
76	0xbcd95b8a	-0.026532907
77	0xbe863af5	-0.26216856
78	0xbdba1b0a	-0.090871885
79	0xbd66beee	-0.05633443
80	0xbea10fb5	-0.31457296
81	0xbebbd695	-0.3668715
82	0x3ce62a69	0.028096395
83	0xbdd78ea3	-0.10525253
84	0xbd8489bb	-0.064715825
85	0x3df6d8e6	0.12053089
86	0x3edbb116	0.42908543
87	0x3bf852e8	0.0075782426
88	0xbe6f3ee3	-0.23363833
89	0x3ee8afe0	0.45446682
90	0xbf18ac5a	-0.5963799
91	0xbf52998a	-0.8226553
92	0x3e947f85	0.2900354
93	0xbc8fc78a	-0.017551202
94	0xbe371c63	-0.17881922
95	0xbf435ce4	-0.76313615
96	0x3f1a2376	0.6021036
97	0xbf30ebff	-0.691101
98	0xbeb681e6	-0.3564598
99	0x3f1dc8dc	0.6163461
100	0xbf1efec6	-0.62107503
101	0xbee4deb0	-0.44701147
102	0x3e996456	0.29959363
103	0xbe85876e	-0.26079887
104	0x3e3a7026	0.18206844
105	0x3b1fd22f	0.0024386754
106	0x3e8a62b7	0.27028438
107	0xbecdec61	-0.40219405
108	0xbd221a90	-0.039576113
109	0xbe328b00	-0.17435837
110	0xbc353cdd	-0.011061874
111	0xbe3ff15a	-0.18744412
112	0x3e6cad0d	0.23112889
113	0xbe3a8220	-0.18213701
114	0x3d47e8c2	0.04880596
115	0xbdac2b1d	-0.08406661
116	0xbe2f462b	-0.1711661
117	0x3e943e39	0.28953722
118	0x3d95f7e9	0.07322676
119	0xbe01d2fb	-0.12678139
120	0xbcd6e2f2	-0.026231263
121	0x3e2e7cc1	0.17039777
122	0x3eb43090	0.351933
123	0x3e603f23	0.21899085
124	0xbe77b845	-0.24191387
125	0x3da0a934	0.07844773
126	0xbd8c5ed0	-0.068540215
127	0xbeb9de74	-0.3630253
128	0x3d865f2e	0.06561123
129	0xbe42a674	-0.1900881
130	0xbe41a811	-0.18911768
131	0xbebcda87	-0.36885473
132	0xbe03142e	-0.12800667
133	0x3e73a5e9	0.23793758
134	0xbe36e70a	-0.17861572
135	0xbedb4264	-0.4282409
136	0x3ecef13e	0.40418428
137	0xbeb791e8	-0.35853505
138	0xbece47af	-0.40289065
139	0x3ea035cd	0.31291047
140	0xbe2e8ff5	-0.17047103
141	0xbeaeb07b	-0.3411902
142	0x3cbc33d5	0.022973934
143	0x3e3cc584	0.18434721
144	0xbe82086e	-0.25397056
145	0xbebfb4b2	-0.37442547
146	0x3e158acc	0.14603728
147	0xbe8115dc	-0.2521199
148	0xbe53e447	-0.2069255
149	0x3e94a39d	0.29031077
150	0xbd30dcc6	-0.043179296
151	0xbe753239	-0.2394494
152	0xbdf0e232	-0.11761893
153	0x3d8b4d9d	0.06801913
154	0x3e911702	0.28337866
155	0x3e8d6273	0.27614173
156	0x3e1b5fed	0.15173312
157	0xbeb3e1ff	-0.3513336
158	0x3bbfbcdb	0.0058513707
159	0x3e0f70b3	0.14007835
160	0xbcf1fee7	-0.029540492
161	0xbd9b806b	-0.07592853
162	0xbe0eb599	-0.13936462
163	0xbd5626f7	-0.052283254
164	0xbe1a778a	-0.15084663
165	0xbdff3c19	-0.124626346
166	0x3e8c6a80	0.27425003
167	0xbe3c326f	-0.18378614
168	0x3dd01b73	0.101614855
169	0xbdc538f8	-0.096300066
170	0xbdd3d9eb	-0.10344299
171	0xbcceca8d	-0.025243068
172	0xbc805ed9	-0.015670227
173	0x3d8b2868	0.06794816
174	0x3ebadbc4	0.36495793
175	0x3e82c2a7	0.25539133
176	0x3e1847b7	0.14871107
177	0xbb9a6cc8	-0.0047126748
178	0xbe9e2fa5	-0.30895725
179	0x3c9c99a7	0.019116236
180	0xbe8f6e13	-0.28013667
181	0xbe94f9d0	-0.29096842
182	0x3d3cd583	0.04610206
183	0x3d93c9b2	0.07216205
184	0x3d2668fd	0.04062747
185	0xbe85f300	-0.26161957
186	0x3d8b223a	0.067936376
187	0xbe17715e	-0.1478934
188	0x3e2289d3	0.15872888
189	0xbd06a900	-0.032876015
190	0xbef21f28	-0.47289395
191	0xbd951b6a	-0.072806194
192	0x3cadaf20	0.02120167
193	0x3f031f67	0.5121979
194	0x3f1c666e	0.61093795
195	0x3db3ae3c	0.08773467
196	0xbd801df6	-0.062557146
197	0xbeb14692	-0.34624153
198	0xbbda124f	-0.0066550146
199	0x3e976c6a	0.295749
200	0xbf0ecacd	-0.557782
201	0xbeacef34	-0.33776248
202	0x3e8315c5	0.25602546
203	0x3cc10030	0.02355966
204	0xbde1e9ae	-0.11030899
205	0xbedafad0	-0.4276948
206	0x3ea795b0	0.3273139
207	0xbe13b965	-0.14426191
208	0x3d271906	0.04079535
209	0x3eb31f75	0.34984937
210	0xb9a2e51c	-0.00031069748
211	0xbe07374f	-0.13204692
212	0xbc2514ad	-0.01007573
213	0xbe8266cf	-0.25469062
214	0xbe991c68	-0.29904485
215	0xbab7ddbe	-0.0014027876
216	0x3edc68e7	0.43048784
217	0xbe847921	-0.25873664
218	0x3e434ae8	0.19071543
219	0xbda4593b	-0.08024832
220	0x3e9cc460	0.30618572
221	0x3eaf74a8	0.3426869
222	0x3e1fe345	0.1561404
223	0x3b05777a	0.0020365403
224	0xbe342549	-0.17592348
225	0xbe039b46	-0.12852201
226	0xbe8d54d6	-0.27603787
227	0x3ebbb1f8	0.36659217
228	0xbd51e2b2	-0.051241584
229	0xbeb5685e	-0.35431188
230	0x3ec499e2	0.38398653
231	0x3c94ab9d	0.018148238
232	0xbe895129	-0.26819733
233	0x3f1c1956	0.6097616
234	0x3f4e8171	0.8066626
235	0x3ed695ce	0.41911167
236	0xbf266207	-0.6499333
237	0x3ef1afdd	0.47204486
238	0x3f12ed62	0.5739347
239	0xbe264ddd	-0.1624064
240	0x3c34352e	0.010999007
241	0x3e79f30a	0.24409118
242	0xbe36cbb3	-0.17851143
243	0x3dfa46ec	0.122205585
244	0x3d590ca7	0.05299058
245	0x3eb6fdd0	0.3574052
246	0xbe78b77e	-0.24288747
247	0xbdb1eba4	-0.08687523
248	0x3d8f1152	0.069857255
249	0xbe72a1a2	-0.2369447
250	0xbe810a7a	-0.25203305
251	0xbf0327b1	-0.5123244
252	0x3dd6b75a	0.1048419
253	0x3ec60504	0.38675702
254	0x3edd2d00	0.43198395
255	0xbed65ea2	-0.41869074

lstm.weight_hh_l1 f4 [40, 10]
0	0x3e805a1e	0.25068754
1	0x3e6fd40e	0.23420736
2	0x3dae5de2	0.085140005
3	0x3df33388	0.11875063
4	0x3e66bbf1	0.22532631
5	0x3e464ce6	0.19365272
6	0xbe25addd	-0.16179605
7	0xbe3b0328	-0.18262923
8	0xbd43eddc	-0.047834262
9	0x3b8ef90a	0.004363184
10	0xbe44d8f5	-0.19223388
11	0x3e04eb4a	0.1298038
12	0xbe290625	-0.1650625
13	0xbe956ebe	-0.29186052
14	0xbe9038f9	-0.28168467
15	0x3e3c09a5	0.18363054
16	0xbeb64559	-0.35599783
17	0x3d8b571a	0.06803723
18	0x3e634e80	0.22197914
19	0x3ee97b85	0.4560205
20	0xbcbb6d06	-0.022879135
21	0x3cc9c784	0.02463127
22	0xbea7bb85	-0.32760254
23	0x3e776da0	0.24162912
24	0xbc46a59d	-0.012124446
25	0xbd1f56a4	-0.038900986
26	0xbcf0b7f8	-0.029384598
27	0x3d9d00ba	0.07666154
28	0xbdfcf13f	-0.123507015
29	0xbe49bceb	-0.19700973
30	0x3e70b3d9	0.23506106
31	0x3d6cea03	0.05784036
32	0x39c7da0c	0.00038118695
33	0xbf17eb02	-0.5934297
34	0xbf03daa3	-0.5150549
35	0x3eee383a	0.46527272
36	0xbefe83be	-0.49709886
37	0x3e718f25	0.23589762
38	0xbd9b10e9	-0.07571585
39	0x3d77406b	0.060364168
40	0xbe5f1047	-0.21783553
41	0xbe885c57	-0.2663295
42	0x3e421b4a	0.18955722
43	0x3e254b3e	0.16141984
44	0xbe8896e9	-0.26677635
45	0xbe29647a	-0.16542235
46	0xbdb12cbc	-0.086511105
47	0xbe60379c	-0.21896213
48	0xbd3bd2a8	-0.045855194
49	0xbe1078dd	-0.14108606
50	0xbd075634	-0.033041194
51	0x3eb399bc	0.35078228
52	0xbea711db	-0.3263081
53	0xbe5f785e	-0.2182326
54	0xbe7b57ee	-0.24545261
55	0x3ec90b6b	0.39266524
56	0xbeb401a5	-0.35157505
57	0xbe796c1c	-0.24357647
58	0x3e36566c	0.17806405
59	0x3e4bfd24	0.19920784
60	0xbc83c6c0	-0.016085982
61	0x3c91df31	0.017806621
62	0xbe404b31	-0.18778683
63	0x3d9052f0	0.07047069
64	0xbe87c0c2	-0.2651425
65	0xbe8d7eb3	-0.27635726
66	0x3e11ecf1	0.14250542
67	0x3ea97e4d	0.33104172
68	0x3c66a925	0.014078413
69	0x3e0e412a	0.13892046
70	0x3dfc8506	0.1233006
71	0xbe028c09	-0.12748732
72	0xbe345766	-0.17611465
73	0xbee37f99	-0.44433287
74	0xbde6ce77	-0.11269849
75	0x3dcc107f	0.09964084
76	0xbea68002	-0.32519537
77	0x3e1e5d9e	0.154654
78	0x3f033716	0.5125593
79	0x3d7d11b5	0.061784465
80	0xbdf19218	-0.11795443
81	0xbdb6a266	-0.08917694
82	0xbec6e383	-0.38845453
83	0xbe3e9531	-0.186116
84	0xbeb6257a	-0.35575467
85	0x3dcb925d	0.09940026
86	0x3cec87e0	0.028873384
87	0xbe88371a	-0.2660454
88	0x3e1b4980	0.15164757
89	0xbe9ca423	-0.30593976
90	0x3ee0088c	0.4375652
91	0x3eef52a7	0.46742746
92	0xbc14e5f3	-0.009088027
93	0xbe6561c6	-0.22400579
94	0xbd9cfa49	-0.076649256
95	0x3edcdff6	0.4313962
96	0xbe7d5292	-0.2473853
97	0xbe74934f	-0.23884319
98	0x3e53a6da	0.20669118
99	0x3d0a5005	0.03376772
100	0xbd6e6555	-0.058202107
101	0x3e6ea64d	0.23305626
102	0x3e298ea4	0.1655832
103	0x3e1c3784	0.15255553
104	0x3d865d6b	0.06560787
105	0x3ce050bb	0.027382245
106	0xbeb2fe03	-0.3495942
107	0xbd8d443f	-0.068977825
108	0x3edb1f18	0.4279716
109	0x3e4ffef6	0.20312104
110	0xbd9d1a6d	-0.07671056
111	0xbe58e882	-0.21182445
112	0xbdf2c102	-0.118532196
113	0x3ce6c119	0.028168248
114	0xbda333e9	-0.079688855
115	0x3e8d60c1	0.2761288
116	0xbea3de83	-0.320057
117	0x3db54504	0.08851054
118	0xbd2af748	-0.041739732
119	0x3f0bfa7f	0.546791
120	0x3da03cd8	0.07824105
121	0xbe5a998b	-0.21347634
122	0x3e66b5b9	0.22530259
123	0xbd05c655	-0.032659847
124	0xbdc52bc2	-0.09627487
125	0x3e479594	0.19490653
126	0xbe709d9c	-0.23497623
127	0x3e68c9c8	0.22733223
128	0xbeb24ca2	-0.3482409
129	0xbc9adfb1	-0.018905492
130	0x3e8ac4ff	0.2710342
131	0x3d88ebb0	0.06685579
132	0xbe405b16	-0.18784747
133	0xbd786aaa	-0.060648598
134	0x3dfa56b2	0.12223567
135	0x3d34ab88	0.044108897
136	0xbde1155b	-0.10990401
137	0x3ebcc2d5	0.36867395
138	0xbd7dfda0	-0.062009454
139	0x3e8b4e86	0.27208346
140	0x3d8f6797	0.0700218
141	0xbe55b90d	-0.20871373
142	0x3e87bfe5	0.2651359
143	0x3e5efd46	0.21776304
144	0x3e1a6edf	0.15081356
145	0xbe33f4ce	-0.17573854
146	0xbe324207	-0.17408
147	0xbe60c2a1	-0.21949245
148	0x3c929baa	0.017896492
149	0xbd16d663	-0.03682555
150	0x3cebc741	0.028781535
151	0x3de5e51f	0.11225342
152	0xbe8d7908	-0.27631402
153	0xbe2fa580	-0.17152977
154	0x3d92cc32	0.071678534
155	0xbd24cdc2	-0.04023529
156	0x3d20a3d4	0.03921874
157	0x3eb21e2f	0.34788653
158	0xbea7fb03	-0.32808694
159	0xbcf4ebde	-0.029897626
160	0xbcd11c74	-0.025526263
161	0x3e8c8b8d	0.2745022
162	0xbe9b2704	-0.30303204
163	0xbe9919c9	-0.29902485
164	0x3e5c7df8	0.21532428
165	0x3d80e8c8	0.062943995
166	0x3d7b3aea	0.06133548
167	0x3e391d98	0.18077695
168	0x3ec05b90	0.37569857
169	0xbce382a4	-0.027772255
170	0xbdc68dc1	-0.09695006
171	0xbee1eb61	-0.44124892
172	0x3e07f365	0.13276441
173	0xbe402dae	-0.18767425
174	0x3e76e86d	0.24112101
175	0x3e803d4d	0.2504677
176	0xbe405bb7	-0.18784986
177	0x3e904acd	0.28182068
178	0xbed5f5de	-0.41789144
179	0x3e5eba0b	0.21750657
180	0x3e76c5ee	0.24098942
181	0xbb15a208	-0.0022832174
182	0xbd55e0ff	-0.052216526
183	0xbebb3bca	-0.36569053
184	0x3d386a8b	0.045023482
185	0xbe95c185	-0.29249206
186	0xbe9d72ce	-0.30751652
187	0xbe5a5c06	-0.21324167
188	0xbdfb7b07	-0.12279325
189	0x3e1bcc76	0.15214714
190	0xbed8c133	-0.423349
191	0x3d8c8de9	0.06863005
192	0x3d92b887	0.07164102
193	0x3e7bfdca	0.24608532
194	0xbdae4890	-0.08509934
195	0xbd447eac	-0.047972366
196	0xbdcc39b5	-0.09971944
197	0xbd47d5db	-0.048787933
198	0xbdea4ec0	-0.114408016
199	0xbc84e73f	-0.016223548
200	0xbe7c25f3	-0.24623851
201	0x3dbb456d	0.09144101
202	0xbe1b1c97	-0.15147625
203	0x3d277983	0.040887367
204	0x3cbb2b4a	0.02284779
205	0xbc2a6837	-0.010400823
206	0xbe3dc58a	-0.18532386
207	0x3e701c00	0.23448181
208	0xbb893894	-0.004187653
209	0xbe7327ee	-0.237457
210	0x3ec566be	0.3855495
211	0xbe7b1c3b	-0.24522488
212	0xbdefa4f0	-0.11701381
213	0xbd397522	-0.045277722
214	0x3de8e66e	0.11372076
215	0xbe3e7953	-0.18600969
216	0xbe608d9d	-0.21929021
217	0x3e245dff	0.16051482
218	0xbdb34637	-0.08753627
219	0x3e2b8a45	0.16751964
220	0x3e849fd8	0.259032
221	0xbdfa4b12	-0.1222135
222	0x3eb2cbdd	0.3492116
223	0xbbdb40b6	-0.0066910638
224	0xbc09d753	-0.008413154
225	0xbdb750f7	-0.0895099
226	0xbd8364a8	-0.06415683
227	0x3d968442	0.07349445
228	0x3e5b2d87	0.21404086
229	0xbc8ceab3	-0.017201757
230	0xbebddb1a	-0.37081224
231	0x3e90557a	0.28190213
232	0x3eea26eb	0.45732817
233	0x3e4cfe66	0.2001892
234	0x3eac636d	0.33669606
235	0x3c1ee7a7	0.009698785
236	0x3eb20f3a	0.34777242
237	0xbee25215	-0.4420325
238	0x3e42d6c6	0.19027242
239	0xbeaa10a8	-0.33215833
240	0x3e3f6e81	0.18694498
241	0x3db7af50	0.08968985
242	0xbe14ba80	-0.14524269
243	0x3eb2bc9b	0.3490952
244	0x3e88d3f4	0.26724207
245	0xbdc490fc	-0.09597966
246	0xbe1b27a1	-0.15151836
247	0xbdf8bafc	-0.121450394
248	0x3e073cea	0.1320683
249	0xbe635f6e	-0.22204372
250	0x3c404635	0.011735489
251	0xbe0699e8	-0.13144648
252	0x3da13b4a	0.078726366
253	0x3e9424c6	0.28934306
254	0xbe8b5824	-0.27215683
255	0xbebbb89c	-0.36664283

lstm.bias_ih_l1 f4 [40]
0	0x3ee61ec8	0.4494536
1	0x3e0543af	0.130141
2	0x3d56e63d	0.052465666
3	0x3f55c518	0.83503866
4	0x3eac32ec	0.336326
5	0xbd91e14e	-0.071230516
6	0xbcbea677	-0.023272736
7	0x3e8a993d	0.27070037
8	0x3ced63ca	0.028978247
9	0x3e0a7891	0.13522555
10	0xbe6018a3	-0.21884398
11	0xbeb6412b	-0.35596594
12	0x3e403be9	0.18772854
13	0x3eb51c14	0.35372984
14	0xbddf6074	-0.10907069
15	0xbe194a91	-0.14969851
16	0x3dd00ace	0.10158311
17	0x3cf655cd	0.03007021
18	0xbe072cc5	-0.13200672
19	0xbdecd38b	-0.11563786
20	0x3e904159	0.28174856
21	0x3e3c8a23	0.1841207
22	0xbe1de73f	-0.15420245
23	0xbe486614	-0.1957019
24	0xbeab927e	-0.33510202
25	0x3e99aa3e	0.30012697
26	0xbe8ec83b	-0.2788714
27	0xbd83d0ae	-0.06436287
28	0xbe52906b	-0.20562904
29	0xbcc21cb3	-0.023695325
30	0x3ddda01e	0.108215556
31	0xbd898252	-0.0671431
32	0x3e3f719d	0.18695684
33	0x3e042a30	0.12906718
34	0xbd7b3694	-0.061331347
35	0x3ebd3953	0.36957797
36	0x3dd95497	0.10611837
37	0x3e28958d	0.16463299
38	0xbdffd96a	-0.1249264
39	0x3e8650a2	0.26233393

lstm.bias_hh_l1 f4 [40]
0	0xbe149bd0	-0.14512563
1	0xbe016da1	-0.12639476
2	0x3e8cc479	0.27493647
3	0x3f47d5eb	0.7806079
4	0x3e8e5082	0.27795798
5	0x3e77bd04	0.24193197
6	0xbd9196b8	-0.071088254
7	0x3e26ef9d	0.16302343
8	0x3c91fcec	0.017820798
9	0xbc41fdb5	-0.011840274
10	0x3d0a7321	0.0338012
11	0xbdb1115c	-0.08645889
12	0x3eba8f87	0.36437628
13	0x3dc12759	0.09431333
14	0x3e0bab60	0.13639593
15	0xbdb7bdaf	-0.08971726
16	0x3cc1b5e6	0.023646306
17	0x3e78c593	0.24294119
18	0x3ea4d6f9	0.3219526
19	0xbe4de2ea	-0.20106092
20	0xbd98a462	-0.074532285
21	0xbe175919	-0.14780082
22	0xbe3d94d7	-0.18513809
23	0xbef55b8e	-0.47921413
24	0xbe9083e2	-0.2822562
25	0xbe81e7b0	-0.25372076
26	0xbebc6323	-0.36794385
27	0x3e906eec	0.28209627
28	0xbe128bbe	-0.1431112
29	0x3de807f6	0.113296434
30	0x3e5e0cba	0.21684542
31	0x3e7bb38e	0.24580213
32	0xbe143649	-0.14473833
33	0x3c8294eb	0.01594015
34	0x3e9c1d02	0.3049088
35	0xbd47f8fe	-0.04882144
36	0x3cc9de06	0.024642002
37	0x3e83c10d	0.25733224
38	0x3ea241b0	0.3169074
39	0x3eb568c1	0.35431483

lstm.weight_ih_l2 f4 [40, 10]
0	0xbe536f76	-0.20647988
1	0x3daf1d93	0.08550563
2	0x3e94476c	0.2896074
3	0x3c7a4b4e	0.015276743
4	0x3e834e86	0.25645846
5	0x3d43de10	0.047819197
6	0x3d9bfa69	0.07616121
7	0xbe619dce	-0.22032854
8	0x3de96e64	0.113980085
9	0x3e84ed09	0.25962093
10	0xbdf57a36	-0.119862005
11	0x3ebf8eb1	0.37413552
12	0x3cb151f3	0.021645522
13	0xbef0606e	-0.4694857
14	0x3e197991	0.1498778
15	0xbe74c074	-0.2390154
16	0xbe9a80c2	-0.3017636
17	0x3e7c9e59	0.2466978
18	0xbeaaf039	-0.333864
19	0xbc1bfac0	-0.009520233
20	0x3e5537f9	0.20822133
21	0x3e9e7146	0.30945796
22	0xbdb60a0f	-0.08888637
23	0xbe76102f	-0.24029611
24	0xbe7c408e	-0.24634
25	0xbdd214f3	-0.10257902
26	0xbeef7a2b	-0.46772894
27	0xbe005afc	-0.12534708
28	0x3e991f74	0.2990681
29	0x3ec46125	0.38355365
30	0x3f180b3d	0.5939215
31	0x3e7f4360	0.24928045
32	0x3d02a79f	0.031898137
33	0xbeafebe0	-0.34359646
34	0xbe9e4553	-0.30912265
35	0x3ec60fb6	0.38683861
36	0xbd8aada8	-0.067714036
37	0x3effb799	0.4994476
38	0x3eff3f6c	0.49853075
39	0x3f633997	0.8875975
40	0x3ebe2cf6	0.37143677
41	0xbdebe8b2	-0.115189925
42	0x3d6cf3b4	0.0578496
43	0xbe9e5a88	-0.30928445
44	0xbe92797c	-0.2860831
45	0x3e82f6f6	0.2557904
46	0xbe0571c1	-0.13031675
47	0x3dc796cc	0.09745559
48	0xbea84ddf	-0.3287191
49	0x3e8e341b	0.27774128
50	0x3dc95942	0.09831478
51	0xbe2830b6	-0.16424832
52	0x3daba336	0.083807394
53	0x3d3f0bed	0.046642233
54	0x3e243236	0.16034779
55	0x3f0c32b1	0.5476485
56	0xbe906290	-0.28200197
57	0xbd2ec750	-0.042670548
58	0x3ea74f8a	0.3267787
59	0x3f2f7842	0.68542874
60	0x3f08c6b4	0.53428197
61	0x3db3e16b	0.087832294
62	0xbe132508	-0.14369595
63	0xbe4fd569	-0.20296253
64	0xbf0fc270	-0.56156063
65	0x3ef341cc	0.47511137
66	0xbebff6ef	-0.37493083
67	0x3ebae5fd	0.36503592
68	0xbf1c4476	-0.61041963
69	0x3f3565ef	0.70858663
70	0xbd1205b4	-0.03564997
71	0xbe245842	-0.16049293
72	0xbe92f2b7	-0.28700802
73	0xbe2f81e4	-0.17139393
74	0x3e9f16d4	0.31072104
75	0xbd015306	-0.031573318
76	0xbe1abce6	-0.15111122
77	0x3eb370d0	0.35047007
78	0xbd5a4544	-0.053288713
79	0x3e04928a	0.12946525
80	0x3e8a1e8d	0.26976433
81	0xbd76547e	-0.06013917
82	0xbea702aa	-0.3261922
83	0x3e0ef04b	0.13958852
84	0x3e525ccb	0.2054321
85	0x3e915164	0.2838241
86	0xbe809c41	-0.25119212
87	0x3eb9f23c	0.36317623
88	0x3f0716b0	0.52768993
89	0x3f405902	0.75135815
90	0xbe10fec8	-0.14159691
91	0x3e01c44e	0.1267254
92	0xbe2d688d	-0.16934414
93	0xbeb1b82d	-0.34710827
94	0xbe93233e	-0.28737825
95	0x3ec2b1b3	0.380262
96	0x3db06c1d	0.08614371
97	0xbde4ed83	-0.11178114
98	0x3de3ed00	0.111291885
99	0x3f106603	0.5640566
100	0x3e0404ff	0.12892531
101	0xbd835481	-0.06412602
102	0xbbdc33c4	-0.006720038
103	0x3e9ae8b7	0.30255672
104	0xbd841b41	-0.06450511
105	0xbe2e7a60	-0.1703887
106	0xbe3fd0a2	-0.18731931
107	0xbe8aa311	-0.27077535
108	0x3de09e7e	0.1096773
109	0x3e7947f5	0.24343856
110	0x3d4273af	0.047473606
111	0x3e23bbda	0.15989628
112	0xbd614ecb	-0.055006783
113	0x3e6ef9f9	0.23337545
114	0xbddec6af	-0.1087774
115	0x3e1ee6d1	0.15517737
116	0x3e5590db	0.20856039
117	0xbe0ab80f	-0.13546775
118	0xbebdf489	-0.37100628
119	0xbee968d1	-0.4558778
120	0xbe938ae9	-0.28816918
121	0xbe3b0fca	-0.18267742
122	0x3dad6822	0.084671274
123	0xbd5a0160	-0.053223968
124	0xbbbd3bac	-0.0057749357
125	0x3dcfa86d	0.101395465
126	0xbe933cfe	-0.2875747
127	0x3dc9ea98	0.09859198
128	0x3e429ce7	0.19005166
129	0x3ec6072e	0.38677353
130	0xbcba53ac	-0.022744976
131	0xbf056ec2	-0.5212213
132	0x3e9ae46d	0.302524
133	0x3eeb3bfe	0.45944208
134	0xbdbfbaf3	-0.093618296
135	0x3800260a	3.0553005e-05
136	0x3cd3c96f	0.025852887
137	0x3d8bc8a0	0.068253756
138	0x3d6d9974	0.058007672
139	0x3dd3393e	0.103136525
140	0xbd48ac59	-0.04899249
141	0x3c21dfe2	0.009880038
142	0x3d851f3b	0.06500097
143	0x3e551eed	0.20812578
144	0xbe3b1599	-0.18269958
145	0x3ec9c0a4	0.39404786
146	0xbd9ef6b9	-0.07761902
147	0xbde7193d	-0.11284111
148	0xbe92bc8b	-0.28659472
149	0x3ef898fb	0.48554215
150	0x3e90feeb	0.28319487
151	0xbe899aef	-0.26876017
152	0xbdaedc55	-0.08538119
153	0xbe31504a	-0.17315784
154	0x3e9683a6	0.29397315
155	0x3ea54853	0.32281741
156	0x3d894521	0.067026384
157	0x3ea42068	0.32055974
158	0x3d85c77c	0.06532189
159	0x3e89cfa9	0.26916245
160	0xbe28cf8f	-0.16485427
161	0x3dc0d27f	0.09415149
162	0x3d602795	0.05472525
163	0xbe9b1643	-0.30290422
164	0xbda84061	-0.08215404
165	0x3e395394	0.18098289
166	0xbe80f619	-0.25187758
167	0x3e7e9c80	0.24864388
168	0xbe1f9bae	-0.15586731
169	0x3f0bd1b4	0.54616857
170	0xbec03ace	-0.37544864
171	0xbe31f6b6	-0.17379269
172	0x3c570392	0.01312341
173	0x3e565203	0.20929722
174	0x3e88b16d	0.26697865
175	0x3d31d1df	0.04341304
176	0x3d53d95e	0.05172097
177	0x3cc72543	0.02430976
178	0xbdb28db6	-0.087184355
179	0xbe2a8d18	-0.16655385
180	0x3e8645d8	0.26225162
181	0xbeac4a85	-0.33650604
182	0xbe892789	-0.26787975
183	0x3c903a0d	0.017605806
184	0x3e92efb9	0.2869852
185	0x3ddee57f	0.10883617
186	0x3e52a503	0.2057076
187	0xbd034d68	-0.032056242
188	0x3ecaa5a5	0.39579502
189	0x3e44877e	0.19192311
190	0x3ec4f4f9	0.3846815
191	0x3ebe9d2f	0.37229297
192	0xbe4277a7	-0.18990956
193	0x3d9a962a	0.07548173
194	0x3e65f292	0.22455814
195	0xbd9ab9d3	-0.075549744
196	0xbec63d8f	-0.3871884
197	0x3d3897b8	0.045066565
198	0x3e5fc9dc	0.21854347
199	0x3ccff371	0.025384637
200	0x3e85d267	0.26137087
201	0xbea207ea	-0.31646663
202	0xbeb695fd	-0.35661307
203	0x3e370419	0.17872657
204	0xbdcbcb9c	-0.09950945
205	0x3e64637b	0.22303574
206	0x3ddf1e68	0.108944714
207	0x3e9fc84b	0.312075
208	0x3e83cf2c	0.25743997
209	0xbe0ff143	-0.14056878
210	0xbddfb6f4	-0.109235674
211	0x3de6aa77	0.11262982
212	0x3bc3f1b3	0.0059797405
213	0xbe6196eb	-0.22030227
214	0xbdfda075	-0.123841204
215	0xbe8271ff	-0.25477597
216	0x3eb97d53	0.36228427
217	0xbdf21cba	-0.118218854
218	0xbde08f10	-0.10964787
219	0xbda6fe6d	-0.081539966
220	0xbdfa8ea0	-0.12234235
221	0xbd0f8877	-0.035042252
222	0xbec3e149	-0.38257816
223	0xbdabe391	-0.08393014
224	0xbe94b1ab	-0.290418
225	0x3e773b7c	0.24143785
226	0xbe4fc3e0	-0.20289564
227	0x3eefadf7	0.46812412
228	0x3dc0b8d8	0.09410256
229	0x3eda3508	0.42618585
230	0x3e12a600	0.14321136
231	0x3db18eac	0.086697906
232	0x3e599b88	0.21250737
233	0x3e74b842	0.23898414
234	0xbddf1280	-0.108922005
235	0xbf0ae648	-0.5425763
236	0x3d819609	0.06327445
237	0xbf08356c	-0.53206515
238	0xbe513377	-0.20429789
239	0xbf340ef8	-0.7033534
240	0xbc928b9c	-0.017888837
241	0xbe7cc46e	-0.24684307
242	0x3de77317	0.113012485
243	0x3d92f50c	0.07175645
244	0xbd9ec092	-0.077515736
245	0xbe02f23b	-0.12787716
246	0xbcc1390e	-0.023586776
247	0xbd4b556b	-0.049642008
248	0x3e87e367	0.26540682
249	0x3d15cf32	0.03657455
250	0xbe72b862	-0.23703149
251	0xbe6648a6	-0.2248865
252	0x3e8914bb	0.2677363
253	0xbe2254ef	-0.15852712
254	0x3e1f39db	0.15549414
255	0xbd070fa9	-0.03297392

lstm.weight_hh_l2 f4 [40, 10]
0	0x3e5ec924	0.21756417
1	0x3e24144b	0.16023366
2	0x3e7be7cf	0.24600147
3	0xbe7e4c51	-0.248338
4	0x3de872de	0.11350034
5	0x3d5a868e	0.053350978
6	0x3ea9f6da	0.33196145
7	0x3e43a914	0.19107467
8	0xbd9d76bd	-0.07688663
9	0x3ea19712	0.3156057
10	0x3e6be8e5	0.23038061
11	0xbe835ffc	-0.25659168
12	0x3e88b5d1	0.26701215
13	0xbec3ce8e	-0.38243526
14	0x3d4c43c7	0.049869325
15	0xbe443422	-0.19160512
16	0xbe61b978	-0.22043407
17	0xbe9ec47b	-0.31009278
18	0x3d92b864	0.07164076
19	0xbddb5963	-0.107104085
20	0xbeb49e6d	-0.3527712
21	0xbd5dd1be	-0.054155104
22	0xbe62fd17	-0.22166859
23	0x3ddca4e3	0.10773637
24	0xbebcb227	-0.3685467
25	0xbdffe1fd	-0.12494276
26	0x3e0894d1	0.13338019
27	0xbe8417f4	-0.25799525
28	0x3db31d90	0.08745873
29	0xbec0046c	-0.37503374
30	0x3e0e8e59	0.13921489
31	0xbe891279	-0.26771906
32	0x3e6a6bd5	0.22892697
33	0xbe9a691b	-0.30158314
34	0xbead20e3	-0.33814153
35	0xbd694f39	-0.05696032
36	0xbea7d7c1	-0.32781795
37	0x3d9fc6f7	0.078016214
38	0x3e065662	0.1311889
39	0xbededefc	-0.435295
40	0xbe4b8ccf	-0.19877933
41	0xbd3867cf	-0.045020875
42	0xbc0c35d2	-0.008557754
43	0xbe77167a	-0.24129668
44	0xbde1260a	-0.109935835
45	0xbcabd512	-0.020975623
46	0xbe8cf50b	-0.27530703
47	0xbde26694	-0.110547215
48	0x3e78ee40	0.24309635
49	0xbd5f62af	-0.05453747
50	0x3d51259c	0.051061258
51	0xbe71ace9	-0.23601116
52	0xbdfa3e84	-0.12218955
53	0x3dff9d05	0.12481121
54	0xbd2c5be9	-0.04207984
55	0xbe835336	-0.25649422
56	0xbe51ea26	-0.20499477
57	0x3d4a3de0	0.049375415
58	0xbe1a4fbb	-0.15069477
59	0xbe3f8c72	-0.1870592
60	0xbe753eb5	-0.23949702
61	0xbdd3bfa9	-0.10339291
62	0x3e9f70af	0.31140658
63	0xbce31593	-0.027720248
64	0xbd21fd47	-0.039548185
65	0x3daec605	0.08533863
66	0xbeef9416	-0.46792668
67	0xbeb9cfac	-0.36291254
68	0x3df25b8f	0.1183387
69	0xbe963ed7	-0.29344818
70	0x3eae75d1	0.34074262
71	0x3e1cbb03	0.15305714
72	0xbe40e643	-0.18837838
73	0x3daf86f7	0.085706644
74	0x3c1dc79d	0.009630111
75	0xbe64055c	-0.2226767
76	0x3dc9fc8b	0.09862622
77	0x3e532254	0.20618564
78	0xbe717367	-0.23579179
79	0xbe5c82c6	-0.21534261
80	0x3e49595c	0.19662994
81	0xbea02d56	-0.3128459
82	0xbe951551	-0.29117826
83	0x3e2aa34c	0.16663855
84	0x3c9cbe91	0.019133838
85	0x3e7e10b8	0.24811065
86	0x3e6103f1	0.2197416
87	0x3e95fccc	0.2929443
88	0x3e151201	0.14557649
89	0x3e2331e1	0.15936996
90	0xbe5accdd	-0.21367212
91	0x3dde85aa	0.10865338
92	0x3d2e78d9	0.042595718
93	0xbe9ebde2	-0.31004244
94	0xbe69c0ca	-0.2282745
95	0x3c2cafeb	0.010539989
96	0xbe8f14e2	-0.2794562
97	0xbe6177d1	-0.22018363
98	0xbdec486d	-0.115372516
99	0x3d4baaa4	0.049723282
100	0x3ea1a8c8	0.31574082
101	0xbe16ef40	-0.14739704
102	0xbd6821b8	-0.05667278
103	0xbbaffa92	-0.0053704465
104	0x3d83ffea	0.06445296
105	0x3e820621	0.253953
106	0xbe6af7b0	-0.22946048
107	0x3ea7c8d8	0.3277042
108	0x3d2252ba	0.039629675
109	0x3de4ff2a	0.11181481
110	0xbcc5045e	-0.024049934
111	0xbe89372a	-0.267999
112	0x3e1827d2	0.1485894
113	0x3d473712	0.048636504
114	0x3e23ceed	0.15996905
115	0x3c52f17c	0.012874957
116	0xbc5727b4	-0.013132025
117	0x3d888d46	0.06667571
118	0xbe1dd850	-0.15414548
119	0x3eb6cf96	0.3570525
120	0xbeb1af88	-0.34704232
121	0xbda45ef3	-0.080259226
122	0x3d94dd7b	0.072688065
123	0x3e4c89a5	0.19974382
124	0xbd2f9447	-0.042866018
125	0x3e31048d	0.17286892
126	0xbe1d8a22	-0.15384725
127	0xbcb1255c	-0.02162426
128	0x3e4edcdb	0.20201437
129	0x3e4180d8	0.18896806
130	0x3e39398d	0.1808836
131	0xbe9e0730	-0.3086486
132	0xbe43febb	-0.1914014
133	0x3e8d0e97	0.27550194
134	0x3ec93de9	0.39305046
135	0xbd98ee7f	-0.074673645
136	0x3ee08f24	0.43859208
137	0xbe8af258	-0.2713802
138	0x3e4661e4	0.1937328
139	0x3e75ee76	0.24016747
140	0xbd51c22d	-0.05121057
141	0x3c131925	0.008978163
142	0x3db64c39	0.08901257
143	0xbe3a3b34	-0.18186647
144	0xbe6aacb6	-0.22917446
145	0x3e103021	0.1408086
146	0xbe632fdb	-0.22186224
147	0xbea4c40b	-0.3218082
148	0x3db2eb47	0.08736282
149	0xbe0487b6	-0.12942395
150	0xbe9b03b4	-0.30276263
151	0xbe359121	-0.17731144
152	0xbe6daaaa	-0.23209634
153	0x3d8a8c23	0.0676501
154	0xbe3fa8e2	-0.18716767
155	0x3e33064c	0.17482871
156	0x3eb2e15e	0.34937567
157	0x3eadf746	0.33977717
158	0x3e8f73fc	0.28018177
159	0xbe40264f	-0.18764614
160	0xbe792dd8	-0.24333894
161	0x3d9b5f8a	0.07586582
162	0x3e303f47	0.17211638
163	0xbebc7acb	-0.36812434
164	0xbe8abd83	-0.2709771
165	0xbc974ef1	-0.01847026
166	0xbe72bcda	-0.23704854
167	0xbe149702	-0.1451073
168	0x3db80508	0.08985335
169	0xbe5801d5	-0.21094449
170	0xbe85dd87	-0.26145574
171	0x3d83628e	0.06415282
172	0x3d902ff5	0.07040397
173	0x3e835a52	0.25654846
174	0xbe85af55	-0.2611033
175	0xbd8910e3	-0.06692674
176	0x3eb6839a	0.3564728
177	0xbe904969	-0.28181008
178	0x3d501ea9	0.05081049
179	0x3d6559b8	0.055993766
180	0xbe8d2a26	-0.2757122
181	0xbcef2b88	-0.029195562
182	0xbdb5e92d	-0.088823654
183	0x3e9dcb50	0.30819178
184	0x3e29faee	0.16599628
185	0x3d7bdee4	0.061491862
186	0x3e483d54	0.19554645
187	0x3e6ea2d5	0.23304303
188	0x3edd37f4	0.4320675
189	0xbe2e7fe1	-0.1704097
190	0x3dd9b88e	0.10630904
191	0x3e815fcf	0.2526841
192	0x3e943938	0.28949904
193	0xbe3c6de6	-0.18401298
194	0x3cddf356	0.02709357
195	0xbe582f49	-0.21111788
196	0xbea4b582	-0.3216973
197	0x3e2fabf5	0.1715544
198	0xbe9b3d45	-0.30320182
199	0x3e5dd5e4	0.21663624
200	0xbda14edc	-0.07876369
201	0xbea5e04d	-0.3239769
202	0x3df55ce0	0.11980605
203	0x3de6d582	0.11271192
204	0xbe97ae7b	-0.29625306
205	0x3e50f007	0.20404063
206	0xbe479d97	-0.1949371
207	0xbc01cb54	-0.007922012
208	0xbe111bee	-0.1417081
209	0xbe6193e7	-0.22029077
210	0x3da84bfa	0.082176164
211	0x3e195e98	0.14977491
212	0x3e0cd86e	0.13754436
213	0xbeb62d39	-0.35581377
214	0xbdf8124d	-0.121128656
215	0xbe4d2b52	-0.20036057
216	0xbea22485	-0.31668487
217	0xbe5120ed	-0.20422716
218	0xbe4fed19	-0.2030529
219	0x3c46d8ba	0.012136633
220	0xbe579003	-0.2105103
221	0x3e0f1ded	0.1397626
222	0xbd92f2cd	-0.07175217
223	0xbd9c5828	-0.07634002
224	0x3e41a799	0.1891159
225	0x3e42b1be	0.19013116
226	0x3e35eaf6	0.17765412
227	0xbeafc543	-0.34330186
228	0x3e76e20c	0.24109668
229	0x3d9717c7	0.07377582
230	0xbe823ae3	-0.25435552
231	0xbd42c15b	-0.04754768
232	0x3ecfa8de	0.40558523
233	0xbee8f3bd	-0.45498458
234	0xbe3ee940	-0.18643665
235	0xbddc5bac	-0.107596725
236	0xbedf4d73	-0.43613777
237	0x3e583f68	0.21117938
238	0xbeb1d4d9	-0.34732702
239	0x3e90ea88	0.28303933
240	0xbe59954d	-0.2124836
241	0xbd2f4596	-0.04279097
242	0xbe7cb564	-0.2467857
243	0x3eaddf8a	0.3395961
244	0x3e100a74	0.14066488
245	0xbd8b0057	-0.06787174
246	0x3dc62b42	0.096762195
247	0xbd872d46	-0.06600432
248	0xbdb9ca0c	-0.090717405
249	0xbe04b193	-0.12958364
250	0xbe155cf2	-0.14586237
251	0x3e2546c3	0.16140275
252	0x3e4d6426	0.20057735
253	0x3d928388	0.07153994
254	0x3ea0a86a	0.3137849
255	0xbdbbbf79	-0.0916738

lstm.bias_ih_l2 f4 [40]
0	0xbc768d89	-0.015048393
1	0x3e87c39b	0.26516423
2	0x3ea034a9	0.31290177
3	0x3ee5f7a4	0.44915497
4	0x3e739eec	0.23791093
5	0xbe9e71b4	-0.30946124
6	0x3e7504f7	0.23927675
7	0xbdf7827b	-0.12085434
8	0x3df7112a	0.12063821
9	0xbd9763a5	-0.073920526
10	0xbe9645c5	-0.29350105
11	0x3e7700ec	0.24121445
12	0xbe9e2e30	-0.30894613
13	0xbdc24686	-0.094861075
14	0x3eaf0f38	0.34191298
15	0xbe56b052	-0.20965698
16	0x3e9324f2	0.28739125
17	0xbe1e2f1a	-0.15447655
18	0xbda09cfd	-0.07842443
19	0x3ebff794	0.37493575
20	0xbe433dc1	-0.19066526
21	0xbe3e9285	-0.1861058
22	0x3d867b40	0.06566477
23	0xbdb1742c	-0.08664736
24	0xbeb17119	-0.346566
25	0xbd1223e0	-0.035678744
26	0xbed6a127	-0.41919824
27	0xbe04b67b	-0.12960236
28	0x3da6b190	0.08139336
29	0xbeb7f3ba	-0.35928136
30	0x3b2b5a0c	0.0026146201
31	0x3e7fcc68	0.24980319
32	0x3ea47601	0.3212128
33	0x3c1d0c6b	0.00958548
34	0xbe4f53c0	-0.20246792
35	0xbdc705fb	-0.097179376
36	0xbd85cea8	-0.06533557
37	0x3e039f5a	0.12853757
38	0x3e465093	0.19366674
39	0x3ea133bd	0.31484786

lstm.bias_hh_l2 f4 [40]
0	0x3d94c3aa	0.072638825
1	0xbc7975fe	-0.015225885
2	0x3e842a93	0.25813732
3	0x3e8c1869	0.27362373
4	0xbe168714	-0.14699966
5	0xbdf273d2	-0.11838497
6	0x3eeaff28	0.45897794
7	0x3e439010	0.19097924
8	0x3e8fb52e	0.28067917
9	0xbe45c958	-0.19315088
10	0x3e4fc11a	0.20288506
11	0xbe878cb0	-0.26474524
12	0xbc5693cc	-0.013096761
13	0xbe5051f2	-0.2034376
14	0x3eb2ff9a	0.34960634
15	0xbcf8e736	-0.030383687
16	0x3eadd929	0.33954743
17	0xbe37d588	-0.1795255
18	0x3dac3917	0.084093265
19	0xbe2457dc	-0.1604914
20	0xbe7dcf07	-0.24786006
21	0x3d856e73	0.06515207
22	0xbe3c0a22	-0.1836324
23	0xbd2a72c6	-0.041613363
24	0xbe58fd7c	-0.21190447
25	0x3e1c0613	0.15236692
26	0xbe42a49c	-0.19008106
27	0xbe42e341	-0.19032003
28	0xbdc94830	-0.09828222
29	0x3e23ce66	0.15996704
30	0x3e36abf2	0.1783903
31	0x3d9dbcf7	0.07702058
32	0x3e6223ff	0.22084044
33	0x3eee3477	0.46524402
34	0x3e51e563	0.2049766
35	0xbd02e2c6	-0.03195455
36	0x3ef482a1	0.47755912
37	0x3e776823	0.24160819
38	0x3b5102fe	0.0031892653
39	0x3e8bac1c	0.27279747

fc.weight f4 [1, 10]
0	0x3e6bc85c	0.2302565
1	0xbecef2cb	-0.4041961
2	0x3e9bb5a6	0.30412024
3	0xbecef70a	-0.4042285
4	0xbe0ae55c	-0.13564056
5	0xbe54ee5f	-0.20794056
6	0xbda6440e	-0.08118449
7	0x3e7b2cbf	0.24528788
8	0xbe9251c8	-0.2857802
9	0xbe3a89b1	-0.18216588
