ec_l2o_log/mtl_0.50/lstm_unroll.pth (torch, 13115 bytes, 13 tensors)

lstm.weight_ih_l0 f4 [40, 2]
-0.21499826 -0.093487486 0.16020536 0.16486548 0.15621987 0.28760746 0.083134726 0.38231045
0.18806577 0.3702679 0.0016810171 0.20667076 -0.086092636 -0.11232088 0.0632778 0.021385942
0.38836196 0.1495637 0.16258399 -0.25631595 0.28393924 -0.214195 0.25518814 0.03789228
-0.061303828 -0.036325313 -0.17025888 0.0013553365 -0.16998425 0.20144083 0.3575998 0.3821926
0.014261113 0.33791664 -0.17840324 0.19977202 0.19497822 -0.18661588 -0.18425785 -0.2169784
0.21688601 0.30563274 0.06889944 -0.005108672 -0.09559627 -0.36366066 -0.062630706 -0.3451396
0.33709168 0.37310067 0.022397855 0.23016804 0.12825902 0.121067785 -0.023901017 0.32065824
0.15301089 -0.1051237 -0.053437445 -0.18447986 0.11116683 -0.1345665 0.22738546 -0.18122864
0.31553528 0.3759583 0.36604545 -0.20084025 -0.15364957 0.0031921233 -0.14035885 0.1429163
0.22355609 -0.23435435 0.21814473 0.27723336 -0.054825008 -0.22073774 0.39001969 0.21695316
00000000: 8128 5cbe 5e76 bfbd e00c 243e 7fd2 283e
00000010: 1af8 1f3e 4941 933e 8a42 aa3d 32be c33e
00000020: 5094 403e c193 bd3e 9355 dc3a 80a1 533e
00000030: 5651 b0bd 7d08 e6bd cb97 813d 9231 af3c
00000040: 61d7 c63e 3a27 193e 6b7c 263e d83b 83be
00000050: 7c60 913e ef55 5bbe 05a8 823e ef34 1b3d
00000060: b919 7bbd dac9 14bd 5858 2ebe 8ca5 b13a
00000070: 5a10 2ebe 8146 4e3e 5217 b73e c0ae c33e
00000080: 71a7 693c 6903 ad3e 57af 36be 0991 4c3e
00000090: 5fa8 473e 3c18 3fbe 17ae 3cbe 962f 5ebe
000000a0: 5e17 5e3e e57b 9c3e 261b 8d3d a666 a7bb
000000b0: fac7 c3bd bb31 babe 8744 80bd 23b6 b0be
000000c0: 4897 ac3e 0d07 bf3e b57b b73c 2cb1 6b3e
000000d0: 5556 033e 63f2 f73d 11cc c3bc 512d a43e
000000e0: e3ae 1c3e 184b d7bd 39e1 5abd 4ae8 3cbe
000000f0: 6fab e33d cdcb 09be bcd7 683e 0094 39be
00000100: d78d a13e 9b7d c03e 4f6a bb3e 11a9 4dbe
00000110: 5056 1dbe f132 513b 3bba 0fbe a758 123e
00000120: e3eb 643e 96fa 6fbe 5561 5f3e 88f1 8d3e
00000130: 3090 60bd 1309 62be a9b0 c73e f828 5e3e

lstm.weight_hh_l0 f4 [40, 10]
0.3387618 -0.035986096 -0.24508661 -0.34896633 -0.12762056 0.09149709 0.19958773 0.3282124
0.16539064 -0.16366981 0.18150088 0.20823485 0.09754485 0.26653725 -0.043421723 0.27045766
0.22734849 -0.14716187 -0.005486523 -0.22976129 0.19299196 -0.18004169 -0.19552632 0.04499513
-0.2309396 -0.005792302 -0.14079915 -0.18958366 -0.02315549 -0.025406057 -0.24744448 -0.2543931
0.116059534 0.16094413 0.22432014 0.17307308 -0.23051365 -0.1871288 0.21874766 0.24541032
0.24641337 -0.12186303 -0.3312171 -0.074094504 0.16927092 -0.15030195 -0.21307847 0.11222569
-0.03476444 -0.09606477 0.036220506 -0.15279244 0.056259673 0.12527429 -0.11019469 0.22975352
-0.1374084 0.04116415 -0.31149396 -0.14877446 -0.15496352 -0.23547028 0.21521199 0.10023576
0.039175943 0.21255879 -0.07569606 -0.02103987 0.103876464 -0.19757536 -0.06601491 -0.1689009
0.061703354 -0.15974335 0.18286213 0.103544645 0.21163215 -0.1081027 -0.048835304 -0.20113468
0.0681558 0.20350674 -0.047520753 -0.123775974 -0.12641843 -0.20560278 0.13257752 -0.21068203
-0.03987161 -0.0046475986 0.14236712 -0.33652195 0.11202118 -0.30836225 0.21865955 0.048713304
-0.053075857 -0.27416116 -0.071679965 -0.14945777 -0.050719317 -0.24143384 -0.04650583 0.16668394
0.27901188 0.315454 0.28937122 -0.051845208 -0.35972032 0.16389354 -0.17632055 -0.29305342
-0.28831965 -0.22062983 -0.15071447 0.26858804 0.24387251 -0.16940361 0.19980901 0.16398764
0.22225405 -0.11628239 -0.15496954 -0.21855922 0.0009115075 0.27979243 0.25776267 -0.30323178
0.11861462 0.1802419 0.2614691 0.16726895 0.050835297 -0.3095142 0.25182536 0.0619349
0.13698731 -0.28045538 0.08283834 0.12871084 -0.021112815 0.20101121 0.023758797 0.033040456
0.26024842 -0.07273772 0.25288573 0.26073468 0.15002611 -0.04984078 -0.19200909 0.064388566
-0.20295332 0.22521901 0.30912265 -0.014905517 0.3118243 -0.09131337 -0.16687685 -0.08479497
-0.2359548 0.10607867 0.22637233 -0.27040097 -0.0938528 -0.09900446 0.2816855 -0.014524552
0.13791741 0.11850814 0.13531642 -0.121101595 -0.113441624 0.09295399 -0.28337136 0.1497325
-0.016187755 -0.12438033 0.15625589 0.03364544 -0.04476092 -0.22495997 0.15750003 -0.2771565
0.0069750827 0.17143813 -0.052517045 -0.2999313 -0.27902094 -0.1719819 -0.24633203 -0.20475294
-0.21968962 0.05688659 0.3760703 -0.05538377 0.34249833 -0.07318061 0.18856017 -0.17503239
-0.13970281 0.23217142 0.06658009 0.25050282 0.2937737 -0.036194153 -0.0979232 -0.24856962
0.06246492 -0.25906217 -0.16171925 -0.2793395 0.13815467 -0.27198544 0.07487313 -0.3372941
-0.23046637 -0.15747362 -0.012480638 -0.12232698 -0.34928018 0.11513734 0.11165867 0.09803738
-0.072029375 -0.04783585 0.030123867 -0.0245615 -0.005524476 0.02174369 0.18675216 0.21178205
0.12555419 0.18528304 0.074748255 0.13052244 0.10557831 0.20372142 0.31861705 -0.16646034
-0.19770217 -0.13627914 0.07972732 0.26726308 0.27479434 -0.013010918 0.13176677 0.111269355
0.09301085 0.21722285 0.11966337 -0.11214559 0.16490185 -0.22463043 0.042019043 0.25902414
00000000: 3072 ad3e 2866 13bd fcf7 7abe b7ab b2be
00000010: f7ae 02be d462 bb3d ba60 4c3e 750b a83e
00000020: 2a5c 293e 0f99 27be 5edb 393e 843b 553e
00000030: 98c5 c73d 9277 883e fada 31bd 6d79 8a3e
00000040: 0bce 683e 9ab1 16be 4ac8 b3bb 8b46 6bbe
00000050: af9f 453e d95c 38be 0d38 48be d04c 383d
00000060: 6e7b 6cbe 5acd bdbb a72d 10be 3822 42be
00000070: 95b0 bdbc 5d20 d0bc 1662 7dbe d03f 82be
00000080: 9fb0 ed3d 8ace 243e 2eb4 653e 123a 313e
00000090: c50b 6cbe b19e 3fbe 63ff 5f3e d84c 7b3e
000000a0: c953 7c3e 5393 f9bd 4a95 a9be dcbe 97bd
000000b0: 5b55 2d3e c1e8 19be 3e31 5abe 95d6 e53d
000000c0: 2865 0ebd 9bbd c4bd f45b 143d 9f75 1cbe
000000d0: 8b70 663d e747 003e c1ad e1bd 8244 6b3e
000000e0: cab4 0cbe bd9b 283d 237c 9fbe 5558 18be
000000f0: c2ae 1ebe 1f1f 71be 8860 5c3e 6848 cd3d
00000100: f476 203d 03a9 593e 8906 9bbd ce5b acbc
00000110: 2fbd d43d 3251 4abe d332 87bd 5cf4 2cbe
00000120: a8bc 7c3d c393 23be 3640 3b3e 370f d43d
00000130: 19b6 583e f364 ddbd 8707 48bd 40f6 4dbe
00000140: 4595 8b3d 1264 503e 1fa5 42bd 427e fdbd
00000150: d573 01be 8989 52be 67c2 073e 08bd 57be
00000160: 6a50 23bd e24a 98bb b0c8 113e 9b4c acbe
00000170: 5c6b e53d a8e1 9dbe 4ae8 5f3e 9a87 473d
00000180: 1266 59bd da5e 8cbe f2cc 92bd 750b 19be
00000190: 0fbf 4fbd 6f3a 77be e67c 3ebd 32af 2a3e
000001a0: a5da 8e3e 3083 a13e 7728 943e a45b 54bd
000001b0: 432d b8be b5d3 273e 608d 34be 190b 96be
000001c0: a29e 93be c9ec 61be e554 1abe 5f84 893e
000001d0: b7b9 793e 2478 2dbe bc9a 4c3e 60ec 273e
000001e0: 9196 633e 7625 eebd 56b0 1ebe fdcd 5fbe
000001f0: 3cf2 6e3a f440 8f3e 78f9 833e 3241 9bbe
00000200: 39ec f23d 5591 383e 47df 853e 8d48 2b3e
00000210: ac38 503d a578 9ebe 41ef 803e 73af 7d3d
00000220: 6746 0c3e d997 8fbe 26a7 a93d c6cc 033e
00000230: c8f4 acbc e2d5 4d3e cfa1 c23c 6e55 073d
00000240: 483f 853e 84f7 94bd 3d7a 813e 047f 853e
00000250: 72a0 193e d925 4cbd 089e 44be 27de 833d
00000260: ffd2 4fbe d09f 663e 5345 9e3e 4536 74bc
00000270: 6fa7 9f3e 8102 bbbd c4e1 2abe fca8 adbd
00000280: 239e 71be c63f d93d 26ce 673e ff71 8abe
00000290: e635 c0bd dac2 cabd 1539 903e 63f8 6dbc
000002a0: 393a 0d3e 65b4 f23d 6390 0a3e 1d04 f8bd
000002b0: 1554 e8bd a95e be3d 0d16 91be 7a53 193e
000002c0: 2f9c 84bc 1dbb febd 8b01 203e cdcf 093d
000002d0: 3a57 37bd e85b 66be b047 213e 75e7 8dbe
000002e0: 3c8f e43b 7a8d 2f3e 1d1c 57bd 9890 99be
000002f0: d5db 8ebe 061c 30be 773e 7cbe c1aa 51be
00000300: 51f6 60be ea01 693d 498c c03e 18da 62bd
00000310: f15b af3e b7df 95bd eb15 413e b13b 33be
00000320: 410e 0fbe 58be 6d3e 245b 883d e841 803e
00000330: 8269 963e 5240 14bd f58b c8bd 0989 7ebe
00000340: 37db 7f3d cca3 84be bb99 25be 9605 8fbe
00000350: 6b78 0d3e ad41 8bbe 1557 993d d0b1 acbe
00000360: 60ff 6bbe c440 21be 977b 4cbc 9186 fabd
00000370: dad4 b2be 20cd eb3d 4dad e43d d2c7 c83d
00000380: 2384 93bd 86ef 43bd 54c6 f63c 3335 c9bc
00000390: aa06 b5bb d31f b23c f53b 3f3e 65dd 583e
000003a0: 4791 003e d6ba 3d3e 9d15 993d ada7 053e
000003b0: 7139 d83d 599c 503e c621 a33e 9474 2abe
000003c0: 7072 4abe c28c 0bbe 1448 a33d b5d6 883e
000003d0: d8b1 8c3e bf2b 55bc deed 063e 30e1 e33d
000003e0: 797c be3d ab6f 5e3e 1212 f53d 96ac e5bd
000003f0: 08dc 283e 8505 66be 291c 2c3d d09e 843e

lstm.bias_ih_l0 f4 [40]
0.1910531 0.23158456 0.22880484 -0.047884345 0.3733898 -0.23315258 0.12539881 -0.18053168
-0.05085487 0.27859363 0.27553388 -0.059216063 0.20577656 0.23746444 -0.099391654 -0.1386355
0.05584904 0.11197563 0.3001629 0.32108667 0.021334937 0.24828923 -0.07417242 0.15805401
0.38136962 0.044619776 -0.09231784 -0.09171415 -0.33636558 0.0136210825 0.19771 0.2463791
0.27557158 -0.002656216 0.3007522 -0.11881961 0.18265918 0.043481436 -0.16020145 0.014424542
00000000: 6da3 433e 8124 6d3e d14b 6a3e 6022 44bd
00000010: f32c bf3e 8dbf 6ebe 8c68 003e 4cdd 38be
00000020: 324d 50bd d3a3 8e3e c712 8d3e 8b8c 72bd
00000030: 17b7 523e e129 733e da8d cbbd 77f6 0dbe
00000040: f7c1 643d 7b53 e53d f4ae 993e 7965 a43e
00000050: 9bc6 ae3c 883f 7e3e b6e7 97bd e9d8 213e
00000060: e142 c33e 3ac3 363d 2311 bdbd a1d4 bbbd
00000070: 1c38 acbe f62a 5f3c 7e74 4a3e ce4a 7c3e
00000080: b817 8d3e e913 2ebb 31fc 993e b257 f3bd
00000090: 020b 3b3e 9719 323d d90b 24be ea54 6c3c

lstm.bias_hh_l0 f4 [40]
-0.23604892 0.22488059 -0.24194314 0.19085221 0.17766632 -0.046489857 0.32212496 -0.3015356
0.38338545 0.14081375 -0.24078983 -0.11359302 0.27765697 -0.17181338 -0.036439124 0.24326073
-0.08388575 -0.06731752 0.21080759 -0.13312265 0.06296338 -0.34454793 -0.2600443 -0.20048976
0.09691175 0.2883979 0.3750275 0.07708303 -0.17128055 0.38895905 0.19917908 0.26582754
0.11067062 0.12778524 0.3915864 0.34822217 -0.08031696 0.2304307 -0.06306935 -0.05549235
00000000: cfb6 71be 1947 663e f1bf 77be c36e 433e
00000010: 29ee 353e 266c 3ebd 90ed a43e e062 9abe
00000020: 194b c43e 7b31 103e 9c91 76be 75a3 e8bd
00000030: 0e29 8e3e d9ef 2fbe 3141 15bd 5719 793e
00000040: 4bcc abbd c5dd 89bd f2dd 573e 4e51 08be
00000050: f2f2 803d 9668 b0be 8724 85be 304d 4dbe
00000060: ab79 c63d e4a8 933e 9b03 c03e b5dd 9d3d
00000070: 2b64 2fbe a425 c73e 9af5 4b3e 8c1a 883e
00000080: 47a7 e23d 22da 023e 037e c83e 2d4a b23e
00000090: 387d a4bd 07f6 6b3e 812a 81bd f24b 63bd

lstm.weight_ih_l1 f4 [40, 10]
-0.3010133 0.17254277 0.32401595 -0.20513256 0.011682663 -0.06224483 -0.17293485 -0.078472026
0.1002372 -0.106995575 0.30829662 -0.18288048 -0.090522215 0.16351132 -0.123419315 0.1281592
0.18111157 -0.030304903 0.19091356 0.13188213 -0.2834996 -0.17523484 -0.24471161 0.154972
0.2009996 0.278688 0.10250134 -0.23109025 0.2779018 0.065955184 -0.007237561 -0.15888761
0.052599248 0.17707 -0.038174316 0.023530426 -0.11395798 -0.094171084 -0.08050052 0.4044957
0.26456735 -0.082398064 0.020906018 -0.09898183 0.25542504 0.2452938 0.18367209 -0.027082905
-0.30163413 -0.203823 0.24244756 -0.10666384 -0.38756236 0.24802062 0.30590943 -0.074605316
0.33082017 -0.20791481 -0.06184479 0.15976152 -0.21578631 0.27074447 -0.042749032 -0.1747786
0.29492676 -0.059984364 0.0023976404 -0.2564883 -0.21246056 0.35316604 0.31516105 -0.18132724
0.056632627 0.14729431 0.12623763 0.29287684 -0.08628033 0.22045444 -0.30647242 -0.17163512
-0.25136685 -0.25048852 0.037869558 0.2057522 -0.095528275 -0.18082178 0.0132823605 -0.2008735
-0.18369554 -0.22785866 -0.3176224 -0.051297225 0.062275495 -0.18222855 -0.25462684 0.20494273
0.022685317 -0.09032088 -0.16743436 -0.35891008 -0.23909128 -0.11213005 0.22811435 -0.072598256
-0.27912125 -0.15385832 0.00450016 0.16272017 0.29481986 -0.3423322 0.0024121227 0.18454543
0.26393405 -0.16648014 0.10001977 0.19223824 0.06342342 0.2650526 0.080810204 0.069965996
0.074048914 0.11802263 -0.07545537 0.054417316 -0.04508197 0.07282255 -0.02391264 -0.1276707
-0.08975958 -0.16753589 -0.23786129 0.27045837 -0.12048757 0.005612753 -0.0383381 0.36850572
0.30708456 -0.25173447 -0.13182454 -0.1878799 0.28031343 -0.2880619 -0.040788047 0.10817234
0.2066318 -0.16716507 0.35480952 -0.17374311 0.060307935 -0.0445194 -0.14254673 -0.13386905
-0.010449786 -0.21447343 -0.14368036 0.34499723 0.28270304 -0.24249452 0.07210093 0.07118903
-0.23732646 0.046556827 -0.15957558 -0.0017678869 -0.18547758 0.37496808 -0.22517152 -0.10328544
0.09449464 0.007952924 0.32560053 0.16104852 -0.08850143 -0.09735268 0.26898336 0.16677
0.1757599 0.105586894 -0.3448238 0.18861705 -0.21353571 -0.13034345 0.092133425 -0.03321939
0.22358017 0.24334307 -0.21007103 0.18270977 0.27804756 0.23186068 0.01765925 -0.28094697
0.043942742 0.24974653 -0.14922033 0.21722397 -0.14398316 -0.14568615 0.12279338 0.21062249
0.30203784 -0.25546217 -0.15259248 0.28593186 -0.076852925 0.07088618 0.27436778 0.073627755
0.1964295 0.22295721 -0.054459095 -0.1513929 -0.3127753 0.018140163 -0.13063198 -0.09158841
-0.18550873 0.015718576 -0.1837284 0.05139543 0.3255639 0.08386633 -0.34442922 0.05570962
-0.080509305 -0.0045882934 -0.08295659 0.053777013 -0.19293107 0.3404934 0.11847291 -0.10545865
-0.1266705 0.056871872 -0.072639346 0.23129977 0.26026303 0.12805507 0.15003818 0.38752922
-0.1402981 0.19974478 -0.013492135 -0.100538865 -0.071442276 -0.08705191 -0.19631444 -0.3453515
-0.052459143 -0.14354336 -0.3112135 0.19628869 -0.08932296 -0.09220368 -0.011617697 -0.017197905
00000000: 6a1e 9abe 0daf 303e 6be5 a53e 450e 52be
00000010: a468 3f3c 6ff4 7ebd d515 31be f1b5 a0bd
00000020: 2949 cd3d 7f20 dbbd 0ed9 9d3e 0545 3bbe
00000030: b663 b9bd 836f 273e 44c3 fcbd 2a3c 033e
00000040: 5075 393e fd41 f8bc d87e 433e 1c0c 073e
00000050: dc26 91be c370 33be ae95 7abe fbb0 1e3e
00000060: d7d2 4d3e 32b0 8e3e 39ec d13d eca2 6cbe
00000070: 2549 8e3e 8313 873d 1029 edbb 6fb3 22be
00000080: 4f72 573d d751 353e ac5c 1cbd e1c2 c03c
00000090: cd62 e9bd c5dc c0bd 75dd a4bd 0f1a cf3e
000000a0: 5f75 873e 51c0 a8bd 1943 ab3c fcb6 cabd
000000b0: 12c7 823e 4c2e 7b3e 8914 3c3e f8dc ddbc
000000c0: ca6f 9abe fab6 50be 2c44 783e 9272 dabd
000000d0: 936e c6be 1ef9 7d3e 29a0 9c3e acca 98bd
000000e0: 4361 a93e 9fe7 54be f650 7dbd 8698 233e
000000f0: 16f7 5cbe 059f 8a3e 9c19 2fbd 29f9 32be
00000100: a400 973e 2ab2 75bd bb21 1d3b 6f52 83be
00000110: 438f 59be 2ed2 b43e ca5c a13e d9ad 39be
00000120: 9df7 673d 52d4 163e 7044 013e f4f3 953e
00000130: beb3 b0bd cfbe 613e f4e9 9cbe 1ec1 2fbe
00000140: 28b3 80be 0840 80be 1c1d 1b3d b4b0 523e
00000150: 54a4 c3bd 5829 39be 429e 593c c8b1 4dbe
00000160: af1a 3cbe c853 69be 679f a2be 0a1d 52bd
00000170: 9714 7f3d 1f9a 3abe 735e 82be 82dc 513e
00000180: 8fd6 b93c 27fa b8bd ea73 2bbe 10c3 b7be
00000190: 58d4 74be 71a4 e5bd cf96 693e 65ae 94bd
000001a0: fbe8 8ebe 098d 1dbe 1476 933b 1ea0 263e
000001b0: a1f2 963e 2b46 afbe b414 1e3b 7af9 3c3e
000001c0: 5d22 873e c579 2abe 2ad7 cc3d 1ada 443e
000001d0: 23e4 813d f9b4 873e d27f a53d 554a 8f3d
000001e0: f5a6 973d d9b5 f13d 5888 9abd b1e4 5e3d
000001f0: dfa7 38bd fd23 953d 71e4 c3bc 1cbc 02be
00000200: dfd3 b7bd 878e 2bbe e991 73be 8579 8a3e
00000210: 30c2 f6bd 2feb b73b 6908 1dbd c8ac bc3e
00000220: 303a 9d3e 57e3 80be 03fd 06be 9763 40be
00000230: 3e85 8f3e d97c 93be 5e11 27bd 7689 dd3d
00000240: 4997 533e 522d 2bbe 98a9 b53e b7e9 31be
00000250: 7405 773d f959 36bd c5f7 11be f814 09be
00000260: 9435 2bbc ec9e 5bbe f220 13be 7aa3 b03e
00000270: 74be 903e 7c50 78be a7a9 933d 8ecb 913d
00000280: b505 73be 5fb2 3e3d c867 23be 71b8 e7ba
00000290: d6ed 3dbe d1fb bf3e 5d93 66be 5187 d3bd
000002a0: 6886 c13d fb4c 023c 1db5 a63e e7e9 243e
000002b0: 3d40 b5bd d860 c7bd 30b8 893e c1c5 2a3e
000002c0: 67fa 333e f13d d83d bf8c b0be d424 413e
000002d0: 1ba9 5abe c178 05be 73b0 bc3d 0e11 08bd
000002e0: 33f2 643e ed2e 793e dc1c 57be 4518 3b3e
000002f0: 405c 8e3e e36c 6d3e 22aa 903c 48d8 8fbe
00000300: 4efd 333d 8ebd 7f3e 37cd 18be f66f 5e3e
00000310: 5270 13be c02e 15be 187b fb3d 6cad 573e
00000320: b4a4 9a3e f0cb 82be 3441 1cbe a965 923e
00000330: 1165 9dbd c62c 913d ef79 8c3e 26ca 963d
00000340: d124 493e e54e 643e 8010 5fbd be06 1bbe
00000350: 1624 a0be ae9a 943c 64c4 05be b492 bbbd
00000360: 00f6 3dbe 3ec4 803c 4c23 3cbe 0484 523d
00000370: 50b0 a63e 1cc2 ab3d 0759 b0be c52f 643d
00000380: 10e2 a4bd 6559 96bb 25e5 a9bd 4945 5c3d
00000390: b98f 45be 2755 ae3e eda1 f23d b4fa d7bd
000003a0: e9b5 01be 7bf2 683d f0c3 94bd d9d9 6c3e
000003b0: 3241 853e de20 033e 9ca3 193e 3b6a c63e
000003c0: 4eaa 0fbe e589 4c3e 1e0e 5dbc 52e7 cdbd
000003d0: 5450 92bd 4648 b2bd a706 49be e9d1 b0be
000003e0: 66df 56bd 08fd 12be 6057 9fbe e7ff 483e
000003f0: f5ee b6bd 48d5 bcbd 2758 3ebc 9fe2 8cbc

lstm.weight_hh_l1 f4 [40, 10]
0.05490541 -0.2763565 0.12774897 0.11429414 0.10465417 -0.038479116 -0.16949864 0.19339648
0.015183449 -0.2097299 0.1656278 -0.19686668 0.14165977 0.13208547 0.20741472 0.22363384
-0.11146514 -0.0038359973 0.24537595 0.04860888 0.06969745 0.17276454 0.16592462 0.059849422
0.18450224 -0.031734727 0.065503865 -0.10619441 -0.13879399 0.099021606 0.25048244 0.22661372
0.18421939 0.15925848 -0.13720748 0.19884339 0.025093164 0.10420012 -0.17489457 -0.05170195
0.36806172 -0.05330611 -0.22558236 0.19626237 0.14198188 -0.15130268 -0.0036271843 -0.2251593
0.16561034 -0.21044032 0.01125858 0.33360368 -0.13766354 0.36582753 -0.06648068 -0.35896194
0.24214053 -0.14658812 0.16441573 -0.10789741 -0.20866476 -0.06524677 0.15125933 0.311448
-0.3494661 -0.037217665 -0.11872043 0.15111023 -0.32156637 0.00079721765 -0.03610246 -0.025306955
-0.09408747 -0.22062233 0.1774983 0.15166709 0.09670103 -0.17626874 0.26863545 -0.20647421
0.029417252 0.16924325 -0.24123318 0.12131372 -0.021493992 -0.048516802 -0.25859421 0.26931253
0.30462053 0.25852397 -0.2210695 -0.10419398 -0.07220133 0.16266409 -0.15416649 -0.059486683
0.16136764 -0.11025243 -0.15505905 0.06996351 -0.11037038 0.036020134 0.13102189 -0.28156573
-0.17550935 0.18410891 0.25470072 0.012646226 0.09257532 0.238461 0.1901067 0.25385436
0.08976812 -0.15416019 -0.097019486 -0.12182267 0.15167654 0.1254374 0.17526838 -0.2764157
-0.3221753 -0.27714992 -0.21516088 -0.013554855 0.30649462 -0.17249638 0.22273241 0.0953998
-0.15005428 -0.11093781 0.17648935 0.24054216 -0.010235817 0.19599515 -0.27753806 -0.1338084
-0.033157576 -0.2541918 0.046072453 -0.044118904 0.33953437 0.09695876 0.106476374 -0.16733421
-0.21246025 -0.015369152 0.3394319 0.044514094 -0.15087993 0.2157068 -0.04017792 0.19165453
-0.074650116 0.30955702 -0.36511806 -0.019395169 0.30848625 -0.25576207 0.023054175 0.036978725
0.15644366 -0.20938824 -0.23564342 -0.026189014 0.0032890134 -0.29861408 0.1342758 -0.3206082
0.21087162 -0.34755057 0.15423147 -0.14438894 -0.020580182 0.3024131 -0.17505163 -0.03169986
0.11960004 -0.2220197 0.07490889 -0.04452079 -0.10133808 -0.15611121 -0.160298 -0.33940557
-0.16084501 0.3061996 -0.20146826 -0.056410488 0.20972691 0.32872048 0.25207058 -0.012177193
-0.1437862 -0.30520165 -0.064603396 0.2449321 -0.29089633 -0.026288908 -0.0494557 0.13880971
-0.27795762 0.13585469 -0.22491424 -0.26824674 0.098933615 -0.050921198 0.08641722 -0.19890703
0.33056656 0.2855632 -0.1649843 0.2512254 0.07548235 0.037402574 -0.14648524 -0.03861761
0.35610676 -0.3558235 0.06579052 0.18624097 -0.0872425 -0.25603393 -0.05287439 0.22785285
0.16332233 0.22105303 -0.23975876 -0.19705778 -0.25130245 -0.25167364 -0.044222813 0.30568045
-0.33508968 0.33727756 -0.26281872 -0.12486938 -0.11514492 -0.32561198 -0.04631296 -0.0114242155
-0.3598367 0.09918405 -0.09514415 -0.18522815 0.16655245 0.26073223 0.055437047 0.28754607
0.28277028 -0.18895087 0.25666347 -0.30174658 -0.04845651 0.010230007 -0.16048425 -0.084931
00000000: 7fe4 603d 997e 8dbe a0d0 023e 0c13 ea3d
00000010: ed54 d63d 479c 1dbd 0d91 2dbe ba09 463e
00000020: 00c4 783c 6fc3 56be 569a 293e 6b97 49be
00000030: 420f 113e 6a41 073e 8664 543e 4500 653e
00000040: d647 e4bd 5b65 7bbb d543 7b3e 1b1a 473d
00000050: 89bd 8e3d 30e9 303e 25e8 293e ab24 753d
00000060: 28ee 3c3e 46fc 01bd e426 863d 747c d9bd
00000070: 0320 0ebe d7cb ca3d 3c3f 803e 6d0d 683e
00000080: 02a4 3c3e a814 233e 1e80 0cbe 9a9d 4b3e
00000090: 2e90 cd3c df66 d53d 9017 33be 6dc5 53bd
000000a0: 9672 bc3e 8257 5abd 10ff 66be 01f9 483e
000000b0: b363 113e 17ef 1abe 0eb6 6dbb 2990 66be
000000c0: c295 293e ab7d 57be e875 383c 1ace aa3e
000000d0: acf7 0cbe bf4d bb3e 0627 88bd dcc9 b7be
000000e0: b0f3 773e 321b 16be 995c 283e 51f9 dcbd
000000f0: 37ac 55be 19a0 85bd bae3 1a3e 1d76 9f3e
00000100: 38ed b2be 8d71 18bd b223 f3bd a4bc 1a3e
00000110: 59a4 a4be 5ffc 503a 2ce0 13bd 8850 cfbc
00000120: eeb0 c0bd d2ea 61be 1dc2 353e 9e4e 1b3e
00000130: 310b c63d cb7f 34be 968a 893e fa6d 53be
00000140: 73fc f03c 1a4e 2d3e d505 77be 5473 f83d
00000150: 2b14 b0bc 8eb9 46bd 7666 84be 55e3 893e
00000160: 39f7 9b3e 415d 843e 0b60 62be a763 d5bd
00000170: 4ade 93bd 6a91 263e d2dd 1dbe 4fa8 73bd
00000180: 8f3d 253e 07cc e1bd cdc7 1ebe 0749 8f3d
00000190: de09 e2bd d989 133d 9a2a 063e 6229 90be
000001a0: b9b8 33be 0c87 3c3e 2268 823e 1e32 4f3c
000001b0: 2198 bd3d 1f2f 743e 55ab 423e 33f9 813e
000001c0: 59d8 b73d 2bdc 1dbe 27b2 c6bd 2a7e f9bd
000001d0: 1851 1b3e a972 003e 8e79 333e 5c86 8dbe
000001e0: 29f4 a4be 98e6 8dbe 2253 5cbe 2f15 5ebc
000001f0: ddec 9c3e e4a2 30be f713 643e f860 c33d
00000200: d4a7 19be 5d33 e3bd a0b9 343e af50 763e
00000210: 21b4 27bc f4b2 483e 7819 8ebe 1205 09be
00000220: 3dd0 07bd 6d25 82be 78b6 3c3d 06b6 34bd
00000230: 73d7 ad3e 5092 c63d 4910 da3d a959 2bbe
00000240: 2e8f 59be e5ce 7bbc 05ca ad3e 6954 363d
00000250: 4580 1abe 3ee2 5c3e 9a91 24bd 1641 443e
00000260: 29e2 98bd 427e 9e3e c1f0 babe 9ee2 9ebc
00000270: e9f1 9d3e 3ff3 82be 1cdc bc3c 0177 173d
00000280: c432 203e df69 56be 824c 71be 588a d6bc
00000290: 7d8c 573b f2e3 98be 987f 093e c226 a4be
000002a0: bbee 573e 26f2 b1be dbee 1d3e b2da 13be
000002b0: c597 a8bc e4d5 9a3e bc40 33be b6d7 01bd
000002c0: def0 f43d 2259 63be d569 993d 6f5b 36bd
000002d0: 578a cfbd 9edb 1fbe 2925 24be 91c6 adbe
000002e0: 8eb4 24be 32c6 9c3e b24d 4ebe af0e 67bd
000002f0: a7c2 563e 0d4e a83e 650f 813e d982 47bc
00000300: b13c 13be 6443 9cbe c94e 84bd 7bcf 7a3e
00000310: 5df0 94be d65b d7bc 0f92 4abd 2224 0e3e
00000320: 7650 8ebe 7e1d 0b3e eb4f 66be a357 89be
00000330: b59d ca3d bf92 50bd 83fb b03d 49ae 4bbe
00000340: 0540 a93e 5735 923e a5f1 28be 9ea0 803e
00000350: 7e96 9a3d 7133 193d 3a00 16be 802d 1ebd
00000360: a053 b63e 7f2e b6be 2ebd 863d f4b5 3e3e
00000370: 32ac b2bd e116 83be d192 58bd 4252 693e
00000380: f83d 273e ba5b 623e 5283 75be 84c9 49be
00000390: b7aa 80be 5edb 80be fb22 35bd 2682 9c3e
000003a0: e090 abbe a5af ac3e 2d90 86be 84bb ffbd
000003b0: 1ad1 ebbd 9db6 a6be a9b2 3dbd a22c 3bbc
000003c0: 843c b8be 0221 cb3d f0da c2bd 73ac 3dbe
000003d0: ba8c 2a3e b27e 853e f511 633d 3d39 933e
000003e0: 44c7 903e 567c 41be 6569 833e 877e 9abe
000003f0: 557a 46bd c29b 273c fc55 24be 4ef0 adbd

lstm.bias_ih_l1 f4 [40]
0.11350301 0.33466133 0.25531995 0.27067402 0.009977706 -0.060462352 0.2702697 0.03880019
-0.18425149 -0.29990548 -0.21443698 0.23774886 0.14165607 0.08971319 -0.20206505 0.1719927
0.35750586 -0.15945974 -0.09648248 -0.3080617 0.1254063 -0.14464815 0.10463071 0.046701152
-0.15089807 -0.27334887 0.14249155 -0.18230475 -0.14286862 -0.12034893 0.009691767 0.14806594
-0.08755265 0.027764058 -0.15507072 0.025656248 0.34910053 0.2031386 0.07862273 -0.30127302
00000000: 4474 e83d bb58 ab3e 4cb9 823e c995 8a3e
00000010: 8879 233c 5fa7 77bd ca60 8a3e f3ec 1e3d
00000020: 6cac 3cbe 368d 99be 5e95 5bbe 7074 733e
00000030: 4a0e 113e 8dbb b73d 24ea 4ebe db1e 303e
00000040: 020b b73e 6a49 23be 9b98 c5bd 43ba 9dbe
00000050: 826a 003e a51e 14be a048 d63d b549 3f3d
00000060: 0685 1abe 62f4 8bbe 4ee9 113e 19ae 3abe
00000070: 274c 12be 8079 f6bd 38ca 1e3c 999e 173e
00000080: ce4e b3bd 7371 e33c dcca 1ebe 0d2d d23c
00000090: 4ebd b23e 9103 503e f404 a13d 7540 9abe

lstm.bias_hh_l1 f4 [40]
-0.18773639 -0.020168234 0.24849316 -0.18727893 0.37545222 0.032437395 -0.015588225 -0.008541878
-0.04272512 0.06553089 0.10315213 0.07083848 0.0412123 -0.05803746 0.36948588 -0.21377102
0.10892972 0.308214 -0.22448921 0.25519004 -0.11979003 0.2830326 -0.23735571 0.019238213
-0.20762666 -0.3619259 0.10467888 -0.10137833 0.09977479 -0.16353402 -0.22001217 0.16104303
-0.09750941 0.2619551 0.36210662 0.118263446 0.2314186 0.27310112 0.1395087 0.12703913
00000000: f83d 40be da37 a5bc fe74 7e3e 0cc6 3fbe
00000010: 463b c03e 13dd 043d c165 7fbc 3cf3 0bbc
00000020: 8900 2fbd 0f35 863d 6d41 d33d c413 913d
00000030: 3bce 283d b0b8 6dbd 412d bd3e cae6 5abe
00000040: 8c16 df3d 3ace 9d3e 80e0 65be 45a8 823e
00000050: 7a54 f5bd a6e9 903e 600d 73be 7599 9d3c
00000060: 159c 54be 5a4e b9be e161 d63d 719f cfbd
00000070: ba56 cc3d 7675 27be df4a 61be 77e8 243e
00000080: 03b3 c7bd fb1e 863e 0a66 b93e 1b34 f23d
00000090: fff8 6c3e e9d3 8b3e 5edb 0e3e 8c16 023e

lstm.weight_ih_l2 f4 [40, 10]
0.10780849 0.07321385 -0.18164714 0.07042457 0.15305069 -0.11677209 -0.15350823 0.048205856
0.12770478 0.024108795 -0.32955533 -0.2829687 0.15893438 0.05518846 0.13212821 0.28623307
-0.085369326 -0.102152035 -0.15518434 -0.13640243 0.2335367 -0.23020847 0.2207606 0.1135708
0.021148745 0.16227882 -0.09518328 0.06034701 -0.2586775 -0.24978758 -0.21601623 0.110045664
-0.1343735 0.15020755 -0.25096622 -0.15250568 -0.04294144 0.1775742 0.11375724 -0.38300094
-0.057977404 -0.025560496 -0.11960095 0.14206481 -0.13070697 -0.055925798 0.050484665 -0.0171161
-0.1739943 0.23069422 -0.07436005 -0.19142535 -0.17117052 0.20245367 0.16750202 -0.017436791
0.12102496 0.25610316 -0.23969702 -0.24172887 -0.16879678 0.18963923 0.25257862 0.27823493
0.03793225 -0.32642016 0.38624918 -0.086710155 -0.13300759 0.15825105 0.13221432 0.008795102
-0.06868076 0.31831363 0.23315632 -0.25258288 0.21094802 -0.22805268 0.087734796 0.2615379
-0.009772531 0.16879053 0.076626934 0.22652486 0.12563387 -0.2023842 0.08597403 0.30678186
-0.20838322 -0.03707428 0.31869456 0.31645 -0.12591621 0.20481572 -0.2880669 -0.3645226
-0.12236491 -0.009011705 0.20487593 0.024427729 0.32589814 0.07302027 -0.28421408 -0.04845152
-0.081781246 -0.120252974 0.24164331 -0.1301516 -0.17540681 -0.18908912 -0.31862107 -0.22741404
0.19462444 0.036101922 -0.18519345 0.28237122 -0.3387109 -0.21525076 0.03523095 0.26831606
-0.284137 -0.2643055 -0.25934294 -0.27641737 0.20380102 0.04150105 0.015960138 0.045728084
0.24927883 -0.11668753 -0.19385779 -0.09833896 -0.24415646 0.09569373 -0.064456694 0.047364816
0.38730243 0.18175179 0.24560438 -0.23651594 0.37438002 -0.15565108 0.19764589 0.37811622
-0.3098151 0.15432216 -0.11039708 -0.10550301 -0.10451736 -0.23582597 -0.046454865 -0.0687037
0.2694775 -0.17291783 0.22917503 0.028066102 0.20632942 -0.29150426 -0.021724237 0.25031224
0.27311358 0.11717004 -0.15824923 0.36795613 -0.22808476 -0.29383883 0.36401737 -0.15723589
-0.024467895 0.24561632 0.01596576 -0.26163667 0.23772208 0.22619396 0.075987995 -0.124509916
0.014177493 -0.1982442 0.15544754 0.23630263 -0.21740949 0.19445452 -0.08924849 0.09648435
0.07311064 -0.1368847 0.03487959 0.16057333 -0.016330542 -0.14192124 0.2096953 0.36099282
-0.071937606 0.24011917 -0.37770036 -0.2152947 0.27878663 -0.3544063 0.083474986 -0.29233924
0.3334855 0.17787029 -0.18448982 -0.12847489 -0.23795204 -0.09366646 0.33869538 -0.36526677
0.14008732 -0.01324483 0.1825655 0.043293826 -0.07924971 0.023021717 -0.24378923 0.039383177
-0.26573488 0.27193046 0.24335904 0.06890484 0.12218772 -0.2262697 -0.20770618 -0.13671832
0.27026185 -0.12676667 0.21152128 0.043628976 0.16003208 -0.0052147275 0.1804715 0.029606463
-0.18981256 -0.09023325 0.083394326 -0.33994344 -0.06575429 -0.12910417 -0.029954426 -0.0644394
0.13352336 -0.34601346 -0.16045593 0.036358457 -0.11567083 -0.13820097 0.020764777 0.36401334
-0.22931482 -0.20574868 0.19485497 -0.1987193 0.04758914 -0.1508553 -0.028156757 -0.15402351
00000000: b3ca dc3d 25f1 953d b501 3abe c23a 903d
00000010: 52b9 1c3e 3526 efbd 4331 1dbe 8173 453d
00000020: 0bc5 023e cf7f c53c 7abb a8be 46e1 90be
00000030: b2bf 223e 4b0d 623d 9e4c 073e 248d 923e
00000040: 1dd6 aebd 1635 d1bd a5e8 1ebe 14ad 0bbe
00000050: 3f24 6f3e c5bb 6bbe 110f 623e cf97 e83d
00000060: 2240 ad3c 6b2c 263e 74ef c2bd 6d2e 773d
00000070: 6171 84be 51c8 7fbe 5c33 5dbe 9f5f e13d
00000080: 3599 09be 02d0 193e a57e 80be 732a 1cbe
00000090: 5de3 2fbd 03d6 353e 8ef9 e83d b318 c4be
000000a0: b779 6dbd 3f64 d1bc 58f1 f4bd 7079 113e
000000b0: 0cd8 05be 7312 65bd 02c9 4e3d 1037 8cbc
000000c0: 902b 32be 1b3b 6c3e 154a 98bd 0205 44be
000000d0: 5347 2fbe 0450 4f3e a685 2b3e 9ad7 8ebc
000000e0: efdb f73d f41f 833e 2373 75be c687 77be
000000f0: 10d9 2cbe c930 423e fc51 813e cf74 8e3e
00000100: d95e 1b3d 8b20 a7be 74c2 c53e 1895 b1bd
00000110: 2433 08be 900c 223e 3163 073e 5519 103c
00000120: 80a8 8cbd 01fa a23e 88c0 6e3e 8b52 81be
00000130: c202 583e a486 69be 4dae b33d 4ce8 853e
00000140: f71c 20bc 6dd7 2c3e 95ee 9c3d 22f6 673e
00000150: 2aa6 003e ce3d 4fbe 2713 b03d 8312 9d3e
00000160: 6962 55be 33db 17bd ef2b a33e bc05 a23e
00000170: 2ef0 00be 36bb 513e 817d 93be b5a2 babe
00000180: 749a fabd d5a5 13bc ffca 513e a91c c83c
00000190: 1fdc a63e a78b 953d 8284 91be 1a75 46bd
000001a0: ed7c a7bd 3147 f6bd 5871 773e 7646 05be
000001b0: d89d 33be 94a0 41be 4d22 a3be 3adf 68be
000001c0: a14b 473e 9cdf 133d 5aa3 3dbe f692 903e
000001d0: 846b adbe b26a 5cbe 544e 103d b960 893e
000001e0: 687a 91be 0d53 87be 99c8 84be 9486 8dbe
000001f0: 37b1 503e 01fd 293d d6be 823c 5f4d 3b3d
00000200: f342 7f3e dff9 eebd a882 46be f065 c9bd
00000210: 2704 7abe 13fb c33d df01 84bd 9c01 423d
00000220: 814c c63e 241d 3a3e b77f 7b3e 3c31 72be
00000230: bdae bf3e ff62 1fbe af63 4a3e 7398 c13e
00000240: 16a0 9ebe a106 1e3e dd17 e2bd f611 d8bd
00000250: 330d d6bd 5d7c 71be 7547 3ebd 87b4 8cbd
00000260: f4f8 893e 5f11 31be dcac 6a3e e2ea e53c
00000270: 0548 533e 0c40 95be 07f7 b1bc ed28 803e
00000280: 8bd5 8b3e d9f6 ef3d 160c 22be bf64 bc3e
00000290: 0d8f 69be 0b72 96be 7c60 ba3e 7202 21be
000002a0: e570 c8bc d882 7b3e a0ca 823c 3ef5 85be
000002b0: 6b6d 733e 649f 673e 989f 9b3d 0eff febd
000002c0: b748 683c 8700 4bbe a42d 1f3e 51f9 713e
000002d0: 98a0 5ebe 161f 473e eac7 b6bd 9699 c53d
000002e0: 08bb 953d 812b 0cbe e7dd 0e3d 566d 243e
000002f0: a1c7 85bc cd53 11be 5dba 563e 0dd4 b83e
00000300: 0654 93bd cde1 753e f161 c1be 3776 5cbe
00000310: 1fbd 8e3e be74 b5be eff4 aa3d 7dad 95be
00000320: 9dbe aa3e a123 363e e6ea 3cbe ec8e 03be
00000330: b3a9 73be 33d4 bfbd 7b69 ad3e 3f04 bbbe
00000340: 0d73 0f3e d800 59bc 73f2 3a3e de54 313d
00000350: ac4d a2bd 0a98 bc3c e2a3 79be 4150 213d
00000360: 670e 88be 783a 8b3e 1d33 793e fb1d 8d3d
00000370: 8e3d fa3d 3fb3 67be eeb0 54be e3ff 0bbe
00000380: c35f 8a3e 1fcf 01be 0999 583e 4cb4 323d
00000390: 73df 233e 4ee0 aabb 85cd 383e 4189 f23c
000003a0: 395e 42be 36cc b8bd a5ca aa3d 110d aebe
000003b0: 2faa 86bd e233 04be fc62 f5bc cef8 83bd
000003c0: 59ba 083e ad28 b1be 8f4e 24be 9bec 143d
000003d0: d4e4 ecbd 8e84 0dbe e51a aa3c f55f ba3e
000003e0: 81d1 6abe c8af 52be 1088 473e 127d 4bbe
000003f0: d4ec 423d d079 1abe 00a9 e6bc 57b8 1dbe

lstm.weight_hh_l2 f4 [40, 10]
0.00089205796 -0.076626316 0.08858001 0.18861215 -0.0596468 0.022138959 0.24022867 -0.043855257
-0.18088065 0.2027196 0.22879553 -0.020586034 0.010774736 0.06806602 -0.036598686 0.221034
-0.12873797 -0.11600688 0.15940046 -0.012165987 0.16704509 0.16592781 -0.08466324 -0.35094896
-0.08039986 0.023411054 -0.35782912 0.14521897 0.23206882 0.083846 0.080993265 0.34973577
0.14493372 -0.12276043 -0.31938675 -0.007894527 -0.22536968 -0.21627223 -0.06976448 -0.111846425
-0.03866259 0.25125822 0.27467346 0.112109154 -0.35471416 0.049387284 0.2576163 0.17754914
0.26196834 -0.33328027 0.30971935 0.17024265 -0.013855883 -0.15285605 -0.0050458126 0.14120887
0.044675663 -0.045792498 -0.19951503 -0.13305208 -0.19922613 0.35900328 -0.005418864 -0.122031935
0.055487316 -0.17781307 -0.05224245 0.009278271 -0.07185601 -0.18185489 -0.22692068 -0.24619272
0.27955264 0.058783684 -0.07057096 0.29110923 0.1719617 -0.015116468 0.15561296 -0.086646006
-0.07203962 -0.18959764 0.10702841 0.022102106 -0.2720065 -0.26172334 0.11475304 0.20685379
-0.04083014 0.10973646 -0.13128637 0.21676235 -0.05088051 0.030629462 -0.005667576 0.12492972
0.12419123 0.22622748 0.04474639 -0.07717661 -0.08390925 0.22993962 0.34151873 -0.25212255
-0.11560406 -0.004828489 -0.024310606 -0.20521584 -0.13935827 -0.12622562 0.050697293 0.19331911
-0.052012593 -0.027313491 0.07064023 0.041807167 -0.20057322 0.21790081 -0.16988792 -0.1030908
0.045556616 0.16019921 -0.23551826 -0.009184735 0.15235679 0.27884233 -0.24785249 0.10540143
0.26272532 -0.05252446 0.2092437 -0.013086498 -0.20299308 0.22581029 -0.07395575 -0.09917038
-0.115218006 -0.36210135 -0.22978775 -0.2045079 0.24633676 0.046033073 -0.13573335 0.16394405
0.22138911 -0.22311337 -0.09158856 -0.20701176 0.052218337 -0.21857847 0.069717444 -0.1499809
-0.2329039 -0.22203222 0.11675757 0.33554766 0.102918364 -0.118244156 -0.23411557 0.2781301
0.20751561 0.034002785 0.27735734 0.022202764 -0.26492 0.27521524 -0.10122434 -0.08021954
0.27375364 -0.29130214 0.07593538 0.29194507 0.11141243 0.020861924 -0.32274765 0.23300758
0.22076814 0.16645019 -0.048890263 -0.36073604 0.26059335 0.27635747 -0.11743628 0.22721508
0.15267791 -0.13224536 -0.2890907 -0.25510833 0.027671935 -0.12317369 0.2787103 0.21453454
0.14476028 -0.19145103 -0.2415587 0.26959684 0.1302843 -0.13294119 -0.20408675 0.14855014
0.155633 -0.07241303 -0.25222334 -0.119899444 0.19568852 -0.07045847 0.1620763 -0.2520417
-0.049065 0.09641634 -0.14025177 0.24748775 0.051457837 0.05376427 -0.18975815 0.248551
-0.022394668 0.2599671 0.022264395 0.09887634 -0.25527015 -0.010852362 -0.32957214 0.09422904
0.052491337 0.07213333 -0.27329105 -0.18242387 0.1373317 -0.15811303 -0.044894904 0.33479333
-0.20590976 0.17804147 -0.1789078 0.23126306 0.08794758 0.018158369 -0.109113544 -0.3444051
-0.18831371 -0.18827608 0.22699079 -0.26144475 -0.14881395 0.11610603 -0.35632673 0.16552012
0.17550395 0.14529678 0.21375154 -0.10293436 -0.27031687 -0.12373399 0.122584686 -0.14683037
00000000: ffd8 693a 42ee 9cbd 7069 b53d 8b23 413e
00000010: 3450 74bd c35c b53c 81fe 753e 92a1 33bd
00000020: c738 39be ba95 4f3e 6049 6a3e 0ba4 a8bc
00000030: 8588 303c 3366 8b3d 81e8 15bd bd56 623e
00000040: e3d3 03be 0495 edbd e039 233e d953 47bc
00000050: de0d 2b3e fbe8 293e ec63 adbd 95af b3be
00000060: afa8 a4bd 8ac8 bf3c 6135 b7be 48b4 143e
00000070: 73a3 6d3e 74b7 ab3d ccdf a53d 9110 b33e
00000080: 8169 143e d269 fbbd a986 a3be 0c58 01bc
00000090: 4fc7 66be 7876 5dbe aee0 8ebd bd0f e5bd
000000a0: aa5c 1ebd eba4 803e 00a2 8c3e 7c99 e53d
000000b0: 189d b5be 524a 4a3d 49e6 833e 71cf 353e
000000c0: b720 863e b6a3 aabe 8993 9e3e 1754 2e3e
000000d0: c903 63bc 4c86 1cbe 5857 a5bb 0f99 103e
000000e0: d4fd 363d ea90 3bbd ab4d 4cbe ce3e 08be
000000f0: ef01 4cbe 47cf b73e ba90 b1bb e1eb f9bd
00000100: ab46 633d a114 36be 2efc 55bd e403 183c
00000110: 3e29 93bd 2b38 3abe e55d 68be f219 7cbe
00000120: 8621 8f3e 29c7 703d 8287 90bd 450c 953e
00000130: ba16 303e 10ab 77bc 0159 1f3e 7673 b1bd
00000140: 8289 93bd e225 42be b631 db3d 7a0f b53c
00000150: 7044 8bbe 9a00 86be a403 eb3d 7bd1 533e
00000160: 813d 27bd 82bd e03d ef6f 06be f3f6 5d3e
00000170: 1568 50bd a3ea fa3c 13b7 b9bb 27db ff3d
00000180: f957 fe3d 2da8 673e fe47 373d c50e 9ebd
00000190: 9dd8 abbd 4b75 6b3e 8bdb ae3e 3516 81be
000001a0: d2c1 ecbd 4d38 9ebb 0927 c7bc 1a24 52be
000001b0: efb3 0ebe 4a41 01be f7a7 4f3d 72f5 453e
000001c0: 280b 55bd 8bc0 dfbc d3ab 903d fe3d 2b3d
000001d0: 1163 4dbe 6421 5f3e 19f7 2dbe 4521 d3bd
000001e0: 9399 3a3d 430b 243e b32b 71be 927b 16bc
000001f0: 6b03 1c3e 6cc4 8e3e 0bcd 7dbe b4dc d73d
00000200: ef83 863e e323 57bd fb43 563e c068 56bc
00000210: 6bdd 4fbe d03a 673e 1d76 97bd d719 cbbd
00000220: 6bf7 ebbd 5965 b9be 7b4d 6bbe 856a 51be
00000230: b43f 7c3e 2d8d 3c3d affd 0abe f3e0 273e
00000240: d4b3 623e d577 64be c892 bbbd e4fa 53be
00000250: e5e2 553d 09d3 5fbe 05c8 8e3d 9894 19be
00000260: 5c7e 6ebe 6a5c 63be 981e ef3d e7cc ab3e
00000270: ddc6 d23d fe29 f2bd febb 6fbe 1267 8e3e
00000280: f97e 543e 8146 0b3d c801 8e3e 92e2 b53c
00000290: 98a3 87be 03e9 8c3e b54e cfbd 244a a4bd
000002a0: 7029 8c3e 8e25 95be 0284 9b3d d379 953e
000002b0: 332c e43d a0e6 aa3c 2e3f a5be 8a99 6e3e
000002c0: 0b11 623e eb71 2a3e 2841 48bd 65b2 b8be
000002d0: 7e6c 853e ba7e 8d3e 6f82 f0bd 12ab 683e
000002e0: 9957 1c3e 546b 07be b203 94be 8f9d 82be
000002f0: 41b0 e23c 7d42 fcbd 1eb3 8e3e f1ae 5b3e
00000300: 0a3c 143e bd0b 44be 2a5b 77be 9908 8a3e
00000310: 3f69 053e bc21 08be 1efc 50be 871d 183e
00000320: 425e 1f3e 484d 94bd 6b23 81be d78d f5bd
00000330: 9262 483e 884c 90bd 54f7 253e 9c0b 81be
00000340: 62f8 48bd ee75 c53d 299e 0fbe 6e6d 7d3e
00000350: 74c5 523d ec37 5c3d f64f 42be 2784 7e3e
00000360: 0675 b7bc 681a 853e d263 b63c ae7f ca3d
00000370: c5b2 82be 1bce 31bc aebd a8be 28fb c03d
00000380: 2801 573d a4ba 933d ceec 8bbe 53cd 3abe
00000390: aea0 0c3e 62e8 21be b8e3 37bd 086a ab3e
000003a0: 02da 52be 8150 363e 9b33 37be 39d0 6c3e
000003b0: dc1d b43d dcc0 943c ec76 dfbd de55 b0be
000003c0: 4fd5 40be 72cb 40be 4670 683e 16dc 85be
000003d0: af62 18be 00c9 ed3d 7570 b6be 1b7e 293e
000003e0: 4fb7 333e aec8 143e afe1 5a3e 40cf d2bd
000003f0: f966 8abe 3f68 fdbd ae0d fb3d b35a 16be

lstm.bias_ih_l2 f4 [40]
-0.05299411 -0.08401468 -0.13117974 0.17861846 0.13972038 -0.017321086 -0.2092629 0.2573337
-0.13774939 -0.115968585 0.06927102 -0.27208456 0.038574476 -0.23215237 0.3437512 0.20202503
-0.16699694 0.1497043 0.17735787 0.036057632 0.2769413 0.05350667 0.095994055 -0.20429084
-0.2412355 0.34833217 0.27505642 0.0071330536 0.10982452 -0.19857241 0.13729075 -0.27296862
-0.02789438 0.3499646 0.08535196 0.2673777 0.075200364 -0.005812836 -0.18505126 -0.18888715
00000000: 5a10 59bd e30f acbd fb53 06be c2e7 363e
00000010: dc12 0f3e f3e4 8dbc 0349 56be 3ec1 833e
00000020: 2d0e 0dbe f080 edbd f7dd 8d3d ab4e 8bbe
00000030: 4500 1e3d 5ab9 6dbe 2800 b03e a6df 4e3e
00000040: 3f01 2bbe 164c 193e 4d9d 353e 2bb1 133d
00000050: 40cb 8d3e cf29 5b3d 8898 c43d 9e31 51be
00000060: 7006 77be 9858 b23e 32d4 8c3e 64bc e93b
00000070: aeeb e03d 9156 4bbe f295 0c3e 8bc2 8bbe
00000080: c182 e4bc 8f2e b33e 02cd ae3d bbe5 883e
00000090: a602 9a3d 9a79 bebb 147e 3dbe a26b 41be

lstm.bias_hh_l2 f4 [40]
0.26417577 -0.09628137 -0.16027348 -0.059779327 0.36965343 -0.24619529 0.36383593 0.18420677
-0.024687942 0.09721937 -0.035999123 0.054496802 -0.22872186 -0.17809568 0.05389686 0.17758793
0.043428723 -0.15902372 -0.3091159 0.15528543 0.21999876 0.2917398 0.12039907 0.36436743
0.08792216 -0.23992877 0.21892571 -0.31447628 -0.1695203 -0.08696066 -0.12016203 0.12148798
-0.25607207 0.2918235 0.14161742 0.11497334 0.07290345 -0.12721847 0.28776133 0.15705422
00000000: 0c42 873e 2b2f c5bd bb1e 24be 2bdb 74bd
00000010: 3743 bd3e 9e1a 7cbe b448 ba3e b3a0 3c3e
00000020: 5e3e cabc f31a c73d d173 13bd 0a38 5f3d
00000030: 1036 6abe b75e 36be f4c2 5c3d 9cd9 353e
00000040: 51e2 313d 1dd7 22be 7044 9ebe 2503 1f3e
00000050: 5b47 613e eb5e 953e ca93 f63d 5e8e ba3e
00000060: 8910 b43d e3af 75be 102e 603e 0903 a1be
00000070: bb96 2dbe 6e18 b2bd 8317 f6bd b1ce f83d
00000080: e11b 83be e469 953e 2804 113e 2477 eb3d
00000090: 674e 953d 8f45 02be 7455 933e d2d2 203e

fc.weight f4 [1, 10]
0.16766891 -0.06138176 -0.25439712 0.1961856 -0.1464581 0.20960139 0.21655983 -0.34742594
0.037511498 -0.14911091
00000000: 66b1 2b3e 716b 7bbd 5740 82be e1e4 483e
00000010: 1df9 15be bfa1 563e dcc1 5d3e d0e1 b1be
00000020: a8a5 193d 88b0 18be
