ec_l2o_log/mtl_0.5_1_1_0/lstm_unroll.pth (torch, 13115 bytes, 13 tensors)

lstm.weight_ih_l0 f4 [40, 2]
-0.52124214 -0.15810813 0.19753303 0.4411388 0.6389731 0.110117905 0.25990996 0.26278916
0.3932014 0.6378295 0.4030155 0.5013123 0.47431087 0.091655344 -0.022914587 0.14405456
0.62368304 0.5601373 0.7893345 0.72650033 -0.20223404 0.056295212 0.40340152 0.016429543
-0.030037258 0.10667752 0.52548844 0.07502185 0.24191873 0.4299535 0.2856686 0.17760822
0.041354433 -0.056216598 0.24496366 0.018518467 0.25886312 0.12462429 0.12980254 0.37887362
0.35089657 -0.0022136492 -0.3213749 -0.037354596 0.6276226 0.23441109 0.32561806 -0.101710156
0.59163505 0.38651705 -0.035227075 -0.016412364 -0.14560512 -0.13925421 0.025289278 -0.24420442
-0.031525724 0.31284544 -0.6798091 -0.35090274 -0.43318525 0.37493733 0.26881748 0.23361988
0.38294128 0.28558183 0.70628935 -0.021442162 0.56006217 0.4051802 0.5658399 0.12112882
0.44866222 0.094078586 0.22273019 0.08379617 0.4212981 0.5136393 0.3263167 0.89755404
00000000: 2070 05bf 19e7 21be 1946 4a3e f2dc e13e
00000010: be93 233f 7f85 e13d eb12 853e 4d8c 863e
00000020: b251 c93e cb48 233f 0c58 ce3e 0156 003f
00000030: e0d8 f23e ccb5 bb3d 5fb7 bbbc 0a83 133e
00000040: b1a9 1f3f 2865 0f3f d311 4a3f edfb 393f
00000050: 7116 4fbe cf95 663d a58a ce3e 4097 863c
00000060: b210 f6bc be79 da3d 6986 063f 0ea5 993d
00000070: 8bb9 773e dd22 dc3e 2843 923e eede 353e
00000080: 4463 293d 6043 66bd c1d7 7a3e 0ab4 973c
00000090: b589 843e 053b ff3d f5ea 043e b9fb c13e
000000a0: b7a8 b33e df12 11bb 408b a4be 2201 19bd
000000b0: e0ab 203f 7609 703e 69b7 a63e 6a4d d0bd
000000c0: 6575 173f 90e5 c53e 444a 10bd 3973 86bc
000000d0: 8219 15be a898 0ebe 762b cf3c b910 7abe
000000e0: 1e21 01bd 472d a03e f807 2ebf 86a9 b3be
000000f0: 75ca ddbe c9f7 bf3e 72a2 893e 0d3a 6f3e
00000100: e110 c43e c837 923e 61cf 343f 79a7 afbc
00000110: 3c60 0f3f c773 cf3e e2da 103f 6312 f83d
00000120: 0eb7 e53e 46ac c03d 6213 643e 549d ab3d
00000130: 62b4 d73e dd7d 033f fc12 a73e 1ac6 653f

lstm.weight_hh_l0 f4 [40, 10]
-0.09588661 0.08527469 -0.25215384 -0.070570186 -0.06410136 0.16305923 0.043023523 0.3708064
0.20230502 0.22052255 0.02611412 0.0031036674 -0.006665431 -0.12912025 0.34186402 -0.016925812
-0.11457953 0.11231874 0.098600805 -0.43399897 -0.18422553 -0.077115655 0.11718897 0.22781926
0.4834032 -0.22786683 -0.108375214 0.036429618 0.20293172 0.10964041 0.07260011 0.25430024
-0.14738367 0.34099007 0.25536737 -0.20564714 -0.33913836 0.012625512 -0.082933664 0.19159207
-0.26451513 -0.104969874 0.42895573 0.005301734 0.3925117 0.60192966 -0.520722 -0.15689479
0.73709404 -0.48590457 0.51436067 -0.23101147 0.24287473 0.1718357 -0.21971896 -0.27224806
0.22775446 0.07894976 -0.33174863 -0.007703493 0.3719941 -0.066651 0.011918486 -0.17191672
0.090470694 -0.0011434646 -0.32913056 0.013448518 0.12007964 0.08524533 0.26114544 -0.33039045
0.27446195 -0.15840387 -0.12079188 0.010448997 -0.15888986 -0.2682806 -0.16652931 -0.2709947
0.6967241 0.1597742 -0.091356814 -0.23943304 0.2963414 -0.19782886 0.3623432 -0.04686296
-0.5425663 0.03746255 -0.39316964 -0.19542068 0.44061682 0.41455582 0.22125782 0.4190979
-0.42083853 -0.29080728 0.03822897 0.04789219 -0.09764618 0.12653781 -0.10511713 0.07565759
-0.05190457 -0.38119492 -0.10258636 0.14031406 -0.16647232 -0.21104793 -0.16763279 -0.36565143
0.23169646 -0.024360847 -0.051060308 -0.13716741 -0.38152975 0.17993194 -0.2570041 -0.20880772
0.28938007 0.26771256 -0.027265253 0.33473685 0.48176718 -0.09921297 -0.11259062 -0.30679214
-0.28399986 0.19323751 0.08970942 0.18129686 -0.09647686 0.15751289 0.13514456 0.12812313
0.17930919 0.1628487 -0.03463259 -0.01796289 -0.28567815 -0.2620124 0.15303607 -0.034561276
-0.20084539 0.39539292 -0.07434885 -0.13295558 0.38365704 0.25765887 0.2574985 0.18031457
0.21421905 -0.12522641 -0.13661002 -0.18776561 0.09957511 -0.06533697 0.07182002 -0.31307083
0.044196166 -0.08067824 -0.007770522 -0.25045982 0.40817973 -0.16258939 0.033166014 0.083296776
0.1601626 -0.14835669 0.44099557 -0.17177224 0.30964082 0.14143118 -0.16534078 -0.28865266
0.028480316 -0.21267077 -0.22181125 -0.30794677 0.112889625 0.055050354 0.25987613 0.016588768
0.2861992 -0.30168226 0.16931963 -0.108302645 -0.22586209 -0.32471636 0.3767164 -0.2135371
0.30664572 0.096927 0.2020925 -0.08852287 0.21819991 0.116933815 -0.22160307 -0.2345013
-0.14817424 0.31029332 0.027985802 0.03845979 -0.012646834 -0.25549257 0.24484533 -0.15367848
-0.03463799 0.09215194 -0.044826318 -0.05477235 -0.31383222 0.21539152 0.12750433 0.14915138
0.06345987 0.18392383 0.24593896 0.1421157 0.012655196 0.018319637 -0.030060636 0.030269356
0.11335779 -0.3032386 0.19466408 -0.21218874 -0.07619704 0.3039656 0.45141527 -0.31450048
0.35814038 -0.043279454 0.207711 -0.25034502 -0.035751108 -0.3084375 -0.13266824 -0.0106515195
0.011182875 -0.04402107 0.14971331 -0.27580318 0.25678015 0.13204657 0.23780382 0.26196986
0.22347648 -0.12978 0.08934617 0.12709261 0.35087398 0.08242433 0.23069239 -0.1754186
00000000: 3360 c4bd 7fa4 ae3d 4f1a 81be 1a87 90bd
00000010: 9347 83bd 00f9 263e 6f39 303d 56da bd3e
00000020: 0c29 4f3e aad0 613e 47ed d53c e666 4b3b
00000030: b069 dabb 1938 04be cd08 af3e 00a8 8abc
00000040: aca8 eabd 5e07 e63d 38ef c93d 1d35 debe
00000050: 9ea5 3cbe d0ee 9dbd c500 f03d 7449 693e
00000060: a080 f73e ec55 69be d3f3 ddbd 3937 153d
00000070: 55cd 4f3e 278b e03d 5eaf 943d a433 823e
00000080: bfeb 16be 4096 ae3e 83bf 823e 2a95 52be
00000090: 8ba3 adbe 3cdb 4e3c 20d9 a9bd b630 443e
000000a0: 876e 87be 72fa d6bd 16a0 db3e 2bba ad3b
000000b0: 4bf7 c83e 1018 1a3f 094e 05bf 07a9 20be
000000c0: 32b2 3c3f 7cc8 f8be 24ad 033f 458e 6cbe
000000d0: 27b4 783e b3f5 2f3e 02fe 60be 1964 8bbe
000000e0: 7738 693e 69b0 a13d f5da a9be 956d fcbb
000000f0: 0376 be3e 5280 88bd c145 433c f00a 30be
00000100: b348 b93d 4ee0 95ba cd83 a8be 2c57 5c3c
00000110: 50ec f53d 1b95 ae3d dbb4 853e f028 a9be
00000120: 4786 8c3e a034 22be bc61 f7bd 4532 2b3c
00000130: 06b4 22be 135c 89be a986 2abe d1bf 8abe
00000140: 835c 323f d99b 233e 4819 bbbd ef2d 75be
00000150: 0fba 973e a693 4abe 0c85 b93e 60f3 3fbd
00000160: a0e5 0abf 5572 193d 884d c9be 5c1c 48be
00000170: 8798 e13e a940 d43e 6991 623e 0094 d63e
00000180: 2678 d7be b1e4 94be fb95 1c3d 9a2a 443d
00000190: b8fa c7bd 2193 013e a647 d7bd 5ef2 9a3d
000001a0: e399 54bd fb2b c3be cc18 d2bd 7dae 0f3e
000001b0: b877 2abe f31c 58be eea7 2bbe aa36 bbbe
000001c0: d641 6d3e 6690 c7bc 9d24 51bd 9d75 0cbe
000001d0: de57 c3be 1440 383e 0b96 83be b1d1 55be
000001e0: a029 943e 9f11 893e 615b dfbc a162 ab3e
000001f0: 30aa f63e 2b30 cbbd e995 e6bd dc13 9dbe
00000200: 6e68 91be 0ee0 453e 93b9 b73d e2a5 393e
00000210: a995 c5bd 0f4b 213e 5663 0a3e b632 033e
00000220: d49c 373e cfc1 263e e7da 0dbd e926 93bc
00000230: 6844 92be 7d26 86be 7db5 1c3e 2090 0dbd
00000240: 6aaa 4dbe f170 ca3e 3644 98bd 8225 08be
00000250: b26e c43e ddeb 833e d8d6 833e 62a4 383e
00000260: 3d5c 5b3e 5a3b 00be 7fe3 0bbe a145 40be
00000270: 09ee cb3d 64cf 85bd 6016 933d d24a a0be
00000280: 0a07 353d a23a a5bd dd9f febb 453c 80be
00000290: effc d03e d57d 26be 16d9 073d 8097 aa3d
000002a0: aa01 243e d1ea 17be 2cca e13e 10e5 2fbe
000002b0: 3e89 9e3e 56d3 103e 184f 29be 48ca 93be
000002c0: 8d4f e93c 5ec6 59be 7d22 63be 33ab 9dbe
000002d0: ad32 e73d 7b7c 613d 7c0e 853e 2be5 873c
000002e0: b488 923e 1976 9abe 2062 2d3e c7cd ddbd
000002f0: 6448 67be 3941 a6be f9e0 c03e 78a9 5abe
00000300: ab00 9d3e aa81 c63d 56f1 4e3e 7a4b b5bd
00000310: cc6f 5f3e ff7a ef3d eaeb 62be 1c21 70be
00000320: fdba 17be c4de 9e3e 7b42 e53c 0388 1d3d
00000330: ab34 4fbc eccf 82be bcb8 7a3e e45d 1dbe
00000340: 91e0 0dbd 28ba bc3d cd9b 37bd f958 60bd
00000350: 9eae a0be 988f 5c3e 7f90 023e 24bb 183e
00000360: 40f7 813d 8756 3c3e 6cd7 7b3e c786 113e
00000370: bd57 4f3c 1013 963c b941 f6bc 71f7 f73c
00000380: 2128 e83d 1742 9bbe 0556 473e 0148 59be
00000390: 320d 9cbd 61a1 9b3e e71f e73e 3506 a1be
000003a0: 2d5e b73e cc45 31bd 31b2 543e 392d 80be
000003b0: c16f 12bd 85eb 9dbe 2fda 07be b683 2ebc
000003c0: 6138 373c 704f 34bd 724e 193e 1336 8dbe
000003d0: b078 833e 3737 073e d882 733e ea20 863e
000003e0: 05d7 643e 0ce5 04be 20fb b63d 9124 023e
000003f0: c1a5 b33e 16ce a83d a03a 6c3e efa0 33be

lstm.bias_ih_l0 f4 [40]
-0.008792123 0.3714716 0.2871158 0.13954803 0.69199365 0.35468903 -0.14570583 -0.019486148
0.22712941 0.43345723 -0.40106067 0.23809586 -0.02499373 -0.05925973 -0.22382067 -0.2131863
-0.26786238 0.267959 -0.14218095 -0.23717298 -0.32865623 0.05312997 0.09740121 0.04575799
-0.28004256 0.30156034 -0.23564465 -0.039247088 0.44176617 0.121334866 0.06683662 0.13652548
0.4833757 0.065549515 0.26590735 0.34018818 0.17753571 0.30434066 0.2685017 0.25827917
00000000: d60c 10bc 8731 be3e d800 933e aee5 0e3e
00000010: 7f26 313f cd99 b53e e933 15be 6aa1 9fbc
00000020: 9d94 683e 1bee dd3e d357 cdbe 67cf 733e
00000030: a7bf ccbc 55ba 72bd 3f31 65be 824d 5abe
00000040: 4225 89be ec31 893e e297 11be 79dd 72be
00000050: a145 a8be d09e 593d 497a c73d bb6c 3b3d
00000060: bd61 8fbe 1e66 9a3e d54c 71be 8ec1 20bd
00000070: 2d2f e23e 6a7e f83d a3e1 883d 56cd 0b3e
00000080: 057d f73e d33e 863d 0225 883e 252d ae3e
00000090: eccb 353e 8ad2 9b3e 0e79 893e 2b3d 843e

lstm.bias_hh_l0 f4 [40]
0.4537853 0.46319905 0.2691578 -0.06499488 0.2673502 0.30072454 0.15722504 -0.083727956
0.22303115 0.7546402 0.116431884 -0.080351956 -0.23351029 0.17070116 0.22045459 -0.026890397
-0.2026064 -0.07250414 -0.11023371 -0.20915036 -0.2828504 -0.30679488 -0.052692585 0.35002905
0.090640366 0.36918506 0.08123379 -0.3507172 0.19774592 0.06285387 0.49782765 0.4739308
0.38596004 0.08275237 0.5481939 0.120265186 -0.018114485 0.2780395 0.083568335 0.25607255
00000000: 8c56 e83e 6d28 ed3e 0dcf 893e 091c 85bd
00000010: 20e2 883e 91f8 993e 9aff 203e 9079 abbd
00000020: 4762 643e 1a30 413f d773 ee3d 918f a4bd
00000030: 521d 6fbe 49cc 2e3e d9be 613e 4049 dcbc
00000040: 0d78 4fbe 0d7d 94bd 36c2 e1bd 832b 56be
00000050: c5d1 90be 3814 9dbe 2ed4 57bd 0237 b33e
00000060: a8a1 b93d d305 bd3e e75d a63d 3491 b3be
00000070: e87d 4a3e 88b9 803d 44e3 fe3e 0fa7 f23e
00000080: 8e9c c53e 137a a93d 6f56 0c3f 984d f63d
00000090: d464 94bc 315b 8e3e e025 ab3d f11b 833e

lstm.weight_ih_l1 f4 [40, 10]
-0.12072503 -0.46476114 0.07163046 0.46152848 0.18929172 0.049910497 -0.19538565 -0.04547926
0.54154867 -0.50954837 0.31694725 -0.039942477 0.37728325 -0.07180679 0.57644475 -0.14819326
-0.35502705 0.06789179 -0.03866256 -0.6807336 -0.020285329 -0.22630781 -0.09320116 0.08240665
0.47990966 0.14982808 0.11071011 -0.3181451 0.2136773 -0.17463289 -0.12548536 -0.19774346
0.117628045 0.29059407 0.8268128 0.35175747 -0.3901403 -0.1603523 0.022741469 -0.48771307
0.15697202 -0.38563955 0.3020507 0.39727774 0.48324525 -0.008195617 -0.41158998 -0.09759047
0.52834964 -0.63106686 0.17707327 -0.59434223 0.16605902 0.18082847 0.6352163 0.29403046
-0.21178548 -0.3298358 0.51663274 -0.31251928 -0.065920934 -0.21954034 0.4885575 0.262162
-0.13059278 0.14460655 0.052151375 0.028766861 0.2298338 0.060994253 0.17925708 -0.33276883
0.61119485 0.35108912 0.38468474 0.42495245 -0.5254169 -0.30816177 0.122157976 -0.7632945
0.25275367 -0.12380472 0.124439225 0.2307886 0.47884175 0.32119092 -0.18555464 0.10614611
0.42212123 -0.48163968 0.37677208 -0.023904072 0.3936279 0.09572348 0.44751123 0.32304484
-0.23336147 -0.37148362 -0.039629586 -0.760647 0.41402793 -0.29908285 0.049639937 -0.16233028
0.13233492 -0.22581385 0.015316252 0.19408329 0.055009663 -0.49600437 0.0151709495 0.15937401
0.07442494 0.2682188 0.41431254 0.09508844 -0.1593246 0.09440193 -0.18792129 -0.4236007
-0.023124972 -0.1282001 0.3531511 0.17965548 0.0995381 -0.012851174 0.083958276 0.2286506
-0.12441871 -0.5062419 -0.011814386 -0.15973337 -0.211252 0.051720567 0.3755366 0.07667051
0.111141056 -0.024110323 -0.0868972 -0.4259591 -0.008420672 -0.12506174 -0.137951 0.3186869
0.2413539 -0.09302478 -0.2708591 -0.26720303 0.04729305 -0.15078005 0.43190286 -0.3547939
-0.02877346 -0.047361527 0.70912325 -0.19214419 0.08109945 0.2538311 -0.22480151 -0.63556576
0.23477489 -0.26713413 -0.081924886 0.15153493 -0.06190612 0.10103617 -0.36095256 -0.09561403
0.19824682 -0.11221416 0.40996602 0.17853785 0.09820394 0.33228528 0.2875977 0.23569778
-0.21673097 0.033627763 -0.15360059 -0.58698946 -0.1016462 -0.13248384 -0.06671683 0.19571799
0.06817346 -0.20540537 -0.09353547 -0.21195555 -0.09277817 -0.07633974 0.45234722 -0.19900364
0.034420393 0.24566185 0.6236991 -0.33032075 0.25024325 -0.25599682 0.079942465 -0.17668766
0.21073648 0.054491308 -0.40736374 -0.018271232 -0.09206035 -0.46680796 -0.02797751 0.23552711
-0.049643617 0.10342155 0.642549 -0.36500952 0.3164888 0.13215579 0.075519264 0.14372715
-0.08831778 0.01279414 0.35967854 -0.37558466 0.13836192 -0.3327697 0.17953536 0.31975067
0.3936007 0.01002013 -0.31235635 -0.21896613 0.3021971 -0.24941687 -0.15111822 0.09601037
0.1339702 0.025519919 -0.13647188 -0.02529565 0.42840442 -0.059926983 -0.15901929 0.5849463
0.15506014 -0.41188842 0.400837 -0.031523217 0.039107952 0.3565475 -0.10031982 -0.01652263
0.11705163 -0.3903914 0.23594244 -0.44711927 0.3461116 0.08491036 0.3463145 0.052631613
00000000: af3e f7bd 2cf5 edbe feb2 923d 764d ec3e
00000010: b0d5 413e f36e 4c3d 2d13 48be 7648 3abd
00000020: efa2 0a3f c371 02bf e946 a23e b99a 23bd
00000030: 452b c13e 700f 93bd e291 133f f9bf 17be
00000040: 1bc6 b5be da0a 8b3d a25c 1ebd 8f44 2ebf
00000050: 6b2d a6bc 3cbd 67be 40e0 bebd d1c4 a83d
00000060: b8b6 f53e 886c 193e fbbb e23d eae3 a2be
00000070: 39ce 5a3e f7d2 32be 3c7f 00be 437d 4abe
00000080: f9e6 f03d bfc8 943e 01aa 533f 8e19 b43e
00000090: 78c0 c7be 6533 24be 514c ba3c 87b5 f9be
000000a0: 46bd 203e 8c72 c5be 64a6 9a3e fd67 cb3e
000000b0: ec6b f73e e946 06bc ecbb d2be 83dd c7bd
000000c0: ec41 073f 998d 21bf b252 353e d026 18bf
000000d0: 600b 2a3e 192b 393e 899d 223f 298b 963e
000000e0: 4bde 58be 3de0 a8be 0b42 043f 8702 a0be
000000f0: 8e01 87bd 2fcf 60be 3524 fa3e 193a 863e
00000100: 1dba 05be bd13 143e ae9c 553d 7ba8 eb3c
00000110: 8d59 6b3e 1cd5 793d 2b8f 373e ad60 aabe
00000120: 4477 1c3f f4c1 b33e 66f5 c43e 5e93 d93e
00000130: b981 06bf 61c7 9dbe f62d fa3d 4567 43bf
00000140: ee68 813e 548d fdbd fed9 fe3d d953 6c3e
00000150: bf2a f53e 2373 a43e 0902 3ebe 2263 d93d
00000160: 4620 d83e 7a99 f6be 45e8 c03e 79d2 c3bc
00000170: 9989 c93e ac0a c43d 3120 e53e 2266 a53e
00000180: 4ff6 6ebe 1a33 bebe a252 22bd c3b9 42bf
00000190: 78fb d33e 6321 99be 3f53 4b3d e939 26be
000001a0: ce82 073e bf3b 67be 04f1 7a3c c5bd 463e
000001b0: d051 613d 49f4 fdbe 938f 783c f132 233e
000001c0: 1a6c 983d f953 893e c620 d43e babd c23d
000001d0: fd25 23be cd55 c13d 706e 40be 31e2 d8be
000001e0: 9570 bdbc e346 03be 39d0 b43e 9bf7 373e
000001f0: a2da cb3d bb8d 52bc 51f2 ab3d 6223 6a3e
00000200: 3dcf febd 1299 01bf 2091 41bc 2591 23be
00000210: 7252 58be f2d8 533d 5546 c03e 6e05 9d3d
00000220: ec9d e33d 0383 c5bc 29f7 b1bd 5017 dabe
00000230: dcf6 09bc 2f10 00be 0743 0dbe ee2a a33e
00000240: 7a25 773e c783 bebd 0bae 8abe d6ce 88be
00000250: 5bb6 413d 1666 1abe 5f22 dd3e 8ca7 b5be
00000260: 52b6 ebbc 29fe 41bd 1a89 353f 72c1 44be
00000270: 7817 a63d 26f6 813e 5e32 66be 70b4 22bf
00000280: d468 703e cec5 88be 3cc8 a7bd f92b 1b3e
00000290: 4691 7dbd 0dec ce3d c6ce b8be 4ad1 c3bd
000002a0: 3701 4b3e 8ad0 e5bd 11e7 d13e a0d2 363e
000002b0: 261f c93d 4c21 aa3e 0140 933e c25a 713e
000002c0: b9ee 5dbe 44bd 093d 7949 1dbe f144 16bf
000002d0: e22b d0bd d8a9 07be d5a2 88bd 4c6a 483e
000002e0: 879e 8b3d c955 52be 868f bfbd e00a 59be
000002f0: 7b02 bebd 0258 9cbd 0e9a e73e 9cc7 4bbe
00000300: 66fc 0c3d c88e 7b3e bfaa 1f3f cd1f a9be
00000310: e21f 803e 0412 83be e0b8 a33d 9ced 34be
00000320: 4ecb 573e 4732 5f3d fb91 d0be 8dad 95bc
00000330: 238a bcbd 7401 efbe 1731 e5bc 052e 713e
00000340: 1b57 4bbd adce d33d 177e 243f 87e2 babe
00000350: d20a a23e d953 073e d8a9 9a3d 362d 133e
00000360: f4df b4bd 839e 513c c927 b83e a24c c0be
00000370: bfae 0d3e ca60 aabe 1ed8 373e 5cb6 a33e
00000380: 0886 c93e 792b 243c 2ced 9fbe a838 60be
00000390: 94b9 9a3e 2367 7fbe bcbe 1abe 16a1 c43d
000003a0: 7c2f 093e 260f d13c 49bf 0bbe d338 cfbc
000003b0: d357 db3e ff75 75bd f4d5 22be 0abf 153f
000003c0: 16c8 1e3e 0ae3 d2be 823a cd3e 7d1e 01bd
000003d0: a92f 203d 658d b63e 7a74 cdbd 775a 87bc
000003e0: c4b8 ef3d 62e1 c7be e59a 713e d1ec e4be
000003f0: 8a35 b13e 7ce5 ad3d 2250 b13e 3f94 573d

lstm.weight_hh_l1 f4 [40, 10]
0.08687194 0.25463465 0.37589002 -0.29996267 0.14871733 0.073021606 0.25957316 0.085248545
0.19524394 -0.061278332 0.18076786 -0.17493847 -0.19098745 0.00944077 -0.296438 0.27936184
-0.112742394 0.07109704 0.29394448 0.05938829 -0.23989652 0.3018054 0.14581011 -0.104072
0.066024065 0.057434693 -0.12016406 0.07474371 0.2736415 0.17965256 -0.32098818 -0.17880599
0.16100506 -0.11347743 0.22052827 0.15390031 0.23706497 0.059075367 0.28769606 -0.098468974
0.059552055 0.34120688 -0.15360679 -0.10964929 0.087722085 0.24086063 0.30833474 -0.04307662
-0.13123807 -0.20707104 -0.2964487 -0.14913833 -0.17419688 0.17545146 -0.091835566 0.22367987
0.053332068 -0.2520891 -0.2039032 0.015769783 -0.40650338 -0.18298286 0.10079763 -0.17115517
0.23525827 -0.03335646 0.068449214 -0.33864892 0.16091628 -0.08177623 0.30516678 0.11810124
0.26648688 -0.00031413857 -0.2565613 -0.043828677 0.2828913 0.32327184 -0.02451924 -0.04273886
-0.072691366 0.29485628 0.34629864 0.0073167044 -0.023895254 0.2456833 -0.27310193 0.13846467
0.29878625 -0.17690076 0.13891615 0.1467776 -0.19060269 0.2694351 0.27547172 0.029106563
0.23996195 0.22426383 0.19680181 0.14778127 -0.024874354 -0.24443541 0.3076141 -0.049104325
0.07436229 -0.26449224 0.14512482 0.054855455 -0.09952882 -0.25626737 0.17738807 -0.12580897
0.08094032 0.19319429 -0.15145558 0.27519423 -0.13057011 0.10318097 0.25706756 0.09539356
0.19677399 0.02923298 0.3171547 -0.02811788 0.09292832 0.3888012 -0.22499451 0.11086359
0.21237734 0.2593183 -0.119357765 -0.04302121 0.083784394 -0.23793834 0.2481968 0.019733215
-0.09360085 -0.14147767 -0.009026842 -0.21426982 -0.0749225 -0.18966876 0.31836465 -0.22780688
0.063611045 0.17118186 0.07413483 0.19443259 -0.13979785 -0.34805897 0.36229467 -0.024535619
0.011548763 0.030977316 -0.09581922 0.086573735 -0.15942134 -0.21830589 -0.19703782 -0.23499642
0.09724609 -0.11331775 0.2050954 0.018795412 -0.03095575 0.47005343 0.27886614 0.0062227435
0.2126958 -0.27183598 -0.06543843 0.017267322 0.07739501 0.2668276 -0.2926042 -0.01613958
-0.25236955 0.23558718 0.14187662 0.09367623 -0.13132364 0.25160545 0.08415569 0.04730279
-0.11625234 -0.0077700587 0.0588206 -0.32690805 -0.15425983 -0.028629532 -0.24614835 0.27260852
-0.07685028 -0.056318514 -0.09657643 0.23021816 -0.18766199 0.284918 -0.076804444 -0.2700206
-0.14883734 0.19322507 -0.21504225 0.0982317 0.20635779 -0.05838412 -0.18168038 -0.1589653
-0.23384792 0.060059484 -0.114575274 0.30215275 -0.13330951 -0.07631905 0.067233756 0.2733056
-0.16225953 0.2340489 0.28340405 -0.17365551 0.10695998 0.259236 -0.1403436 0.13192199
-0.15732189 0.2594442 0.33312148 -0.012652284 0.05085426 0.063200526 0.17737044 -0.36348674
-0.21548432 -0.01567905 0.19614288 -0.16154954 -0.18654768 0.13534425 -0.120246924 -0.037579052
0.15064652 0.25348684 0.053379864 -0.25562775 -0.016336914 0.045378868 -0.24878237 -0.109236896
0.24735723 0.042850614 0.2802536 -0.06893741 0.024807889 0.30859923 -0.32685885 -0.27189037
00000000: eae9 b13d 795f 823e a874 c03e b594 99be
00000010: 5b49 183e 5a8c 953d c6e6 843e ca96 ae3d
00000020: 07ee 473e fdfe 7abd 361b 393e 1223 33be
00000030: 3792 43be 76ad 1a3c b9c6 97be 8408 8f3e
00000040: 7ce5 e6bd 539b 913d e47f 963e 2341 733d
00000050: 6fa7 75be 3d86 9a3e 3f4f 153e b323 d5bd
00000060: a037 873d a440 6b3d 9318 f6bd 3b13 993d
00000070: bd1a 8c3e d7f6 373e 9058 a4be eb18 37be
00000080: 83de 243e db66 e8bd 2ad2 613e 0b98 1d3e
00000090: 29c1 723e 03f9 713d e64c 933e 1aaa c9bd
000000a0: dbec 733d abb2 ae3e 194b 1dbe cf8f e0bd
000000b0: a3a7 b33d 2ba4 763e 0dde 9d3e 1c71 30bd
000000c0: 4663 06be 6e0a 54be 20c8 97be b8b7 18be
000000d0: ab60 32be 8ca9 333e 4914 bcbd 560c 653e
000000e0: ba72 5a3d d311 81be 00cc 50be a22f 813c
000000f0: 3621 d0be dc5f 3bbe fd6e ce3d 4d43 2fbe
00000100: 8be7 703e c9a0 08bd 1a2f 8c3d 6463 adbe
00000110: 3dc7 243e 4c7a a7bd d23e 9c3e 10df f13d
00000120: f870 883e f7b2 a4b9 015c 83be b385 33bd
00000130: 21d7 903e e383 a53e 93dc c8bc f10e 2fbd
00000140: 36df 94bd 67f7 963e 0e4e b13e f7c0 ef3b
00000150: fbbf c3bc 6794 7b3e 04d4 8bbe afc9 0d3e
00000160: 83fa 983e 7925 35be 0940 0e3e de4c 163e
00000170: 5a2d 43be 66f3 893e a10a 8d3e e370 ee3c
00000180: 96b8 753e 6ba5 653e 6a86 493e f953 173e
00000190: 4dc5 cbbc 474d 7abe 987f 9d3e 9e21 49bd
000001a0: 424b 983d 876b 87be 9a9b 143e 1db0 603d
000001b0: c4d5 cbbd 7a35 83be 38a5 353e 11d4 00be
000001c0: 0ac4 a53d b9d4 453e 2c17 1bbe 42e6 8c3e
000001d0: 2cb4 05be 8b50 d33d 5c9e 833e b35d c33d
000001e0: 1f7f 493e 017a ef3c 1a62 a23e 7857 e6bc
000001f0: 3451 be3d f310 c73e f664 66be 730c e33d
00000200: 7279 593e 5ec5 843e d871 f4bd 0237 30bd
00000210: 2797 ab3d 1ca6 73be 4d27 7e3e 8da7 a13c
00000220: cdb1 bfbd 86df 10be 52e5 13bc 8c69 5bbe
00000230: f870 99bd 8738 42be b100 a33e 3546 69be
00000240: 8246 823d 4c4a 2f3e 00d4 973d 5619 473e
00000250: 2b27 0fbe c934 b2be b07e b93e ecfe c8bc
00000260: 0637 3d3c 24c4 fd3c de3c c4bd 924d b13d
00000270: 593f 23be 948b 5fbe 48c4 49be e7a2 70be
00000280: f528 c73d 2313 e8bd 8704 523e d6f8 993c
00000290: ea96 fdbc d8aa f03e 8bc7 8e3e 28e8 cb3b
000002a0: eecc 593e 162e 8bbe 9504 86bd 3374 8d3c
000002b0: 4681 9e3d a19d 883e 38d0 95be 2737 84bc
000002c0: 9536 81be c43d 713e 1b48 113e 53d9 bf3d
000002d0: b479 06be 6ed2 803e d259 ac3d 92c0 413d
000002e0: b515 eebd fa9b febb dfed 703d 7e60 a7be
000002f0: 4af6 1dbe 7b88 eabc 500e 7cbe 5893 8b3e
00000300: ae63 9dbd 3eae 66bd ddc9 c5bd 4fbe 6b3e
00000310: 772a 40be c6e0 913e a64b 9dbd 2440 8abe
00000320: d168 18be cbdc 453e 0934 5cbe b42d c93d
00000330: 754f 533e 3024 6fbd 6c0a 3abe cdc7 22be
00000340: d475 6fbe ef00 763d 71a6 eabd c4b3 9a3e
00000350: 4a82 08be 294d 9cbd dab1 893d b6ee 8b3e
00000360: 5d27 26be 84aa 6f3e 561a 913e c0d2 31be
00000370: d60d db3d 95ba 843e 3cb6 0fbe 8f16 073e
00000380: fd18 21be dfd5 843e e68e aa3e 864b 4fbc
00000390: 8e4c 503d 476f 813d 99a0 353e ef1a babe
000003a0: eca7 5cbe 5a71 80bc aed9 483e 3e6d 25be
000003b0: 5b06 3fbe af97 0a3e 0544 f6bd 7eec 19bd
000003c0: 1543 1a3e 07c9 813e d8a4 5a3d a4e1 82be
000003d0: fed4 85bc 31df 393d cec0 7ebe 98b7 dfbd
000003e0: 374b 7d3e 2084 2f3d 667d 8f3e 0f2f 8dbd
000003f0: ea39 cb3c b800 9e3e 0b5a a7be 3735 8bbe

lstm.bias_ih_l1 f4 [40]
0.3796335 -0.058787156 0.38295516 0.39438045 -0.086779304 0.03507743 0.15042712 0.54349625
-0.08308559 0.29328203 0.012864399 -0.20275292 0.1478319 -0.102651805 0.24874203 -0.33996728
0.18233311 -0.06576476 0.032525655 0.2878638 -0.16230248 0.061949667 0.28550956 -0.07829518
0.10588222 0.068551555 0.052103482 0.13995878 -0.054702226 -0.24623927 0.011248339 0.38692766
0.04828764 0.31773257 0.093341365 0.4675042 0.09162313 0.032049388 0.19553657 -0.090348676
00000000: 525f c23e cdca 70bd b312 c43e 3cec c93e
00000010: 59b9 b1bd 5aad 0f3d 9109 1a3e 9222 0b3f
00000020: c728 aabd 1029 963e 33c5 523c 769e 4fbe
00000030: 3f61 173e 1c3b d2bd 3bb6 7e3e 3110 aebe
00000040: 88b5 3a3e adaf 86bd 9f39 053d e262 933e
00000050: 9f32 26be efbe 7d3d 4f2e 923e 3959 a0bd
00000060: c7d8 d83d c264 8c3d 766a 553d 5b51 0f3e
00000070: 710f 60bd 2626 7cbe f44a 383c 621b c63e
00000080: 43c9 453d d8ad a23e c229 bf3d b65c ef3e
00000090: e8a4 bb3d 3846 033d bd3a 483e ba08 b9bd

lstm.bias_hh_l1 f4 [40]
0.2350144 -0.029571364 0.029144628 0.44323134 0.22959407 0.52270156 0.36200786 0.27417535
-0.10527996 0.0703331 0.19848788 -0.10199878 0.28831753 0.16450977 -0.0059916717 0.12429923
-0.12517807 -0.21520017 -0.08726464 0.30929822 -0.39848703 0.2769849 -0.096893825 -0.24659345
0.18739864 0.08427006 0.26767606 -0.23069136 0.41067943 -0.03795451 0.35070932 0.31884578
0.2454221 0.14607033 0.27396175 0.0732833 0.123901084 0.08807724 0.022731215 -0.024748737
00000000: 9da7 703e a53f f2bc b7c0 ee3c 38ef e23e
00000010: b51a 6b3e c5cf 053f 1859 b93e b660 8c3e
00000020: 059d d7bd cd0a 903d 6840 4b3e bde4 d0bd
00000030: 5b9e 933e 4075 283e c955 c4bb 9890 fe3d
00000040: ae2e 00be 6f5d 5cbe ceb7 b2bd 565c 9e3e
00000050: 7e06 ccbe f7d0 8d3e 4570 c6bd fe82 7cbe
00000060: 6ee5 3f3e c895 ac3d d60c 893e 5b3a 6cbe
00000070: 9344 d23e 3076 1bbd 2c90 b33e c13f a33e
00000080: ee4f 7b3e 7693 153e b744 8c3e 8e15 963d
00000090: dabf fd3d d761 b43d d036 ba3c ddbd cabc

lstm.weight_ih_l2 f4 [40, 10]
-0.3888011 0.38017502 -0.060688943 0.13798404 -0.046179745 0.46569708 -0.07196287 -0.124787934
-0.060554124 -0.26607886 -0.032758415 0.11903464 0.0867737 -0.224583 -0.061015397 0.5271776
0.06005197 -0.5096998 0.30314922 -0.19504325 -0.20767877 -0.15537885 -0.16991928 0.25787103
0.18096708 0.19980638 -0.2562765 0.11049995 -0.36736682 -0.24820726 -0.343902 0.15461262
0.17146832 -0.37537378 0.34976295 0.043019738 0.04682216 -0.3449293 0.46448943 -0.3909879
-0.16142944 0.20484403 0.33219662 -0.4761089 0.38429266 0.544425 0.32235548 -0.36184776
0.38488376 -0.28832135 -0.44258815 0.13723497 0.21216752 -0.35600418 0.24427284 0.28323597
0.32671258 -0.39844662 0.1840466 -0.42695034 -0.24736385 0.49918246 0.39336586 -0.6467792
0.076645084 0.080006674 0.11623253 -0.12917718 -0.03476576 -0.12964843 -0.005469517 0.45012116
-0.013867069 0.112520374 0.38993138 0.21160111 0.2471405 -0.45499408 -0.06800411 -0.45864207
0.15885252 0.091964036 0.11308334 -0.18124466 0.16371933 0.58347267 -0.11647019 -0.5503198
0.104250446 -0.3100729 -0.1069515 0.34774512 0.21256353 -0.21391742 0.1928766 0.53474677
0.022889452 -0.5711406 0.06580595 -0.34534708 0.18979901 0.07576648 -0.1416293 0.02183288
0.080503665 0.0017508748 -0.20774513 -0.09678382 -0.034338064 -0.20837992 -0.10546094 0.26208922
0.19286636 0.37208682 -0.36462483 -0.1512892 -0.034386314 -0.27492243 -0.11595978 0.14444153
0.19483054 0.1294893 0.13309404 -0.11090017 -0.25321844 -0.31628782 -0.36742145 -0.23455289
0.22224256 0.108840056 -0.3047594 0.13901861 0.267841 0.15770581 0.10615621 0.44403285
-0.10235858 0.03652012 -0.19113323 0.12431948 -0.013565247 -0.09534332 -0.01690022 -0.16538553
0.1728536 0.07441025 0.22165525 -0.09073303 0.13386187 0.18926348 0.2330027 -0.20932491
0.12016829 0.35292935 -0.2815164 -0.058532577 -0.040461265 -0.51225334 0.19817702 0.014431792
-0.13491318 0.49898762 0.528419 -0.5186841 0.5155361 0.10591406 0.16434447 -0.51478124
-0.021870164 -0.347373 0.16913718 -0.06290503 0.0072544734 0.32903475 0.12963392 0.07017612
-0.29130203 0.06775144 0.3100353 -0.29636976 0.3036955 0.011070393 -0.10977312 0.13777445
-0.14101946 0.35368732 -0.13577938 -0.27843866 0.22917613 0.32219037 0.014256985 -0.01780606
-0.21018508 -0.05682596 -0.32259378 0.39678767 -0.049230613 -0.08415907 -0.16775659 -0.02164927
0.05994121 0.06876054 0.41447517 -0.23694576 0.15492813 0.40895954 0.17609552 0.055714015
0.3303977 -0.26604244 -0.033892043 0.11175525 0.24154104 0.19972984 0.20714553 0.17904244
-0.28102773 -0.55872536 0.15266493 -0.27170607 -0.15487894 0.23459218 0.08656764 0.09205049
-0.06297578 -0.025541728 -0.0015556136 0.03468057 -0.29953548 0.38726106 0.2709622 -0.35607454
-0.3231247 0.20554334 -0.26017562 0.0018116758 0.056263477 0.32301655 -0.2510424 -0.011329608
-0.25223634 -0.1585557 0.071097165 -0.053527325 0.3839122 0.0066000964 0.45934835 -0.17214629
0.4202959 0.04956611 -0.10238359 0.30210435 0.18850537 -0.21262008 0.024601985 0.30724546
00000000: f010 c7be 4da6 c23e f894 78bd b04b 0d3e
00000010: f926 3dbd d96f ee3e 4561 93bd d190 ffbd
00000020: 9a07 78bd 7d3b 88be b02d 06bd 6fc8 f33d
00000030: 69b6 b13d 16f9 65be 48eb 79bd 1cf5 063f
00000040: 0ef9 753d b07b 02bf 6036 9b3e 6bb9 47be
00000050: bea9 54be a21b 1fbe 52ff 2dbe ac07 843e
00000060: 6f4f 393e 0b9a 4c3e ac36 83be cc4d e23d
00000070: 8117 bcbe 0b2a 7ebe ec13 b0be c552 1e3e
00000080: 6495 2f3e fe30 c0be 2114 b33e 7735 303d
00000090: 98c8 3f3d 939a b0be 8fd1 ed3e 912f c8be
000000a0: c24d 25be a2c2 513e ad15 aa3e 8cc4 f3be
000000b0: 02c2 c43e 705f 0b3f c70b a53e 1c44 b9be
000000c0: 7c0f c53e db9e 93be ea9a e2be 5387 0c3e
000000d0: 7142 593e 2e46 b6be a922 7a3e 4e04 913e
000000e0: df46 a73e 3201 ccbe b676 3c3e 3c99 dabe
000000f0: f34c 7dbe d894 ff3e 4067 c93e 5293 25bf
00000100: 19f8 9c3d 8ada a33d 520b ee3d 0647 04be
00000110: 8b66 0ebd 8fc2 04be a239 b3bb 4876 e63e
00000120: b432 63bc 1571 e63d 16a5 c73e f6ad 583e
00000130: 6612 7d3e fcf4 e8be bd45 8bbd 22d3 eabe
00000140: 3caa 223e a457 bc3d 3d98 e73d 3398 39be
00000150: 0aa6 273e 775e 153f ec87 eebd c2e1 0cbf
00000160: 4281 d53d e0c1 9ebe 6309 dbbd a60b b23e
00000170: 41aa 593e 2b0d 5bbe 7281 453e 2ae5 083f
00000180: a982 bb3c 4536 12bf 45c5 863d 55d1 b0be
00000190: ac5a 423e 752b 9b3d 4507 11be deda b23c
000001a0: 1bdf a43d 9c7d e53a 24bb 54be 9836 c6bd
000001b0: 12a6 0cbd 8c61 55be e8fb d7bd 8f30 863e
000001c0: c27e 453e 2a82 be3e 1bb0 babe 8eeb 1abe
000001d0: aad8 0cbd a2c2 8cbe 527c edbd 7be8 133e
000001e0: a881 473e d898 043e ce49 083e a11f e3bd
000001f0: d9a5 81be 7af0 a1be aa1e bcbe a22e 70be
00000200: 8e93 633e 89e7 de3d 6d09 9cbe e55a 0e3e
00000210: 7522 893e a27d 213e 6d68 d93d 4658 e33e
00000220: 60a1 d1bd 1f96 153d 6eb8 43be 369b fe3d
00000230: c540 5ebc 5c43 c3bd 5572 8abc d35a 29be
00000240: 8900 313e 6764 983d 98f9 623e 3dd2 b9bd
00000250: 1613 093e 49ce 413e 4398 6e3e 4559 56be
00000260: cb1a f63d 28b3 b43e eb22 90be dbbf 6fbd
00000270: b6ba 25bd 0923 03bf ebee 4a3e 5373 6c3c
00000280: ae26 0abe 4e7b ff3e 7846 073f 7bc8 04bf
00000290: 2dfa 033f 78e9 d83d eb49 283e b4c8 03bf
000002a0: 0f29 b3bc e0da b1be 4c32 2d3e 5ad4 80bd
000002b0: efb6 ed3b 3e77 a83e c1be 043e 7fb8 8f3d
000002c0: 8a25 95be 44c1 8a3d f2bc 9e3e c7bd 97be
000002d0: fa7d 9b3e 9860 353c bbd0 e0bd bf14 0d3e
000002e0: 6867 10be 8116 b53e c009 0bbe 838f 8ebe
000002f0: 26ad 6a3e 23f6 a43e 2196 693c 04de 91bc
00000300: c23a 57be 56c2 68bd 032b a5be c127 cb3e
00000310: 0aa6 49bd 975b acbd 62c8 2bbe cf59 b1bc
00000320: ea84 753d 53d2 8c3d 1736 d43e e9a1 72be
00000330: 7ba5 1e3e 2563 d13e 6252 343e 6134 643d
00000340: e329 a93e b736 88be 62d2 0abd f0df e43d
00000350: 8956 773e fb85 4c3e f51d 543e e756 373e
00000360: dee2 8fbe a008 0fbf 3254 1c3e 0f1d 8bbe
00000370: 9698 1ebe ef38 703e 604a b13d f884 bc3d
00000380: 72f9 80bd e33c d1bc bbe5 cbba 370d 0e3d
00000390: b75c 99be 1547 c63e 8fbb 8a3e 674f b6be
000003a0: 9a70 a5be f479 523e bd35 85be c175 ed3a
000003b0: 8874 663d 6d62 a53e a188 80be d29f 39bc
000003c0: 1f25 81be 6d5c 22be 649b 913d 783f 5bbd
000003d0: 2490 c43e 9f45 d83b b52f eb3e 1e47 30be
000003e0: 0631 d73e d505 4b3d 7dae d1bd 6cad 9a3e
000003f0: 8d07 413e 14b9 59be 1a8a c93c 474f 9d3e

lstm.weight_hh_l2 f4 [40, 10]
0.045226984 -0.0801616 -0.11147039 0.19720998 -0.0947449 -0.10252033 -0.118000574 0.080644846
0.31196958 0.2022733 0.13308616 -0.29503193 -0.2409619 0.06172007 0.1288848 -0.13677411
-0.07928654 -0.1140591 0.017470865 0.12134633 0.22273691 0.2560792 -0.038725276 0.09215847
0.028672613 -0.17052189 -0.14913471 0.10929896 0.09623997 -0.22582951 0.28473285 -0.09401462
0.14843704 -0.15616156 0.10311804 -0.032318797 -0.2430119 -0.08664965 0.061558347 -0.010404213
0.058013704 0.039522838 -0.2183608 -0.09931925 -0.17687814 -0.12132933 0.17314486 -0.3994941
0.09594091 -0.014929782 0.3570811 0.0052190362 -0.009964028 0.0836832 -0.015051372 0.2998806
0.10609428 -0.1600379 -0.21875165 -0.06808177 0.3088429 0.32274428 0.124775276 -0.039737288
0.36936602 0.3039147 -0.5282308 0.024986874 0.3421846 -0.37207726 0.12069174 -0.114396416
0.0659866 -0.12708038 0.04716162 0.09056451 0.11070602 0.22175714 -0.12179922 0.10449286
-0.28548533 -0.30748942 -0.24433376 -0.06003049 -0.07659351 0.027040487 0.27621976 0.17897765
-0.023933234 0.25885126 0.029472848 -0.32100946 -0.29454824 -0.14048819 -0.04830625 -0.33784088
0.38496557 -0.10864437 -0.35205978 0.2735758 -0.058867414 0.12932985 0.29917884 0.2707078
-0.2976517 0.21916412 0.2751208 0.108411886 0.17921671 -0.19265983 -0.09140663 -0.19015612
-0.20894435 0.12241186 -0.02346457 -0.065578215 0.1746568 0.27968073 0.11288696 -0.05882783
-0.25719845 -0.30945534 0.20473531 -0.20419201 -0.33865875 0.25046417 0.28473526 -0.1457026
0.007097976 -0.14447191 -0.06426896 0.24221584 0.2908797 -0.20537467 0.19485368 -0.24235184
-0.0080647115 -0.27567452 -0.06253039 0.42931196 0.03235048 0.07718296 0.07144256 -0.28095335
0.3269078 0.109748065 -0.0994699 -0.07876259 0.13684168 0.015556211 -0.21857844 0.104331434
0.15300423 0.06692668 -0.10818362 -0.17653736 0.24644512 0.12052915 0.015010063 0.47851187
0.0060061296 -0.0038161871 -0.13224931 -0.1821279 0.21101385 -0.005346017 -0.06268531 -0.3414075
0.40974164 -0.22689529 0.12561542 -0.1569142 -0.28776285 -0.22064583 -0.16118969 -0.2788107
0.142218 -0.036120262 -0.33873007 0.19155915 -0.05919557 0.20313168 0.108514525 0.25595155
-0.2502828 -0.08735095 0.24956632 -0.2413674 0.03635422 0.1463822 -0.25844115 -0.34709752
0.2267095 0.30212462 -0.4515415 -0.29483443 0.107186 -0.03853955 -0.09965421 0.10145039
0.30819932 -0.23821938 0.25179744 0.072469 0.1588749 0.21426064 -0.12987939 -0.2443954
-0.06681535 0.28021082 -0.17872196 0.14321585 -0.06265939 0.16075046 -0.28758997 0.11333828
0.24205002 -0.17737333 -0.11697171 0.15641192 -0.1399833 0.16417831 -0.21600062 -0.06624913
-0.004214929 0.14587723 0.058018524 -0.027469032 0.019778501 0.1265168 -0.11862094 -0.36958867
-0.20716032 0.0581461 -0.08349164 -0.19583201 0.2616875 -0.18258598 0.13281427 -0.1563818
0.10971785 -0.11258863 -0.15346038 -0.079565406 0.03811932 0.17668694 0.070006624 0.2075447
0.35754195 -0.1530804 -0.22694772 0.13061851 0.3240773 -0.11090576 -0.2605571 -0.23007981
00000000: ee3f 393d c42b a4bd 964a e4bd 6af1 493e
00000010: 9d09 c2bd 2ef6 d1bd 49aa f1bd 2029 a53d
00000020: 7aba 9f3e bb20 4f3e bd47 083e 6d0e 97be
00000030: b7be 76be 2fce 7c3d 61fa 033e 830e 0cbe
00000040: fb60 a2bd d197 e9bd 0f1f 8f3c 6d84 f83d
00000050: 2515 643e d01c 833e 659e 1ebd 94bd bc3d
00000060: d4e2 ea3c 4a9d 2ebe c5b6 18be 22d8 df3d
00000070: 7619 c53d da3f 67be 81c8 913e bd8a c0bd
00000080: e1ff 173e d1e8 1fbe 8d2f d33d b760 04bd
00000090: 1dd8 78be 5f75 b1bd 9b24 7c3d 6f76 2abc
000000a0: c79f 6d3d b3e2 213d f999 5fbe e467 cbbd
000000b0: 8b1f 35be 837b f8bd e34c 313e 7e8a ccbe
000000c0: ab7c c43d 0b9c 74bc 55d3 b63e 7304 ab3b
000000d0: 2a40 23bc 1962 ab3d 089a 76bc f389 993e
000000e0: f547 d93d fae0 23be 6f00 60be 746e 8bbd
000000f0: a820 9e3e bd3e a53e 2e8a ff3d 91c3 22bd
00000100: 8b1d bd3e b59a 9b3e 223a 07bf 46b1 cc3c
00000110: d232 af3e e980 bebe 3b2d f73d ab48 eabd
00000120: fc23 873d 5c21 02be 8b2c 413d e379 b93d
00000130: d6b9 e23d 4e14 633e df71 f9bd 5a00 d63d
00000140: 222b 92be 416f 9dbe a132 7abe 88e2 75bd
00000150: 0fdd 9cbd 0384 dd3c ad6c 8d3e eb45 373e
00000160: a10f c4bc 2788 843e 0b71 f13c 5a5b a4be
00000170: 07cf 96be 23dc 0fbe c6dc 45bd 7bf9 acbe
00000180: 351a c53e f180 debd 2e41 b4be 2112 8c3e
00000190: f51e 71bd 0b6f 043e f82d 993e 369a 8a3e
000001a0: ce65 98be 8f6c 603e a2dc 8c3e 0d07 de3d
000001b0: 9684 373e 9e48 45be 6633 bbbd 49b8 42be
000001c0: 82f5 55be 12b3 fa3d c538 c0bc df4d 86bd
000001d0: 3bd9 323e 5032 8f3e 4731 e73d 73f5 70bd
000001e0: 84af 83be ee70 9ebe 22a6 513e b617 51be
000001f0: ae64 adbe d73c 803e d2c8 913e 1033 15be
00000200: 2396 e83b 72f0 13be 729f 83bd 6e07 783e
00000210: 2fee 943e bd4d 52be b987 473e 152b 78be
00000220: da21 04bc 3625 8dbe ef0f 80bd c7ce db3e
00000230: f081 043d 1a12 9e3d 7a50 923d 1ed9 8fbe
00000240: 7660 a73e 98c3 e03d e0b6 cbbd 484e a1bd
00000250: 3a20 0c3e 7adf 7e3c 07d3 5fbe b8ab d53d
00000260: 24ad 1c3e db10 893d 608f ddbd 36c6 34be
00000270: 1c5c 7c3e fdd7 f63d c4ec 753c 82ff f43e
00000280: 11cf c43b ff18 7abb 5d6c 07be bc7f 3abe
00000290: 0414 583e a42d afbb 2861 80bd f7cc aebe
000002a0: a8c9 d13e 3d57 68be 54a1 003e 1eae 20be
000002b0: a755 93be fbf0 61be e90e 25be 47c0 8ebe
000002c0: 98a1 113e d7f2 13bd 076e adbe 1528 443e
000002d0: 0e77 72bd c001 503e dd3c de3d 150c 833e
000002e0: 1125 80be 0ee5 b2bd 508e 7f3e 0429 77be
000002f0: 2ae8 143d 37e5 153e 6652 84be c4b6 b1be
00000300: 8926 683e 14b0 9a3e 7330 e7be 8af4 96be
00000310: 5584 db3d a6db 1dbd 8217 ccbd 39c5 cf3d
00000320: 4dcc 9d3e c8ef 73be 98eb 803e a16a 943d
00000330: 1ab0 223e 2467 5b3e 1aff 04be ca42 7abe
00000340: 7cd6 88bd cb77 8f3e e402 37be 2da7 123e
00000350: 9153 80bd c59b 243e fe3e 93be e61d e83d
00000360: f6db 773e 5ba1 35be dd8e efbd 722a 203e
00000370: c857 0fbe 5c1e 283e 442f 5dbe a0ad 87bd
00000380: 631d 8abb d760 153e d5a4 6d3d bc06 e1bc
00000390: 8606 a23c 9f8d 013e 89ef f2bd ba3a bdbe
000003a0: d621 54be 9b2a 6e3d aafd aabd 3088 48be
000003b0: e7fb 853e d2f7 3abe 7700 083e 8d22 20be
000003c0: c1b3 e03d de94 e6bd b824 1dbe 30f3 a2bd
000003d0: 0123 1c3d 6ced 343e a25f 8f3d 9986 543e
000003e0: bd0f b73e 1cc1 1cbe fc64 68be dcc0 053e
000003f0: 76ed a53e 8f22 e3bd bd67 85be 0b9a 6bbe

lstm.bias_ih_l2 f4 [40]
0.036915284 0.16501798 0.029158928 0.056432225 0.040975876 0.14399035 0.068225965 -0.16251753
-0.01772663 0.27259812 -0.24304242 -0.14142798 -0.104553446 -0.11614234 0.29906824 0.12707892
0.03205278 0.23640682 0.16002482 -0.1324805 0.154573 0.031371914 0.23286912 -0.25549093
0.26662123 0.2969075 0.063322894 -0.37415358 0.37441742 0.14446762 0.38354373 0.2994065
-0.30383536 0.3128416 0.080247305 0.11032014 -0.14618564 0.11213089 -0.045530297 0.11774258
00000000: 7b34 173d 79fa 283e b4de ee3c 7a25 673d
00000010: 52d6 273d 3572 133e 0eba 8b3d ff6a 26be
00000020: 7037 91bc fb91 8b3e 1de0 78be 7fd2 10be
00000030: 1e20 d6bd 09dc edbd 791f 993e fa20 023e
00000040: c749 033d a114 723e 8cdd 233e f8a8 07be
00000050: 6248 1e3e d67f 003d 3e75 6e3e b5cf 82be
00000060: 9482 883e 4304 983e 6faf 813d 0f91 bfbe
00000070: a4b3 bf3e 52ef 133e d85f c43e cf4b 993e
00000080: 4f90 9bbe c62c a03e b358 a43d 87ef e13d
00000090: b0b1 15be e1a4 e53d fa7d 3abd 0623 f13d

lstm.bias_hh_l2 f4 [40]
0.35592887 0.10460253 -0.08711855 0.050612573 0.3568934 0.278412 0.49790978 -0.1442572
-0.070339076 0.08287981 0.21428683 -0.15664387 0.24863452 -0.056468528 0.38058153 -0.06287875
0.36937013 -0.026934817 -0.28027034 0.22587594 0.32808003 0.1983671 0.15419954 -0.15883541
0.04010377 0.1627398 -0.06314142 -0.35628593 0.13938354 -0.010515609 0.10188024 0.23968212
0.17823139 0.14282385 0.39137948 0.2460524 0.2496413 0.14375053 0.09205912 -0.023177797
00000000: 4f3c b63e da39 d63d 366b b2bd 214f 4f3d
00000010: bbba b63e 058c 8e3e 08ee fe3e 29b8 13be
00000020: ef0d 90bd e4bc a93d 026e 5b3e 4067 20be
00000030: 0c9a 7e3e 8b4b 67bd 95db c23e 93c6 80bd
00000040: 151e bd3e 68a6 dcbc 987f 8fbe 064c 673e
00000050: 1bfa a73e bf20 4b3e 7ce6 1d3e c0a5 22be
00000060: da43 243d 43a5 263e 4a50 81bd 1c6b b6be
00000070: 8fba 0e3e a949 2cbc 96a6 d03d 3b6f 753e
00000080: 4a82 363e 6a40 123e e462 c83e 29f5 7b3e
00000090: f8a1 7f3e 5733 133e 7e89 bc3d 5ddf bdbc

fc.weight f4 [1, 10]
0.29391974 0.25980556 -0.0075702164 -0.36107612 0.30449936 0.09475376 0.29158276 -0.21096878
0.22595353 -0.37758794
00000000: a67c 963e 3c05 853e 940f f8bb f8de b8be
00000010: 57e7 9b3e 420e c23d 564a 953e 3308 58be
00000020: 5d60 673e 3553 c1be
