ec_l2o_log/mtl_0.5_1_1_0.7/lstm_unroll.pth (torch, 13115 bytes, 13 tensors)

lstm.weight_ih_l0 f4 [40, 2]
000000 a1 77 af 3e c6 5f 03 3f 3b 79 1b 3f 29 7c f3 3d
       0.34270957 0.51318014 0.6073186 0.11888916
000010 9e 86 fa 3e 63 98 14 be 19 36 16 3f c1 20 d8 3e
       0.4893083 -0.14511256 0.58676296 0.4221249
000020 5d 3a 8e 3d a5 8e 69 3d 27 7c 2b 3f 62 73 b9 3e
       0.06944726 0.057020802 0.66986316 0.36220843
000030 73 1c d8 be 2a c9 bb bd 69 4d 0a 3f f8 7a 41 3f
       -0.42209205 -0.091692284 0.5402437 0.7557826
000040 06 e4 27 3f b8 55 19 3e 91 7d 29 3d 42 fe e5 3c
       0.6558231 0.14974105 0.041379515 0.028075341
000050 4f d4 bd 3d de e4 b0 3e 35 0a 80 be 0a 35 92 be
       0.0926901 0.34549612 -0.25007787 -0.2855609
000060 0a e8 a8 bd 43 7c 17 be 83 c0 39 be 01 f1 52 3e
       -0.08247383 -0.14793496 -0.18139844 0.20599748
000070 a4 a4 ab 3e 49 db 60 3e ee f8 04 bf aa 59 8c 3e
       0.33524048 0.2195865 -0.51942337 0.27412158
000080 e0 97 82 bd 6f 33 15 3e da d1 8e 3e a4 9f 88 3c
       -0.06376624 0.14570402 0.2789448 0.016677685
000090 bb 78 c9 bd e3 35 88 3e b7 13 26 3e 49 ba 32 be
       -0.09837481 0.26603612 0.16218458 -0.17453875
0000a0 12 0a 00 bf 22 02 71 3d f2 ea f4 be f7 d5 0f be
       -0.50015366 0.058839925 -0.478355 -0.14046465
0000b0 65 a4 36 bd 14 fe 3d be 71 ba cc be a6 6c f3 be
       -0.044590373 -0.18553954 -0.39985994 -0.4754383
0000c0 87 47 e8 be 62 f4 57 3d c0 6e db 3e b3 23 cc 3e
       -0.4536707 0.052723296 0.42857933 0.39870986
0000d0 cb 24 03 3f be b6 3e be 03 c8 53 3e 68 2a 14 3f
       0.51228017 -0.18624398 0.20681767 0.57877207
0000e0 cd 06 03 bf 84 2a 73 bd 6e 25 ed 3c fb 1a 97 3e
       -0.5118225 -0.059366718 0.028948512 0.29512772
0000f0 dd 56 b3 3e cd 61 ba 3d e7 cc 8b 3e b2 ea 20 3f
       0.3502721 0.09100685 0.27304766 0.62858117
000100 74 0d f8 3d 2c 8c ad bd 62 3f 9b 3e 27 24 08 3f
       0.12111941 -0.08474001 0.30321795 0.53180164
000110 fa c0 d7 3d 97 90 51 3e 26 c6 58 3e 3d 0e f5 3e
       0.10534854 0.20465313 0.21169338 0.47862425
000120 6e 84 f3 bd 91 2d 6c be 8d 4a dd 3e c6 ea 3c 3f
       -0.11890493 -0.23064257 0.4322094 0.73795736
000130 8f 9e f6 3e 46 c5 8e 3e 3a 66 46 3e 59 b1 84 bd
       0.48167846 0.27884883 0.19374934 -0.06479139

lstm.weight_hh_l0 f4 [40, 10]
000000 14 3b 2b be cc 64 21 3e fa 76 39 3e 30 f1 79 bd
       -0.16721755 0.15761107 0.18111792 -0.06102103
000010 a4 ba 3d 3e b1 fd a5 3e a1 28 48 3e 55 ea 76 3c
       0.18528229 0.32420114 0.19546749 0.015070518
000020 d5 b0 1b bd fd b9 f8 bd 53 d7 fb be f4 7f cf 3c
       -0.038010437 -0.121448494 -0.49187717 0.025329567
000030 e7 6f a2 be d2 9b 47 3e d2 9e ca be bb ac 02 3f
       -0.31726 0.19493034 -0.39574295 0.51044816
000040 2c 0f a1 3e 4a ed 3b be c3 05 a7 3c 2b fd 0e bd
       0.31456888 -0.18352237 0.02038849 -0.03490941
000050 aa 47 ab 3c 69 fd 62 3e 86 a3 8b bd 4e 08 ab 3d
       0.020908196 0.22166981 -0.06818299 0.08351193
000060 47 7c 80 be 36 8b f6 3d 0c 72 c2 3e b2 20 d9 bd
       -0.25094816 0.12038271 0.37977636 -0.10601939
000070 04 c2 7b be f1 a8 7b be 30 e3 7b 3e e1 d8 9c be
       -0.2458573 -0.24576165 0.24598384 -0.30634215
000080 03 de ad be 4d 2f 2b be d6 3e 77 bc cf 75 2b be
       -0.33958444 -0.16717263 -0.015090665 -0.16744159
000090 a5 55 9d 3e d3 8d 42 bd 73 30 67 3e 7c b9 87 3c
       0.30729404 -0.047498535 0.22577076 0.016567938
0000a0 88 4a 5f 3c b8 65 df bc a1 37 d5 bd e7 bc 07 be
       0.0136286095 -0.027270183 -0.10411001 -0.13255654
0000b0 56 22 b7 3c 1d 1c 87 be da 52 16 3f d0 08 56 3b
       0.02235524 -0.26388636 0.5872017 0.0032659061
0000c0 f7 e7 86 3c 0d 28 42 3d ff 35 1b bf 17 66 c6 be
       0.016468031 0.047401477 -0.60629267 -0.38749763
0000d0 e6 bb ef be a9 2d 04 bd 81 32 0b be 48 2b 91 3d
       -0.46823043 -0.032270107 -0.13593484 0.07088333
0000e0 54 60 12 bd 1b 23 c8 bd 10 64 80 be 2d b6 92 be
       -0.035736397 -0.09772321 -0.25076342 -0.28654614
0000f0 d6 6c 76 be b5 73 ae bd 9f 7b 1d bf ae 1b 5c 3d
       -0.24064955 -0.08518163 -0.61516756 0.053737335
000100 93 1c 01 be 35 d9 16 bf d0 fd c8 be 76 c0 ac 3e
       -0.12608556 -0.5892518 -0.39256144 0.33740586
000110 76 13 86 3e b5 21 1c be f0 fa ed be 4c 23 e3 be
       0.26186723 -0.15247233 -0.46480513 -0.44362867
000120 05 85 56 be ce 16 3d 3e 85 6c ce be 02 6f aa 3e
       -0.2094918 0.1846573 -0.4031717 0.33287817
000130 54 99 0b bd ac b8 08 3e d9 1a 81 be 4a 4c d4 bd
       -0.034081772 0.13351697 -0.25215796 -0.103661135
000140 bf 24 f6 be 0e 6e 08 3d ef 6d bc be e0 38 c1 be
       -0.4807491 0.03330808 -0.36802623 -0.37738705
000150 d2 d9 54 3e 0b 57 1c 3e 22 f0 14 3e b2 5f 3f be
       0.20786217 0.1526758 0.14544728 -0.18688849
000160 cf 19 9a be 3c 80 15 3e 05 16 75 3e 96 83 9a 3c
       -0.30097815 0.14599699 0.23934181 0.018861573
000170 41 da c0 3d e4 65 bf bd 93 c6 36 3e 16 7e 36 3e
       0.09416629 -0.09345606 0.17849188 0.17821535
000180 e9 85 8b 3d d6 0d 3f be 11 35 46 3e 69 d0 ee be
       0.06812651 -0.18657622 0.1935618 -0.4664338
000190 c0 14 ab bd fa 18 ae 3d 42 f2 5b 3e 46 a1 9d be
       -0.08353567 0.08500858 0.21479133 -0.30787104
0001a0 f4 3d 0c 3e 5d 61 7b 3e 86 b7 49 be 1f ae e2 bb
       0.13695508 0.2454886 -0.19698915 -0.0069177295
0001b0 d7 fb d6 be 1c ba 01 3e 85 5f 80 3e 5c a4 02 3e
       -0.41989014 0.12668651 0.25072876 0.1275801
0001c0 3a 5c 45 3e 7b 34 c1 3e ac f2 16 be 6b 08 5e 3e
       0.19273463 0.37735352 -0.1474101 0.21682899
0001d0 52 6a c4 3e 56 ce a5 be 2e 4d e1 ba 72 7b 55 3e
       0.38362366 -0.32383984 -0.0017189139 0.20847872
0001e0 74 50 cc 3c 48 66 cd 3e 08 b8 30 3e 3f b4 1a 3e
       0.024940707 0.40117097 0.17257702 0.15107821
0001f0 3c b3 5a 3c fb 33 a0 3e 7f 63 14 bd 60 9c ca be
       0.013348397 0.31289658 -0.0362277 -0.3957243
000200 6d b9 b9 bd c8 63 4e be 4d 46 0c bc 96 b1 2d bd
       -0.0906857 -0.20155251 -0.008561683 -0.042405687
000210 fb 39 3c be 07 44 6f be 58 5e 00 3e 54 4c 52 bd
       -0.18381493 -0.23365794 0.1253599 -0.051342323
000220 a5 9d 21 bd 65 23 a3 bd ec 33 bc 3d ab 0d 67 bd
       -0.039456982 -0.07965735 0.09189591 -0.05640952
000230 e7 41 e7 3c 31 98 4e be 20 18 97 3e 9d 68 8b 3e
       0.028229667 -0.20175244 0.29510593 0.2722825
000240 55 99 5e be 14 b1 64 3e f1 00 d7 3d ae 23 2b bd
       -0.21738179 0.22333175 0.104982264 -0.041782074
000250 94 e0 d8 3c 31 b1 b0 3e bf 35 72 3d 45 98 27 3d
       0.026474275 0.34510186 0.059133288 0.0409167
000260 78 62 c6 bd f5 b0 d6 3d eb 83 4b 3d ab 72 31 bc
       -0.0968675 0.104829706 0.049686354 -0.010830562
000270 49 14 9c bd 3b 04 01 3f 7f c6 7c bd 2c 44 57 be
       -0.076210566 0.5039708 -0.061712738 -0.210221
000280 db fd f3 be 84 b2 ef bd 41 67 ec be 01 f0 ef bd
       -0.47654614 -0.11703971 -0.46172526 -0.11715699
000290 2c 58 55 3d 73 42 5e bd 4f 21 10 bf fd ab b1 bd
       0.05208604 -0.05426259 -0.56300825 -0.08675382
0002a0 f9 f9 13 be 58 88 ad be 31 12 b3 be a5 87 26 be
       -0.14450826 -0.33893085 -0.34974816 -0.16262682
0002b0 fe ea 6c 3e b0 84 2c 3e a4 f2 f2 3d 4c b6 00 bb
       0.23136517 0.16847491 0.11862686 -0.0019639907
0002c0 c3 3b 72 be f1 6c 33 be 54 a7 d7 3c f0 60 cb 3c
       -0.2365561 -0.17522027 0.026324905 0.024826497
0002d0 b2 cd b5 bd c3 14 f1 3d 4c c1 04 3d 64 20 d3 bd
       -0.08877124 0.11771538 0.032410905 -0.103089124
0002e0 ec 73 69 be ad 9b 2a 3f ae 09 64 3e f6 b7 ba 3e
       -0.22798127 0.6664379 0.22269318 0.36468476
0002f0 55 f0 e2 be a9 00 38 be db bc d9 bd 80 d1 2c bd
       -0.44323984 -0.17969002 -0.106317244 -0.042191982
000300 33 f1 15 be 75 ed 7b bc 1d fa 80 bd e8 26 25 3e
       -0.14642791 -0.015376438 -0.06297705 0.16128123
000310 6c c7 47 3e 67 e0 16 bd 41 b5 a1 be 41 85 ae be
       0.19509667 -0.0368351 -0.31583598 -0.3408604
000320 02 d3 91 3d 6b 1c 8a be 0c 92 e4 bd c1 ec ba 3e
       0.07120325 -0.26974806 -0.11160669 0.36508754
000330 87 1b 3f be ea 17 a2 be ee 68 c0 be b8 97 ac 3d
       -0.18662845 -0.3165887 -0.37580055 0.084273756
000340 96 51 39 3e af 45 97 be fa 0c 5d be 35 3f 17 3d
       0.18097529 -0.29545352 -0.21586981 0.036925513
000350 8f a0 2d 3d 21 28 3d be 66 2c a1 be e6 e6 70 3e
       0.04238945 -0.18472339 -0.31479186 0.23525581
000360 08 d2 63 3d 3c 5b c7 3e 3a 28 e1 3e 9f 52 aa bd
       0.055620223 0.38936794 0.43976003 -0.0831654
000370 81 a3 ab bd ba ad 3c be 5d 72 a3 3d 25 56 d1 3e
       -0.08380795 -0.18425646 0.079807974 0.40886036
000380 77 b0 7c be db b5 08 bf ca 86 ed be d1 09 03 3d
       -0.24676691 -0.5340249 -0.46391898 0.031991784
000390 bd 0b 0e bd 33 bf f9 bb 0c dd 3c bd e0 d1 7a be
       -0.034679163 -0.0076216697 -0.046109244 -0.24494123
0003a0 6b 76 20 be 5d 47 17 3e c3 5d 2a 3e 1a 20 34 be
       -0.15670173 0.14773317 0.1663733 -0.17590371
0003b0 d2 fc d6 be 5d 12 33 bd 7c 4d b2 be ed d3 21 bb
       -0.41989762 -0.043718684 -0.3482474 -0.0024692968
0003c0 eb 7c 0f 3e 9f b3 ab 3c 69 ff 62 3e ab 94 86 3d
       0.14012496 0.020959673 0.22167744 0.06571325
0003d0 17 ef 08 3d e1 10 91 be c9 af 9e be 67 e3 4d 3e
       0.03343114 -0.2833319 -0.30993488 0.20106278
0003e0 dd 9b 8b 3e bb 7a c5 3c 62 d4 84 3d 00 00 42 3c
       0.27267352 0.024106374 0.06485821 0.01184082
0003f0 d3 55 e2 3e 4d f0 ca be 8f 34 f6 bc 4d 74 7e 3e
       0.44206104 -0.3963646 -0.030054359 0.24849053

lstm.bias_ih_l0 f4 [40]
000000 72 d1 31 3e e3 5f 56 3e 53 2d e2 3e 3c 8b 82 bd
       0.17365053 0.20935015 0.44175205 -0.06374213
000010 f3 3c 70 3d 0a 36 d2 3e 10 f8 1d 3f 6d a4 08 3f
       0.058651876 0.41056854 0.6170664 0.53375894
000020 5f 5a f9 3e 28 b2 8b 3d 45 8d 81 3d 2e 7d ab bd
       0.4870176 0.0682109 0.06325773 -0.083734855
000030 fd ca 9d be f8 2d a3 3e 88 6a 39 bd 53 c5 c5 3b
       -0.3081893 0.3187101 -0.04526761 0.006035486
000040 76 f0 dc 3e 90 7e 1d bc df a2 df bd 49 16 8e 3e
       0.43152207 -0.009612694 -0.10919737 0.27751377
000050 76 15 f1 bd ad 7a 8e bc 75 cc 3e be 84 1c 76 3e
       -0.117716715 -0.01739248 -0.18632682 0.24034315
000060 cf d1 2f be d0 85 dc bd b8 b9 11 be 08 c1 a1 bd
       -0.1716988 -0.1076771 -0.14231002 -0.07898146
000070 df c8 c5 3e a0 aa c5 be 56 67 97 bd 68 d4 0e 3d
       0.38629815 -0.3860674 -0.07392757 0.034870535
000080 7e dd f7 3d d9 88 da 3e 39 27 70 3e cf 64 d6 3e
       0.12102793 0.4268253 0.23452462 0.41873786
000090 55 7e cc 3e 39 c6 ce 3e cf b8 1b 3f 3d 12 6a bd
       0.39940134 0.40385607 0.6082887 -0.0571463

lstm.bias_hh_l0 f4 [40]
000000 28 65 53 3e ba 3c 52 3e 81 aa 40 3e c9 01 fc 3e
       0.20644057 0.20530978 0.18815042 0.49220112
000010 d4 16 6a bc e5 0f f1 3e ca 19 ba 3e 37 32 3a 3e
       -0.014287669 0.4708244 0.363478 0.18183218
000020 53 f5 04 3f 69 b1 3f 3e 63 dd 90 be 61 14 9e bc
       0.51936835 0.1872002 -0.28293905 -0.019296827
000030 b5 0f 0e bd 3a 38 ae 3e 25 32 e1 3d 78 3f cc 3e
       -0.03468295 0.34027272 0.109958924 0.39892173
000040 8b 56 a1 3e 47 52 bd 3e cc 06 1b 3e db 34 c1 3d
       0.3151134 0.36976835 0.15139312 0.094339095
000050 56 17 61 bd 68 14 c6 be 4f 74 a9 be 19 55 a3 be
       -0.054953896 -0.38687444 -0.3309655 -0.31900862
000060 4e e4 9b 3d 02 25 df bd da 76 cb be 1e cf 20 3e
       0.07611905 -0.108957306 -0.39739114 0.15704009
000070 1c b4 2c be ac 1a 6e 3d 24 b1 f4 3d e2 8c 8e 3e
       -0.16865581 0.058130905 0.119478494 0.2784186
000080 8b 67 88 bd f4 87 7a bd af 88 0b be c7 93 b2 3e
       -0.06660374 -0.06116481 -0.1362636 0.3487837
000090 99 ee a4 3e b0 ea 95 3e a7 46 ed 3e 34 c0 95 3d
       0.32213286 0.29280615 0.46342966 0.073120505

lstm.weight_ih_l1 f4 [40, 10]
000000 4d a5 05 bf c7 6c 55 bf 7b e5 37 be 02 f1 ce be
       -0.52205354 -0.83369106 -0.17958634 -0.4041825
000010 5b 58 86 be 04 8f 80 3f 1d 29 85 3d 7d d2 05 3f
       -0.26239285 1.0043645 0.06501982 0.52274305
000020 c8 9f 4b bf cb 22 79 3e a6 e6 11 3d 2f a1 c6 be
       -0.7954068 0.24329679 0.035620354 -0.38794848
000030 bd 4f 49 bd 06 ff 7d 3c 27 0c d9 bc 34 8d 3d 3d
       -0.04914831 0.015502697 -0.026495053 0.04627724
000040 53 0f fb 3e bf 8e 0d be b6 81 cb be ec 7e 2c be
       0.4903513 -0.13823985 -0.397474 -0.16845292
000050 49 88 93 be 30 1e 8c be 57 0e 23 3e 9b 70 73 be
       -0.28814915 -0.2736678 0.15923439 -0.23773424
000060 4b a1 5d 3c 99 42 ab bd b7 c3 c5 be 44 ed b1 3e
       0.013527225 -0.08362312 -0.3862588 0.34751332
000070 1a fc 2d 3e 2b 14 1c 3d be 41 9e bd 7c 22 3d 3e
       0.169907 0.03810517 -0.07727383 0.18470186
000080 77 10 c5 3d ea d7 28 3e e6 6d c5 3d 86 be a2 3d
       0.09622281 0.16488615 0.09640102 0.07946496
000090 83 2d 65 3e b5 68 bf 3e 0c af 53 be 74 47 2a 3e
       0.22380643 0.37384573 -0.20672244 0.1662882
0000a0 d1 72 28 be 8c 7b c9 be 9a 36 c1 be ef 22 cc bd
       -0.16450049 -0.3935207 -0.3773697 -0.099676006
0000b0 cf df 8b be 83 ef 32 3f 6f bf cd bc 17 6b c6 3e
       -0.2731919 0.69896716 -0.025115697 0.38753578
0000c0 28 04 f1 bd 23 f7 07 be d9 3c 12 3d 32 8f eb bd
       -0.11768371 -0.13277869 0.03570256 -0.11501922
0000d0 4c fc 32 3e 47 fc 72 be 27 de 89 bd 10 bc 70 3d
       0.17479056 -0.23729049 -0.06731825 0.0587731
0000e0 33 f9 91 be f9 d6 76 3e 47 a1 78 3e 63 14 e3 be
       -0.28510436 0.24105443 0.24280272 -0.4435149
0000f0 30 64 7c be 33 f3 65 bf 3e c3 a3 be a6 62 15 bf
       -0.24647593 -0.8982422 -0.31984895 -0.5835365
000100 1c 62 c9 bc f4 81 2a 3f b4 ba 44 bf e1 b8 df 3e
       -0.024582915 0.6660454 -0.76847386 0.4369574
000110 b2 a0 d3 bd 33 d8 27 be c6 79 ba be c5 fe d2 be
       -0.103333846 -0.16391067 -0.3642103 -0.4121
000120 65 97 a7 be e7 9e 36 bf be 5a 33 bf 32 32 0e 3f
       -0.32732692 -0.71336216 -0.70060337 0.5554534
000130 c6 39 e5 3e 49 12 09 3f 11 d7 0b bf 0a 35 4f 3e
       0.4477064 0.53543526 -0.5462504 0.20235077
000140 e4 ea 48 3e e9 3f 01 3d ef fa 86 3d 9c b3 09 3e
       0.19620854 0.03155509 0.065908305 0.13447422
000150 3f 24 81 bd c6 b9 0b 3f 39 46 d6 bd e3 08 76 3d
       -0.063057415 0.5458034 -0.10462613 0.06006707
000160 77 06 d9 be 9c 30 11 bd cd 40 80 be ca 72 9d be
       -0.42387745 -0.03544675 -0.2504944 -0.3075164
000170 73 a8 82 be 60 1e 9c be a7 c3 85 bc db 49 21 3f
       -0.25519142 -0.30491924 -0.016328646 0.6300332
000180 aa 7b 02 3e 5d 39 99 3e 14 47 a9 be 56 83 15 3d
       0.12742487 0.29926577 -0.3306204 0.036502205
000190 67 35 39 be 35 1c 81 bd 45 0e 98 be 08 73 59 be
       -0.18086778 -0.06304208 -0.29698387 -0.21235287
0001a0 0b b2 a0 be 82 66 9c 3e 5a ed 70 bd 88 04 c8 3e
       -0.31385836 0.30546957 -0.058820106 0.39065957
0001b0 b9 c1 36 3d 57 82 67 3e d2 c7 9a 3e 83 a5 87 be
       0.044618342 0.22608314 0.30230576 -0.26493463
0001c0 9c 19 94 3e ef 03 82 be 36 8d 88 3e 4f b9 a0 be
       0.28925788 -0.25393626 0.26670235 -0.3139138
0001d0 e5 03 c7 3e dc a8 43 be 2b dd 58 3e 86 ef 67 be
       0.3887016 -0.19107383 0.21178119 -0.22649965
0001e0 e6 21 70 3e ea 3c 84 bd 5b 41 64 bc 05 dd b5 3d
       0.23450431 -0.06456931 -0.013931598 0.08880047
0001f0 e8 31 06 3e 38 35 42 3e 7a 80 6b be e7 15 8b 3e
       0.13104975 0.18965614 -0.22998229 0.27165148
000200 b7 eb 4c 3c 06 cc fc 3d 3e 02 72 be 7c 61 90 3e
       0.012507371 0.12343602 -0.23633668 0.28199375
000210 b1 b2 d5 bd d7 47 31 3d b7 29 04 3e 84 da a1 bd
       -0.10434473 0.043281402 0.12906538 -0.07903007
000220 6d cd 46 3e ce f0 64 3e de aa 9b 3e 18 c0 cb bc
       0.19414301 0.22357485 0.304038 -0.02487187
000230 7b ac ed bd 1c b1 3d be 23 47 88 bd f6 7e b2 be
       -0.11605164 -0.18524593 -0.06654193 -0.34862489
000240 47 ef dd 3c 94 fc a8 3d 40 58 43 be 47 74 77 3e
       0.027091635 0.082513005 -0.19076633 0.2416545
000250 02 65 a3 3e b6 cd 82 bd 53 30 73 3d 75 71 b6 bd
       0.31913 -0.063868925 0.059372257 -0.08908359
000260 5a 67 24 be 99 3c ee be 08 2a f6 3a c0 61 46 3e
       -0.1605505 -0.46530607 0.0018780837 0.19373226
000270 a2 a3 f8 3c 76 d1 83 3e 1b 12 bb bd 4f 04 d7 3d
       0.030351464 0.25745744 -0.09134313 0.10498869
000280 1d ae 1b be ad a7 30 be bf c0 5f bb f9 95 96 bd
       -0.15203138 -0.17251463 -0.0034141985 -0.07352824
000290 e9 1c 93 be 55 cf a0 3c 99 63 c6 bd d0 f3 c2 3d
       -0.28732994 0.019630114 -0.096869655 0.0951916
0002a0 56 92 04 3d 35 41 d3 bc 82 24 ee be d7 f6 0f be
       0.03236612 -0.02578793 -0.46512228 -0.14059006
0002b0 4e ed cc bd b8 4c 98 bb 58 55 b5 bd f0 19 59 3e
       -0.100062 -0.0046478175 -0.08854169 0.212013
0002c0 f7 9f d8 3d 87 35 30 be 4b 5d 5c 3d 71 4b 66 be
       0.10577386 -0.17207919 0.05379991 -0.22489716
0002d0 31 19 0e 3e 3d 4c a5 3e 3e c9 92 be eb 58 27 be
       0.13876797 0.32284728 -0.2866916 -0.16342513
0002e0 17 0e 7c 3d f7 fa 9a 3e 0e 7c 0b be c0 3b ce 3d
       0.061536875 0.30269596 -0.13621542 0.1006999
0002f0 ae 49 71 bd e4 9f 86 be 4a 36 05 3e 34 50 6b be
       -0.058908157 -0.26293862 0.13008991 -0.22979814
000300 63 24 ba be 93 ee aa bd 04 bd 3d be 38 a4 43 bc
       -0.36355886 -0.08346286 -0.18529135 -0.011941008
000310 28 71 30 3c 09 5a f3 3d fb b4 82 be 91 01 97 bd
       0.010769166 0.11882407 -0.25528702 -0.07373346
000320 1d 2a dd 3e 4e 03 59 3e 8a ed 9c bc e3 ee 14 3f
       0.43196192 0.21192667 -0.019156236 0.5817701
000330 66 ff af 3e 5a 7a c6 be 15 bc b3 3a a7 71 0c bf
       0.3437454 -0.38765222 0.0013712669 -0.5486092
000340 80 92 2e 3e 36 10 7d 3e b8 e4 87 bd a1 a1 a3 3d
       0.17048073 0.24713215 -0.066354215 0.07989813
000350 0a f1 aa 3c 2b 00 9b 3e f0 48 4a be 40 bc 0a bd
       0.02086689 0.30273566 -0.19754386 -0.033870935
000360 7d 82 44 be 85 6d f0 bd cd c0 cf 3e b6 0c b2 3e
       -0.19190402 -0.11739639 0.40576783 0.34775323
000370 af c0 85 3b 29 b1 ce 3e 2b db df 3d e9 d9 dd 3d
       0.0040818076 0.40369537 0.10930475 0.10832579
000380 a4 97 c9 3d ae 76 ce 3e 2f d2 d3 3e 35 af c2 3d
       0.09843376 0.4032492 0.41371295 0.09506074
000390 ca 38 2d 3e 65 07 84 3d 39 61 c7 bd 8a 8e 40 3e
       0.16916195 0.06446723 -0.097353406 0.18804374
0003a0 52 d6 97 be dc be 5a be 79 97 90 be 15 02 a0 3d
       -0.296557 -0.2136187 -0.28240564 0.07812897
0003b0 24 d5 77 3c 31 ce 0b ba 5d 18 6f be 51 c4 19 bd
       0.0151265 -0.0005333154 -0.23349138 -0.037540738
0003c0 27 1a c7 be e3 5b b7 bd 6a 26 aa be 22 6a 68 bd
       -0.3888714 -0.08953073 -0.33232433 -0.05674184
0003d0 2d 59 c3 bd 99 40 cd 3e 49 cf e4 3d c9 e3 c8 3e
       -0.09538493 0.40088347 0.11172349 0.39236286
0003e0 b2 81 95 3d 61 c3 6a be c7 77 36 bd b7 f1 b4 3d
       0.07300128 -0.22926094 -0.044547822 0.08835166
0003f0 ac 3f bb bc 4e f0 a6 3d bf 03 5c 3e 9f e9 79 3c
       -0.02285751 0.08151303 0.21485804 0.0152534535

lstm.weight_hh_l1 f4 [40, 10]
000000 f6 30 53 be a2 e1 b3 3c db 5b 5e be 39 d9 a8 3d
       -0.20624146 0.021958176 -0.21714728 0.08244557
000010 74 3a 7a 3d 36 f6 64 3e de 85 e2 bd a5 b5 91 be
       0.0610909 0.22359547 -0.110606894 -0.28458896
000020 6d a9 9d 3d 94 ec 42 be 3c 1b a5 3e e5 e6 9a 3e
       0.07698331 -0.1903556 0.3224734 0.30254284
000030 09 b5 51 3d 64 16 89 be 3e ce c1 be e3 7d d0 3e
       0.05119804 -0.26774895 -0.37852663 0.40721044
000040 d9 25 36 3d 90 a0 65 bd 39 2b 6a 3e 0d 5f 47 bc
       0.044469688 -0.056061327 0.2286805 -0.012168658
000050 cb 5d f4 be 30 df 9f be 36 68 c3 bd 03 ef b1 3d
       -0.47727808 -0.31224966 -0.09541361 0.08688166
000060 94 ea d6 3d 21 a9 98 be 84 ed b2 3e 8a 05 07 be
       0.10493961 -0.29816535 0.34946835 -0.13185707
000070 f7 09 5a 3e c3 13 54 3e d0 4e 8b be 11 79 2e bd
       0.21292864 0.20710663 -0.27208567 -0.042595927
000080 7b a7 3f 3e b8 ef 41 be 48 70 7a be 0f d0 f1 bc
       0.18716232 -0.18939102 -0.24456894 -0.029518155
000090 eb cd 68 be 98 16 85 bc b1 a4 18 be f5 28 10 3e
       -0.22734801 -0.016246125 -0.14906575 0.14078124
0000a0 7e f3 7f bd 1f fb ad be 0c f4 37 bd b8 7f b8 3e
       -0.06248807 -0.33980653 -0.044910476 0.36034942
0000b0 2a 96 b5 3e 24 11 33 be 0d c7 b4 3d 23 b6 91 be
       0.3546613 -0.17487007 0.088270284 -0.28459272
0000c0 9c d0 16 3e 55 27 01 3c da 9e 2b be 1a 5f cd bd
       0.14728016 0.007882913 -0.16759816 -0.10027905
0000d0 01 31 92 3d 33 44 57 be 26 7f 83 3e 67 52 f5 be
       0.07138253 -0.2102211 0.25682944 -0.4791443
0000e0 3f d5 c6 3e 33 56 7a be f6 3f 4c 3d 00 5e 58 be
       0.3883457 -0.24446945 0.049865685 -0.21129608
0000f0 ae 5b d9 be 87 75 02 bf b7 c7 31 be 26 ec bb 3e
       -0.4245276 -0.5096058 -0.17361341 0.36703604
000100 ad 30 ee 3e 6c e5 ae be d5 ba 07 3e 62 ff c7 be
       0.46521512 -0.3415941 0.13254865 -0.3906203
000110 49 43 c8 3d c6 80 0e bf 32 9b 3e 3e 51 d8 cf bc
       0.097784586 -0.5566524 0.1861389 -0.025371702
000120 92 3f 15 3f 80 c5 7b be 98 e1 38 3c 7f a0 ff 3d
       0.58300126 -0.24587059 0.0112842545 0.12481784
000130 df b5 bc be 35 70 be be 4f 03 a6 3e 7e 76 30 be
       -0.36857507 -0.37194982 0.324244 -0.17232701
000140 a7 4b 76 ba 0c 00 5f be b5 fe 9a 3e 7a da a1 3d
       -0.00093954284 -0.21777362 0.3027245 0.07902999
000150 31 bd 68 3e eb 2c 07 bd f6 3b da bd eb 25 8b be
       0.22728421 -0.03300182 -0.10655968 -0.27177367
000160 a9 09 c1 3b ab 6b 9e 3e 0e 35 9b 3e d6 f9 bc 3c
       0.005891044 0.3094152 0.30313915 0.02306835
000170 ad 25 a1 ba 0e ce 89 bd c0 6d 35 3d 1e dc a1 be
       -0.0012294553 -0.06728755 0.04429412 -0.3161325
000180 24 18 68 be 9b 3e 9b 3d 6d 31 89 be ea cd 9d bc
       -0.22665459 0.075803004 -0.2679552 -0.019263227
000190 de bd a1 bd fe 75 4e bd c0 68 d7 be 97 e1 29 3e
       -0.078975424 -0.050405495 -0.42072105 0.16589962
0001a0 39 5a 46 be 85 20 bc be 3b 42 02 3e f2 f2 54 3e
       -0.19370355 -0.3674356 0.12720577 0.20795801
0001b0 0a a3 a4 3d c1 43 5d be bd d4 9f 3d a8 e6 62 be
       0.0803891 -0.21607877 0.078042485 -0.22158301
0001c0 c7 9f 3c 3e 33 66 59 bd c8 a9 6a 3c 84 1d 48 3e
       0.18420325 -0.05307598 0.014322706 0.1954251
0001d0 20 75 27 be 7e 64 17 3e 7f 5a 48 be 2c c0 51 be
       -0.16353273 0.14784428 -0.19565772 -0.20483464
0001e0 8f 01 88 3e 88 af 52 bc a1 d7 81 3e 33 de 01 3d
       0.2656369 -0.012859233 0.25359824 0.031706046
0001f0 eb 77 02 be 50 20 32 be 3e fb fd bd 3e 15 76 3e
       -0.12741058 -0.17395139 -0.12401436 0.24031541
000200 e6 09 81 bd ca 95 37 3e 92 f7 ae be 6b db e1 bd
       -0.06300716 0.17928234 -0.34173256 -0.11028179
000210 e5 5c d7 3d 1e a2 84 3e f3 0b 5f 3e 04 6e df bd
       0.10515765 0.25904936 0.21781902 -0.10909656
000220 91 6e 29 3e e8 c5 98 be a8 89 e5 bc c9 62 a4 be
       0.16546084 -0.2983849 -0.028019741 -0.32106617
000230 98 03 14 3e 1b 5a e7 bd a9 0f 33 3e ad 93 57 be
       0.14454496 -0.11296483 0.17486443 -0.21052428
000240 99 7d 0b 3e 18 bf b3 3d 5d ea 15 3e f6 e0 6e 3d
       0.1362213 0.087766826 0.14640184 0.05832001
000250 9e 9a 24 3e ff 9e ad be 50 b0 21 bd 39 d5 1c be
       0.16074607 -0.33910367 -0.039474785 -0.15315713
000260 e1 13 b1 be 57 9c da bd 70 32 cf bc 77 1d c1 be
       -0.3458548 -0.10674351 -0.025292605 -0.37717792
000270 ad 3c 82 bd 6d ca 99 be 9b 5f 6a 3e 19 59 f0 3d
       -0.06359229 -0.3003725 0.22888033 0.11735744
000280 76 ee 6e be 14 68 54 be d7 c0 c3 be 3d 0d 9d 3e
       -0.23333153 -0.20742828 -0.38233063 0.30674163
000290 10 ff 92 3e b9 3f a1 be 3c d3 79 3e 7c 4a 5a be
       0.28710222 -0.3149393 0.24396986 -0.21317476
0002a0 e4 1d d0 3e e1 91 ca bd 35 ea 76 bc b8 d3 9f bc
       0.40647805 -0.098911054 -0.015070488 -0.019510135
0002b0 3c 5b 22 3d 2b 9c b3 3d b7 ec cf bd 21 62 1b bc
       0.03963779 0.08770021 -0.10152572 -0.009483845
0002c0 d8 97 e6 3e 3e 9f a1 be f5 6a b4 3e 25 1f d4 3c
       0.45037723 -0.31566805 0.35237852 0.025893757
0002d0 fb 99 f6 3d b0 13 8d 3e 10 89 e1 bd 33 49 62 3d
       0.12041088 0.27554083 -0.11012471 0.05524559
0002e0 52 5e 93 3e 07 31 18 be 04 6d 05 be bc 91 b2 be
       0.28782898 -0.14862452 -0.13029867 -0.34876812
0002f0 6d 00 fe 3d a2 ab 91 3e 9d f1 43 be 6c 3a 01 3e
       0.12402425 0.28451258 -0.19135137 0.12619942
000300 ae 8e d9 bd 8d 85 a0 3e 75 a1 e6 bb 9d d2 69 3e
       -0.10622917 0.3135189 -0.00703829 0.22834249
000310 4a 59 b4 3e ca 79 f9 bd 6e 95 26 be dd a6 2b 3e
       0.35224372 -0.121814325 -0.1626794 0.16762872
000320 72 6b 05 3f 45 7d 22 3e d8 3b 89 3e a5 a2 28 be
       0.52117074 0.15868099 0.2680347 -0.16468294
000330 76 6a 9d 3c 36 7e d0 3d ea fc 0f bd 39 5b 06 be
       0.019215804 0.10180323 -0.035153307 -0.13120736
000340 5b d7 0a 3e 3e 0a 50 3e a5 b2 2a be c8 95 a6 3e
       0.13558714 0.20316407 -0.1666971 0.3253615
000350 8a fc e8 bd 4c 5e 6b be 29 94 82 be f1 a1 0c 3e
       -0.11376293 -0.2298519 -0.25503662 0.1373365
000360 bb 0b ad 3d c4 62 84 be 50 d7 20 3e 79 d6 24 3e
       0.08449503 -0.25856602 0.15707135 0.1609744
000370 ed a9 0d 3f c0 3a a7 bc 52 9f a0 be 75 a7 04 3e
       0.5533741 -0.020413756 -0.31371552 0.12954505
000380 58 24 8f be a7 c4 d5 3e c5 82 3f 3c 2d a2 88 be
       -0.27957416 0.41751596 0.011688893 -0.2668623
000390 7b a0 8a be 29 5a 90 3e c2 72 42 bc 03 7a 06 3c
       -0.27075562 0.28193787 -0.011868181 0.008207801
0003a0 87 21 a6 3d 36 3a 87 3e 7c b0 b0 3e 4d 61 67 3e
       0.081118636 0.264116 0.34509647 0.22595711
0003b0 32 1f bb 3d 19 3d 53 3e 70 45 7f 3e 46 f7 71 bd
       0.091368094 0.20628776 0.24928832 -0.05907371
0003c0 9d 67 a9 be 05 87 0f 3e 00 5c f9 bd 43 39 f1 bd
       -0.33086863 0.1401635 -0.12175751 -0.117785
0003d0 ab fa 4c bd 0e 8d 0b be 06 33 ab 3e 11 c7 29 3d
       -0.050043743 -0.13628027 0.33437365 0.04144961
0003e0 96 c1 6a 3e 76 c7 c4 bd b4 80 a4 3d f1 b7 5e 3d
       0.2292541 -0.09608357 0.08032361 0.05437464
0003f0 27 d7 99 3c 25 64 4b 3e 87 7f 11 3e f6 a0 73 3e
       0.01877935 0.19862421 0.14208804 0.2379187

lstm.bias_ih_l1 f4 [40]
000000 59 45 11 bc 24 07 21 3e 67 2b a5 bd 32 53 a7 3e
       -0.008866631 0.1572538 -0.08064919 0.3268066
000010 ba f5 55 3e 2b d5 09 3e 67 33 74 3d 87 92 85 3e
       0.20894518 0.13460223 0.059619334 0.26088354
000020 5e d6 73 be a9 28 6a bd 98 bd 1c 3b 14 cb f8 3d
       -0.23812243 -0.057167683 0.0023916718 0.12148109
000030 89 0b 1e be 0b c5 53 3e d3 c6 84 3e 26 6a 91 3e
       -0.15434088 0.20680635 0.2593294 0.28401297
000040 80 98 bd bd 87 ee 77 bd 12 5b 2e 3e 2b c1 87 bd
       -0.09257603 -0.06053021 0.17026928 -0.06628641
000050 9d f6 7b 3c c6 95 27 be fb e6 48 3e ba 54 8f 3e
       0.015378621 -0.16365728 0.19619362 0.2799433
000060 dc 3c 51 3e d4 04 6d be 44 84 84 3d f1 ea 2b be
       0.20433372 -0.23146373 0.0647054 -0.16788842
000070 52 fa c1 3e 0c 1a 87 be b3 80 92 3d 60 ba 04 bd
       0.37886292 -0.2638706 0.07153454 -0.032404304
000080 b8 33 7b 3c 32 d3 87 bd bf 78 af 3d 85 ea c3 3d
       0.015332155 -0.06632079 0.08567952 0.095662154
000090 ce 5c b3 bc 26 ec 58 3e ba ad a3 bd 4b 6e d4 bb
       -0.021894839 0.21183833 -0.0799212 -0.0064828745

lstm.bias_hh_l1 f4 [40]
000000 d0 a8 ec 3e 37 31 d4 3d 72 ab ab 3e 55 ec 21 be
       0.46222544 0.103609495 0.3352924 -0.1581281
000010 3f b0 86 bd 85 f7 0e 3e 5c 37 ff 3d 1c d0 0f 3f
       -0.06576585 0.13961609 0.12461731 0.56176925
000020 f8 9d 8d 3e db 65 09 be bd 5c 6c 3e 1f 5a 0e be
       0.27659583 -0.13417761 0.23082252 -0.13901566
000030 69 b7 35 3e e3 23 1d 3e 2f 45 6b 3d df ce 69 3e
       0.17745747 0.15345721 0.057439025 0.22832821
000040 a4 9d 70 ba 3e 89 2d be a7 80 72 3d 1d d7 b4 bd
       -0.0009178764 -0.16946885 0.059204724 -0.08830092
000050 74 63 eb bd fe ac b7 3d 9b 20 0e 3d e5 0a 6d 3d
       -0.114935786 0.089685425 0.034699064 0.057871718
000060 c3 94 be 3d b4 36 92 3e 62 0a 6d be 0d bf 40 3e
       0.09305718 0.2855736 -0.23148492 0.1882288
000070 cc cc d8 bd 4a b6 9f be 31 7c 62 3d 37 29 cc 3d
       -0.10585937 -0.31193763 0.05529422 0.099687986
000080 d8 0b 33 3e 29 de 95 3e ee 07 a7 3e 00 26 69 3d
       0.17484987 0.29271057 0.32623237 0.056921005
000090 1a c4 c4 3e 0d 25 24 3f fb 53 58 be 50 4d 19 3e
       0.38430864 0.64119035 -0.21125786 0.14970899

lstm.weight_ih_l2 f4 [40, 10]
000000 c8 5d 2c be b0 a1 ca be 9b b4 8e 3e dc 1c 8b 3e
       -0.1683265 -0.39576483 0.27872166 0.27170455
000010 d9 d3 ac 3e 1f 36 d3 3e 5a be e5 be 5d 47 9b be
       0.33755377 0.4125223 -0.4487179 -0.30327883
000020 60 be a5 3e 63 46 a7 be 96 27 f6 be 0e d3 4f bd
       0.32371807 -0.32670888 -0.48077077 -0.050738387
000030 75 e9 0d 3f b8 89 87 3e b4 24 e0 3e 86 f4 e0 3e
       0.5543435 0.2647226 0.43778002 0.43936557
000040 40 dc af be 2e 98 2d bf e5 b2 84 be d5 99 b2 be
       -0.34347725 -0.6781033 -0.25917736 -0.3488299
000050 93 41 37 3d b3 15 b5 3b b2 35 03 3e d6 38 ad 3e
       0.04474027 0.0055262684 0.12813452 0.33832425
000060 42 ec af 3e 64 fb b2 3e ab ef 14 bf e0 c4 8c be
       0.34359938 0.3495742 -0.58178204 -0.27493954
000070 51 1e aa 3e 49 8c 0b bf 23 76 9f be 2b ff ba bd
       0.33226255 -0.54510933 -0.3114482 -0.09130701
000080 38 fd 6a be d6 44 70 3e c7 85 1c bd 19 ac a1 be
       -0.22948158 0.23463759 -0.038213518 -0.31576613
000090 82 c2 7d bd 46 01 69 be 90 5b 48 3e 6b d0 60 3e
       -0.061953075 -0.22754392 0.19566178 0.21954505
0000a0 35 78 bd be 60 b4 02 3e c3 d8 b3 3e 15 d4 ad 3e
       -0.37005773 0.1276412 0.35126314 0.33950868
0000b0 c1 88 82 3e c9 01 ca 3d 86 c2 9f bd 0a 0d 1f bf
       0.2549496 0.09863622 -0.07800774 -0.6212927
0000c0 8e 88 15 3e e1 48 01 be 36 21 9f be 0e c9 24 be
       0.14602873 -0.12625457 -0.31080025 -0.16092321
0000d0 ca 71 8f be 1a 69 02 3d ea 05 21 3e 62 a0 33 be
       -0.28016502 0.031838514 0.15724912 -0.1754165
0000e0 ce 6e c9 be 8e e2 5e be 5a 80 61 3e 89 23 30 be
       -0.3934235 -0.21766111 0.22021618 -0.17201056
0000f0 ee 4c c3 3e 62 54 af 3e 99 b2 01 be 22 b2 d4 bc
       0.3814463 0.34244066 -0.12665786 -0.025963847
000100 49 28 7a bd 8d a2 d4 3d d5 56 1c 3e d3 1d 6d 3d
       -0.061073575 0.103825666 0.15267499 0.05788977
000110 9f ff ce 3d 05 df 51 3e a0 ec 33 bd e2 89 1b be
       0.101073496 0.20495231 -0.043926835 -0.15189317
000120 92 98 6f bc 6c e1 22 3e aa 6a 58 3e 87 67 03 be
       -0.014623778 0.15906304 0.21134439 -0.12832461
000130 e6 ab ac 3d a2 f5 24 3e d2 4b 1b 3e 4c 8c 56 be
       0.084312245 0.16109326 0.15165642 -0.20951957
000140 03 5f 4e be 98 15 08 bd 6b e9 ea bd d1 b3 b3 bd
       -0.20153432 -0.03322372 -0.11470302 -0.08774532
000150 06 ed ff 3d 05 9e 2d 3d b0 2e 99 bd 93 fd 79 be
       0.124963805 0.042387027 -0.07479608 -0.24413137
000160 0f da c1 3d 5b a5 54 3e 49 07 cd 3e fa bf 28 3e
       0.094654195 0.20766203 0.4004462 0.16479483
000170 d1 f3 0a be 61 ce 04 3e 47 b3 3a bd 48 6c 1c 3b
       -0.13569571 0.12969352 -0.04558113 0.0023868252
000180 43 d1 99 bd c9 cb 06 3e 12 63 de 3c 6f be 3d be
       -0.07510617 0.13163675 0.02714685 -0.18529676
000190 e2 4b d1 3e 68 0f 67 be 08 87 2c be 4e d8 a6 3d
       0.40878206 -0.22564471 -0.16848385 0.081467256
0001a0 1c 4a 0d be 3d 16 61 3e fa 0d 2d 3e 52 b1 06 3e
       -0.13797802 0.2198114 0.16899863 0.1315358
0001b0 93 2b 65 be 51 39 60 3e 93 5a 37 3e 52 59 d4 bd
       -0.22379903 0.21896864 0.17905645 -0.10368599
0001c0 ad 6e a6 3e 33 4d 8a be cd 1d d5 be 02 6e 82 3e
       0.32506314 -0.27012023 -0.416243 0.25474554
0001d0 00 c3 e0 3d 31 a3 b8 3e 64 37 89 be 07 d5 a1 3e
       0.10974693 0.36062005 -0.26800072 0.3160784
0001e0 b0 7e 5a 3e 4b 42 45 be 19 a5 be 3e 1f ab 35 3d
       0.2133739 -0.1926357 0.37235335 0.044352647
0001f0 c7 12 38 be f4 fe ec 3e e9 45 e2 3d a2 2f 4c 3e
       -0.17975913 0.46288264 0.110484906 0.19940045
000200 ce fc b1 bc cd 5b 34 be f8 60 1e bd 02 31 8d be
       -0.021726992 -0.17613144 -0.038666695 -0.27576452
000210 34 a2 0f 3e c3 be af bd 18 75 93 3e 77 60 91 be
       0.1402672 -0.08581307 0.28800273 -0.2839391
000220 95 f8 14 3c b3 75 a1 be 70 b2 8e 3e b2 89 19 be
       0.00909247 -0.3153511 0.27870512 -0.14993933
000230 33 a2 b2 3d 2c 2f 7e 3d 6c 5d 20 3e 28 39 16 3e
       0.08722343 0.062056705 0.15660638 0.14670241
000240 28 5d c7 bc 42 e4 68 be fa de 1f 3e 5a 18 44 bd
       -0.024336413 -0.22743323 0.15612403 -0.047874786
000250 f2 45 72 3e 06 90 94 3d b9 1b 08 bd 77 37 2e 3e
       0.23659495 0.07254033 -0.033229563 0.17013346
000260 ae 77 7a 3e 50 d2 2f 3e 00 7f 82 be d0 28 60 3e
       0.24459717 0.17170072 -0.25487518 0.21890569
000270 fb ab 91 3e 1c 2b 9f 3e a6 49 34 be d6 6a 1c 3e
       0.28451523 0.31087577 -0.1760622 0.1527513
000280 c8 fa 88 bd 00 5f 65 be 26 6f 66 3e b9 29 9f 3d
       -0.06688458 -0.22399521 0.22503337 0.0777163
000290 fd 40 aa be e2 71 be bd a3 82 81 3a 50 7f 82 bd
       -0.33252707 -0.09299065 0.0009880852 -0.06371939
0002a0 80 f0 a2 be 6b bf 62 3e bf 89 f3 bd f4 ce 3e 3e
       -0.31824112 0.22143333 -0.11891507 0.18633634
0002b0 98 20 0e 3e 05 db 0d bd 63 ad 06 3e b8 3e 9f 3d
       0.13879621 -0.0346327 0.1315208 0.077756345
0002c0 5f b6 42 3d 62 d3 11 3d e9 3c 7b bd d0 6e 76 be
       0.047537204 0.03560198 -0.061337385 -0.24065709
0002d0 01 16 8c 3e 75 d1 52 3e d1 48 bd bd bd 4b 0c be
       0.27360538 0.20587714 -0.09242404 -0.13700767
0002e0 a9 78 25 be 61 24 2e 3e aa db b2 be 41 45 3c be
       -0.1615931 0.17006065 -0.34933215 -0.18385793
0002f0 17 a9 84 be 20 e1 91 bd 33 3f c2 3e 69 01 4e 3e
       -0.25910255 -0.07123017 0.37938842 0.20117725
000300 9f 3f 5b be 08 6a 3a 3e 8c c4 4f bd c9 1a 5d 3e
       -0.21410988 0.1820451 -0.05072455 0.21592249
000310 b1 ab 0a be 74 8e 48 3e 0d a7 a1 be 0e 68 93 3e
       -0.13542058 0.19585592 -0.31572762 0.28790325
000320 5f 36 87 be 62 15 9d be f8 0b 94 be 05 43 a6 bd
       -0.2640867 -0.30680376 -0.2891538 -0.08118252
000330 ff 39 00 3e e3 4b a2 3d 0c 02 69 3e 5e 88 e8 be
       0.12522124 0.079246305 0.22754687 -0.4541654
000340 fa 36 78 3e bf 58 34 be 97 c5 9a 3e f8 15 3e 3d
       0.24239722 -0.17611979 0.30228874 0.04640767
000350 6b d0 8e be ec b6 43 3e 55 fe 6d be 1c 2a e0 3d
       -0.27893385 0.19112748 -0.23241551 0.10945532
000360 65 c3 61 bd e5 fd 0b 3f ca b7 26 be 5c d5 cd 3e
       -0.055117983 0.5468429 -0.16281047 0.40201843
000370 5b b6 8c 3e a7 01 ec bc 01 16 84 be 6b 57 86 3d
       0.27482876 -0.028809382 -0.25798038 0.065596424
000380 de e5 46 3e c7 a0 2c bd 60 93 32 3e ca 28 fb 3e
       0.19423625 -0.042145517 0.17439032 0.49054557
000390 cd 60 a5 be 70 c1 65 be 58 46 6c 3e b7 0f 3a be
       -0.32300416 -0.22437072 0.23073709 -0.18170057
0003a0 b2 39 2f be 78 a3 2f 3e b6 f1 71 be bc df 79 3e
       -0.17111853 0.17152202 -0.23627362 0.24401754
0003b0 29 20 70 3d 98 b9 f8 3d 2e a0 97 3e e6 38 a0 be
       0.05862442 0.12144774 0.29614395 -0.3129341
0003c0 aa 78 ff be b1 7b c8 be b2 09 9c bd cd 5c 9e 3e
       -0.49896747 -0.3915687 -0.07619037 0.30930176
0003d0 cd 02 d0 3e b8 ef 96 be 71 50 13 be 31 22 b8 be
       0.40627137 -0.29479766 -0.14386155 -0.35963586
0003e0 c6 c1 a6 bc 49 98 bf be 52 96 af be 4c f3 21 3e
       -0.02035607 -0.37420872 -0.34294373 0.15815467
0003f0 e3 64 66 be f8 5e 88 3e 91 b8 5e 3e 2d 19 9f be
       -0.22499423 0.26634955 0.21750094 -0.31073895

lstm.weight_hh_l2 f4 [40, 10]
000000 2d 72 8d be 95 4e af 3d 76 b6 05 3e 11 97 29 3e
       -0.27626172 0.0855991 0.13057885 0.16561534
000010 e9 3c 94 be 9b 56 05 be 75 89 ef 3c a7 0f 35 be
       -0.2895272 -0.13021319 0.02924035 -0.17681752
000020 af 93 48 be 82 5d 52 bc c8 c1 ad be 6b 72 ac 3e
       -0.19587587 -0.012839677 -0.33936906 0.33681044
000030 21 f9 19 bd d2 bc e8 3e 2e ba 46 be 49 e3 fd be
       -0.037591103 0.45456558 -0.1940696 -0.49587467
000040 15 34 b8 be 5f 53 ca be c9 64 c2 3d 42 03 87 3d
       -0.35977235 -0.39516732 0.094918795 0.06592418
000050 fe d2 75 3e c4 31 3a bd 56 12 70 3e 6e 9b bf 3d
       0.24006268 -0.045457616 0.23444495 0.09355818
000060 8a 7e 9e be 06 e2 d3 3d 25 96 01 3e cd e2 c9 be
       -0.30955917 0.10345845 0.12654932 -0.39430848
000070 06 53 4e 3e 65 65 da 3d 94 be 49 be 9b df fc 3d
       0.20148858 0.10663871 -0.19701606 0.12347337
000080 d9 87 bb 3c e9 32 fb bd 15 c2 9b 3e 49 73 f8 bc
       0.022891926 -0.1226557 0.3042151 -0.03032841
000090 a3 5e 92 be 36 2d ac 3e 43 81 18 be 56 ff 3d be
       -0.28587827 0.33628243 -0.1489306 -0.18554434
0000a0 91 e6 9a 3e 6f 07 61 3e 55 20 63 bc da 00 64 3e
       0.30254033 0.21975492 -0.013862689 0.2226595
0000b0 09 db a6 bd 0d 62 f4 3c 46 74 39 3e 35 5b d1 3d
       -0.081472464 0.02983191 0.18110761 0.102224745
0000c0 3c 44 81 bd 33 a3 81 be 7f b1 87 3d a5 4e 08 3d
       -0.06311843 -0.25319824 0.066256516 0.033278126
0000d0 dd 70 0d be 8c 8d 0f be 17 03 1f be 9a e4 f9 bd
       -0.13812585 -0.1401884 -0.15528522 -0.122018054
0000e0 6f 99 76 3d ff 82 6a 3e 16 65 ff 3d 90 4b c9 3d
       0.06020492 0.22901534 0.124704525 0.098288655
0000f0 75 07 b3 3d b2 ca 51 3e 02 f7 58 3e 6b f7 c7 3d
       0.08741657 0.20487478 0.21187976 0.09763988
000100 13 27 c2 be bd ad 98 bd fc 21 1b 3e 1b be 32 3d
       -0.37920436 -0.07455013 0.15149683 0.04363833
000110 0d 1d 01 be 5b dc ab 3e 97 76 01 3e a4 6f e5 be
       -0.12608738 0.33566555 0.12642895 -0.44811738
000120 d3 b7 0f be d3 d4 05 be a5 9c db bd 57 74 1e be
       -0.14034967 -0.13069467 -0.10723237 -0.15474068
000130 0a 91 c6 bd 1c aa 36 3e 3a 2e 93 bd eb 43 22 3e
       -0.09695633 0.17838329 -0.071865514 0.15846221
000140 0b b1 62 3e 42 28 4f be 5f 4a 91 3d a6 c5 30 3b
       0.22137849 -0.20230201 0.07094263 0.0026973276
000150 6f 9d 47 3e e4 9a 9a be 64 2d 3b 3d c9 b5 99 be
       0.1949365 -0.30196297 0.045697585 -0.30021504
000160 0b d2 67 be 4a ea 85 be d4 5e 88 be 3c b8 43 3e
       -0.22638719 -0.2615531 -0.26634848 0.19113249
000170 32 85 07 3e 88 1e 33 3d db 3c dd be 26 8c 5b be
       0.13234404 0.04373029 -0.43210492 -0.21440181
000180 63 e8 8a 3b aa 03 ec 3d 56 30 28 3e 70 5a 9c 3e
       0.0042391284 0.11524136 0.16424689 0.30537748
000190 d0 a3 01 3e be 73 a1 3e 68 75 89 3d 29 48 12 3d
       0.12660146 0.31533617 0.067118466 0.03571335
0001a0 d4 31 bf be e3 d7 3e be 19 80 ce 3c 5a 1c 8d be
       -0.37342703 -0.18637042 0.025207566 -0.27560693
0001b0 86 4a 8b 3e cd 47 8c be b4 71 ea be c5 d1 38 3f
       0.27205294 -0.2739853 -0.45789874 0.7219508
0001c0 a8 37 9d 3e 00 1a c5 bd 00 50 7a bd 7e 33 35 be
       0.30706525 -0.096241 -0.06111145 -0.17695424
0001d0 80 0e fa bd 11 d8 25 be e5 2c 2e be b1 5c aa bd
       -0.12209797 -0.16195704 -0.17009313 -0.08318461
0001e0 1e 99 f4 bc 93 3a b7 3e 62 38 84 3e db f0 28 3d
       -0.029858168 0.35786876 0.25824267 0.041245323
0001f0 91 7c 24 3e bf 18 14 be 44 d2 b6 bd 74 5c c9 be
       0.16063143 -0.14462565 -0.08926824 -0.3932835
000200 d5 34 9f 3d 8a 44 57 3e 7a f1 ab 3d bf d9 ec 3d
       0.07773749 0.2102224 0.083956674 0.11564969
000210 27 20 f1 3d 1c be 5a be 96 09 c5 3d af e6 2c 3e
       0.11773711 -0.21361583 0.09620969 0.16884874
000220 f8 9a 81 be 7c 37 f9 3d a4 86 24 be 5b 8f 0c 3e
       -0.25313544 0.12168786 -0.16066986 0.13726561
000230 a8 36 a3 3c d8 21 69 be b2 30 f4 bc 7e f1 92 be
       0.019923523 -0.22766817 -0.029808376 -0.2869987
000240 c1 bd 29 be 5a bd 85 be dc 6f 74 bd 10 0a bb 3d
       -0.16576292 -0.26121026 -0.05967699 0.09132779
000250 09 ce 5f 3e 5b 28 b4 be b0 05 43 bd 33 22 43 be
       0.2185594 -0.3518704 -0.047612846 -0.19056015
000260 69 7a ed 3d af 1e 7d 3c 75 10 97 3e b5 29 c0 3d
       0.115956135 0.01544921 0.29504743 0.09382955
000270 65 5b ee bd e2 e2 b6 bd 34 2a 90 3d 5c bd 18 be
       -0.11638526 -0.08929993 0.070392996 -0.14915985
000280 c7 1c 78 bd d2 58 4f 3e 91 12 16 be 59 33 54 3e
       -0.06057432 0.20248726 -0.1465552 0.20722713
000290 ee f3 9a be f5 50 72 3e 3e af 40 bd 8d 38 3e be
       -0.3026423 0.23663695 -0.047042124 -0.1857626
0002a0 62 86 3e be 5e 9c 7b be f8 21 56 3e 17 d7 85 be
       -0.1860595 -0.24571368 0.20911396 -0.26140663
0002b0 90 98 23 3e 94 fe 1c be 25 e7 7f 3e da 8c 09 be
       0.15976167 -0.15331489 0.24990518 -0.13432637
0002c0 bd b9 47 be cd 76 10 3e a2 b4 28 be 5e f1 77 3e
       -0.19504447 0.14107819 -0.16475156 0.24213168
0002d0 66 54 76 be 41 93 33 be 69 c5 11 3e 01 00 9c bd
       -0.24055633 -0.17536642 0.14235462 -0.07617188
0002e0 22 60 e6 bc 09 9b 03 be 6f f8 bc bd 17 54 50 3e
       -0.028122012 -0.1285211 -0.092270724 0.20344578
0002f0 81 58 82 bd c4 25 69 3d 1e 5f dd be db 25 bb bb
       -0.06364537 0.05692078 -0.4323663 -0.0057113
000300 38 ce 86 bd 51 37 05 be eb 81 93 bd 86 7d c7 bd
       -0.06582302 -0.13009383 -0.07202514 -0.097407386
000310 0c 76 39 be be 10 a0 be 0e 4c 81 3e fa d2 8d 3e
       -0.18111438 -0.31262773 0.25253338 0.27700025
000320 86 e9 03 be 25 c0 b8 3e 24 7b 8e 3e 84 60 22 bb
       -0.12882051 0.36084095 0.27828324 -0.0024776766
000330 95 9b 94 bd 7e c1 9f 3e 40 60 9f be a6 5f 66 be
       -0.072562374 0.3120231 -0.3112812 -0.22497424
000340 d6 6c 99 be bd 50 87 3e d3 3c 6e be ff b1 57 3e
       -0.29965848 0.26428786 -0.2326539 0.21063994
000350 da 73 68 3e 38 0a ae be 80 22 38 3d 30 77 b9 be
       0.22700444 -0.3399217 0.044954777 -0.36223745
000360 ec d6 5f be aa 49 a5 be dd 51 a8 3d bc ea 05 3e
       -0.2185933 -0.32282764 0.08218739 0.13077825
000370 de 10 89 3d 67 6f 34 be a1 0c 32 be d2 e6 92 3e
       0.0669267 -0.17620622 -0.1738763 0.28691727
000380 aa 14 89 3e 3c 6d f8 3d 5e 7f 85 3e 2d 70 65 3e
       0.26773578 0.1213021 0.26073736 0.22406073
000390 9f ee 87 be 54 bd 40 be dd df d7 bc 7d 03 ec 3e
       -0.2654924 -0.18822223 -0.026351864 0.4609641
0003a0 3d 61 92 bd 51 91 67 3e fd 4f ed bd 71 cd 88 bb
       -0.07147453 0.22614028 -0.11587522 -0.004174881
0003b0 bc bd ad 3c bc 26 96 3e 01 86 7a be 96 d6 78 bd
       0.021208636 0.29326427 -0.24465181 -0.06075152
0003c0 8a ea b8 3c 20 57 af 3e 8d 40 82 bc cb 70 05 be
       0.022572774 0.3424616 -0.01589992 -0.13031308
0003d0 56 e4 43 3e 03 54 c6 bd 11 6b 35 bd aa 7f b9 bd
       0.19130072 -0.09683993 -0.04429156 -0.09057553
0003e0 51 a6 20 3e 65 44 1c 3e 32 fd 69 3e 0e 4c 4b 3d
       0.15688445 0.15260465 0.22850493 0.04963308
0003f0 3e 37 27 be bc 22 74 be 16 3f 79 3e 43 33 78 3c
       -0.16329667 -0.23841375 0.24340472 0.0151489405

lstm.bias_ih_l2 f4 [40]
000000 51 32 d9 3e 9b 30 bf 3c 77 d4 b2 bd 19 f5 16 3e
       0.424212 0.023338607 -0.08731931 0.14741935
000010 70 58 80 3e 59 a2 41 be 28 21 0e be ee cd 66 be
       0.25067472 -0.18909587 -0.13879836 -0.22539493
000020 68 c3 3c bc 3a 70 6e be 53 06 89 3e bd b5 97 be
       -0.011521198 -0.23284999 0.26762637 -0.29630843
000030 66 54 3c be f1 fc 17 be b6 25 a9 3e 90 5b 89 3e
       -0.1839157 -0.14842583 0.33036584 0.2682767
000040 1a 24 b8 3d 50 28 40 be 02 58 21 3d cd 4b 87 3d
       0.08991261 -0.18765378 0.03939057 0.06606255
000050 cd 78 20 3e 52 e9 89 be 5a 3f df 3d 58 2b 96 3d
       0.15671082 -0.26935822 0.10900755 0.07332486
000060 8b e0 4b 3d 57 8b 86 3d ca 4a 1f be bf f3 9b bd
       0.049774688 0.06569546 -0.15555874 -0.0761485
000070 49 3f 9a 3d f4 06 1c be 7e 7e ef 3e e3 4c 99 3e
       0.07531602 -0.15237027 0.46776193 0.29941472
000080 5f d2 35 3e a4 f8 4b bd 22 be 3d bd a4 25 d0 3d
       0.17756031 -0.04979767 -0.046323903 0.101634294
000090 fa 99 b4 3b 90 ad 82 3e 29 32 b1 bd 05 c0 30 be
       0.0055115195 0.25523043 -0.086521454 -0.1726075

lstm.bias_hh_l2 f4 [40]
000000 df 02 ec 3d dc a2 31 bd 13 d5 b4 bc a3 30 15 bd
       0.11523985 -0.043368205 -0.022074258 -0.036423337
000010 53 d3 c7 ba fe 30 a7 3e c7 d4 70 3e de 49 42 3b
       -0.0015245475 0.32654566 0.23518668 0.002964608
000020 0b 87 be 3b 79 e8 16 be 4b ce 3a 3e f1 b2 17 3e
       0.005814438 -0.14737119 0.18242757 0.14814354
000030 92 89 20 bc 69 ab 72 be b8 ea a3 3e 61 b5 d3 3d
       -0.009798424 -0.236982 0.32015014 0.1033733
000040 59 2b e2 3d 87 dc 42 bd b2 ed 53 3e b9 7c 8e bd
       0.11043424 -0.047573593 0.20696142 -0.06957383
000050 e3 56 24 3d fb a4 1e 3e d9 97 2f be 1f 71 16 3e
       0.040121924 0.15492623 -0.17147769 0.1469159
000060 80 b6 e5 bb 1a a1 99 bc df 6d 0b bc 63 af 39 3e
       -0.007010281 -0.018753577 -0.008510082 0.18133311
000070 58 27 76 3e 43 39 e0 bd 80 c2 c7 bd 85 de 98 3e
       0.24038446 -0.10948422 -0.09753895 0.2985727
000080 f1 e3 b9 3d 37 55 95 3e 00 f1 9f 3e 9a fa 34 be
       0.090766795 0.29166576 0.31238556 -0.17673722
000090 f0 cb 3c be 1b 9f b6 bd e4 b7 2a 3e a7 bb 51 be
       -0.18437171 -0.08917066 0.16671711 -0.2048174

fc.weight f4 [1, 10]
000000 87 ad c2 3e 48 3c aa be 99 ba 8f be d2 37 c8 3e
       0.38023016 -0.33249116 -0.2807205 0.39105088
000010 9d 2f df 3e ec c8 1e 3e 20 0d 2a 3e 2f b9 09 bd
       0.43591014 0.15506333 0.1660657 -0.03362387
000020 ba 7b 0a 3d 3f a3 df bc
       0.0338094 -0.027299521
