ec_l2o_log/mtl_0.5_1_1_0.6/lstm_unroll.pth (torch, 13115 bytes, 13 tensors)

lstm.weight_ih_l0 f4 [40, 2]
0.44331068 -0.102637045 0.39202502 0.0015054409 0.40648136 0.13035694 0.41740683 0.48227054
0.12896432 0.2261861 -0.052076027 0.3120798 0.1906944 0.15414137 -0.062540464 0.038994428
-0.14546743 -0.15489249 0.6151254 0.5368739 0.00357238 -0.27538562 0.30179024 0.35902205
-0.032482717 0.3105874 0.27334085 0.18845637 0.42489246 0.11445359 -0.0943451 0.017997824
0.374595 -0.103374265 -0.20349482 0.2698659 0.3611239 -0.10226418 0.18250781 0.16573203
-0.044691123 0.08382924 0.20286389 0.4490148 0.23737851 -0.2671428 0.60527784 0.38701755
0.044045348 0.18874943 0.21677457 -0.13853155 0.7155244 0.27343157 0.3706341 0.56282914
0.24577092 -0.2928336 -0.48427027 -0.050516747 -0.08206942 0.21324389 0.040523842 0.4092622
0.32782 0.53252923 0.58839536 0.3797749 0.31660315 0.3490669 0.117251866 0.10116287
0.19539504 0.630051 0.3271594 0.66340685 -0.18556872 0.3638022 0.7685253 0.7041138
00000000: 9ef9 e23e 5f33 d2bd 81b7 c83e 3752 c53a
00000010: 531e d03e 4a7c 053e 59b6 d53e 2aec f63e
00000020: 390f 043e 549d 673e ac4d 55bd ecc8 9f3e
00000030: 6545 433e 3cd7 1d3e 3715 80bd 9fb8 1f3d
00000040: 6af5 14be 239c 1ebe dc78 1d3f 9170 093f
00000050: 971e 6a3b 58ff 8cbe 4084 9a3e bdd1 b73e
00000060: 990c 05bd 5005 9f3e 55f3 8b3e b5fa 403e
00000070: 818b d93e a566 ea3d 0138 c1bd 2c70 933c
00000080: eaca bf3e e3b5 d3bd f260 50be dd2b 8a3e
00000090: 3be5 b83e e26f d1bd 54e3 3a3e a8b5 293e
000000a0: 0a0e 37bd aaae ab3d 8dbb 4f3e 45e5 e53e
000000b0: 5a13 733e f1c6 88be 7df3 1a3f 2a27 c63e
000000c0: e568 343d 8847 413e 27fa 5d3e 37db 0dbe
000000d0: 9b2c 373f 39ff 8b3e c1c3 bd3e 9215 103f
000000e0: 5fab 7b3e 49ee 95be 46f2 f7be a6ea 4ebd
000000f0: 0314 a8bd 9b5c 5a3e 54fc 253d d18a d13e
00000100: 06d8 a73e d653 083f 14a1 163f db71 c23e
00000110: cf19 a23e e6b8 b23e bf21 f03d 7b2e cf3d
00000120: a315 483e 064b 213f 7081 a73e 08d5 293f
00000130: ba05 3ebe 4844 ba3e 13be 443f cd40 343f

lstm.weight_hh_l0 f4 [40, 10]
-0.28837502 0.2955641 0.17863451 0.061347663 0.23588209 -0.016076049 0.34594306 0.08221314
-0.24710755 0.17131136 0.029514264 0.03567257 -0.11262496 0.35057253 0.14228456 0.32283556
-0.07780663 -0.19883053 -0.062194623 0.10688436 -0.2543519 0.069089286 -0.36559126 -0.039909005
-0.10544929 0.25767496 0.24322174 0.08214159 0.38332665 -0.063867114 -0.14642294 0.49840662
0.13994624 -0.02314258 0.02827088 0.07234978 0.0057947235 0.21596977 0.24605986 -0.47212702
0.18292597 -0.1587641 0.23844288 -0.40920871 -0.24125545 -0.30832565 0.27016294 -0.08805591
0.28235716 -0.16460206 -0.3502114 0.2526503 -0.09337846 0.40352705 0.22665265 -0.04055568
0.44685853 0.033092055 0.12615032 -0.21676967 -0.09530548 0.66618615 0.5740839 0.1302164
0.688648 0.59742975 -0.35975128 -0.07765517 -0.26961678 -0.3271407 -0.2519617 0.33579332
0.38865262 -0.057853494 0.04984176 -0.20216373 0.22687663 0.22964731 0.1449452 -0.014783836
-0.113506906 0.31019092 0.2585806 -0.15605229 0.45402265 0.5330863 -0.16265605 -0.11442879
0.038927622 -0.24585041 0.023414286 -0.06497305 -0.06642281 0.0764011 0.07233165 0.010879667
0.41150126 -0.09583607 0.18029684 0.03600279 -0.14244321 -0.17394166 0.15326461 -0.1789557
-0.043857392 -0.054616347 0.38273597 0.40658548 -0.3211467 -0.31677884 0.26919484 0.006917243
-0.08163277 0.019614842 -0.14086619 0.25146857 0.10761677 -0.18830387 0.026197368 0.22325176
0.13375747 0.097310826 -0.23024888 -0.112594634 -0.3712984 0.08031417 0.6122226 0.032255962
0.06757246 -0.1404326 -0.35768747 -0.108646914 0.1736045 0.2467205 0.3351595 0.1827316
0.025307305 0.41477352 -0.32848796 -0.68190813 0.25095832 0.0782328 0.046152715 -0.3741318
-0.2622683 -0.16393323 0.28970903 -0.2764668 0.10386437 -0.07348747 -0.34937987 -0.19170581
-0.228929 0.5311517 -0.016806006 0.32602262 -0.04450725 -0.113928325 -0.2870162 -0.22143652
-0.39485693 0.22579835 0.54162157 -0.12044736 0.123408385 0.10303557 -0.08982717 0.21873127
-0.45240366 -0.39978993 -0.38096145 0.13223708 -0.05480192 -0.17906839 0.297447 -0.16392878
-0.08942732 0.21841791 0.023040144 -0.073022656 0.048303153 0.2073521 0.10387659 0.34611076
0.36235437 0.035009544 -0.24980225 -0.032487497 0.08972661 -0.4642925 -0.1819189 -0.18490803
0.29002553 0.37509808 -0.33812428 -0.20455325 0.32485586 0.07164975 0.37769637 -0.21965288
0.09187821 -0.24047011 0.15926509 -0.1440623 -0.15752746 0.17812541 -0.3862325 -0.15084998
0.056857817 0.36312297 0.33079058 0.21862398 0.25338042 0.054524265 0.10888567 0.18548
0.0004037351 0.03808204 -0.18001989 0.049406376 0.19597843 0.013126836 0.2078421 -0.12039907
-0.09106901 -0.34448367 0.60922647 -0.16147605 0.2157949 0.068518855 -0.043251127 -0.030552393
0.23225327 -0.047207683 0.035774685 0.10982065 0.46505117 0.32820597 0.27221933 -0.3534074
-0.14672957 0.19561161 0.34498203 -0.014476225 0.15725815 0.21328643 0.14228192 -0.2840637
0.057156228 -0.068344474 -0.1343645 0.08664896 -0.28177446 0.25430486 0.066605344 0.23741998
00000000: e4a5 93be 2d54 973e f7eb 363e b047 7b3d
00000010: 138b 713e ebb1 83bc 731f b13e 5d5f a83d
00000020: c309 7dbe 3f6c 2f3e e6c7 f13c 671d 123d
00000030: eaa7 e6bd 3e7e b33e 0bb3 113e b44a a53e
00000040: 1559 9fbd 3b9a 4bbe cabf 7ebd 30e6 da3d
00000050: 6a3a 82be af7e 8d3d c72e bbbe a077 23bd
00000060: ccf5 d7bd f9ed 833e 1f0f 793e da39 a83d
00000070: 6443 c43e c3cc 82bd e5ef 15be 272f ff3e
00000080: 114e 0f3e 8295 bdbc 5598 e73c 1f2c 943d
00000090: aae1 bd3b 2e27 5d3e 1ef7 7b3e a2ba f1be
000000a0: f250 3b3e 0e93 22be 5f2a 743e ce83 d1be
000000b0: ab0b 77be dcdc 9dbe cc52 8a3e a856 b4bd
000000c0: 1e91 903e 718d 28be e94e b3be 615b 813e
000000d0: 353d bfbd 199b ce3e a217 683e b61d 26bd
000000e0: a4ca e43e 898b 073d 8d2d 013e def8 5dbe
000000f0: 852f c3bd 2d8b 2a3f 2af7 123f 7357 053e
00000100: 3c4b 303f 28f1 183f 5231 b8be ac09 9fbd
00000110: 360b 8abe fc7e a7be 2001 81be 1aed ab3e
00000120: 7afd c63e c9f7 6cbd e026 4c3d 0204 4fbe
00000130: 5952 683e aa28 6b3e 846c 143e e737 72bc
00000140: 4f76 e8bd 58d1 9e3e ad64 843e 2ccc 1fbe
00000150: a875 e83e 5878 083f 4f8f 26be a459 eabd
00000160: 9272 1f3d 36c0 7bbe 51cf bf3c 9710 85bd
00000170: af08 88bd 2e78 9c3d 9e22 943d a140 323c
00000180: 4bb0 d23e b445 c4bd bc9f 383e a977 133d
00000190: a2dc 11be c31d 32be 66f1 1c3e 2a40 37be
000001a0: cfa3 33bd 64b5 5fbd f8f5 c33e f92b d03e
000001b0: 576d a4be d630 a2be e8d3 893e 0aaa e23b
000001c0: 152f a7bd 4eaf a03c 3a3f 10be 7dc0 803e
000001d0: 2e66 dc3d bbd2 40be dd9b d63c 1c9c 643e
000001e0: b8f7 083e e64a c73d 5dc6 6bbe 0498 e6bd
000001f0: d31a bebe c17b a43d 9fba 1c3f d41e 043d
00000200: 6e63 8a3d 90cd 0fbe d022 b7be 4682 debd
00000210: 61c5 313e 4ca4 7c3e 079a ab3e fe1d 3b3e
00000220: 4451 cf3c 325d d43e 932f a8be 8891 2ebf
00000230: 9c7d 803e 8538 a03d a10a 3d3d 348e bfbe
00000240: 0848 86be 1dde 27be be54 943e 0e8d 8dbe
00000250: d8b6 d43d 9980 96bd ebe1 b2be 874e 44be
00000260: 5d6c 6abe 8ff9 073f c0ac 89bc 70ec a63e
00000270: 3c4d 36bd 4153 e9bd caf3 92be 41c0 62be
00000280: b02a cabe af37 673e b6a7 0a3f 1bad f6bd
00000290: 89bd fc3d 5004 d33d 4ff7 b7bd 17fb 5f3e
000002a0: 74a1 e7be 44b1 ccbe 610d c3be 2869 073e
000002b0: fa77 60bd b45d 37be f94a 983e f2dc 27be
000002c0: ac25 b7bd f2a8 5f3e afbe bc3c e78c 95bd
000002d0: 87d9 453d 1c54 543e 40bd d43d 6e35 b13e
000002e0: 8386 b93e 2b66 0f3d 29cc 7fbe 9c11 05bd
000002f0: 96c2 b73d bfb7 edbe f348 3abe 8858 3dbe
00000300: 3a7e 943e db0c c03e a01e adbe 6876 51be
00000310: 8253 a63e 1bbd 923d 6b61 c13e afec 60be
00000320: a52a bc3d cc3d 76be 6316 233e 1185 13be
00000330: e14e 21be 8266 363e 44c0 c5be 6b78 1abe
00000340: bee3 683d 41eb b93e 625d a93e f7de 5f3e
00000350: 14bb 813e d654 5f3d 73ff de3d 78ee 3d3e
00000360: 68ac d339 eafb 1b3d 2257 38be 575e 4a3d
00000370: 92ae 483e f111 573c 8fd4 543e ca93 f6bd
00000380: 6482 babd 2a60 b0be 44f6 1b3f fa59 25be
00000390: 57f9 5c3e 9d53 8c3d 1828 31bd 0349 fabc
000003a0: cdd3 6d3e d85c 41bd 7a88 123d a6e9 e03d
000003b0: 301b ee3e 9d0a a83e 5560 8b3e d1f1 b4be
000003c0: 4740 16be 694e 483e 7ca1 b03e b02d 6dbc
000003d0: 4808 213e c267 5a3e 5ab2 113e cc70 91be
000003e0: a61c 6a3d 30f8 8bbd d996 09be 0375 b13d
000003f0: be44 90be 3f34 823e 6268 883d 391e 733e

lstm.bias_ih_l0 f4 [40]
0.37641126 -0.07728914 -0.10826375 0.6231675 0.406041 0.34579447 0.80056286 0.2022871
0.32284868 0.24577929 0.29262525 0.25928548 -0.2089659 -0.026487896 -0.2662761 0.12652461
0.3274922 0.12888877 0.42052048 -0.18336295 -0.36065185 0.35059685 0.3543488 0.00630839
0.16730794 0.10131036 -0.16228883 0.1598541 -0.38303912 -0.35123116 0.12626739 0.25151235
-0.03157645 0.18009663 0.2478456 0.018860457 0.45108873 -0.09626629 0.24072398 0.5897004
00000000: fab8 c03e c549 9ebd 63b9 ddbd e887 1f3f
00000010: 9be4 cf3e f90b b13e b0f1 4c3f 5924 4f3e
00000020: 6c4c a53e 91ad 7b3e fad2 953e 11c1 843e
00000030: 28fb 55be 25fd d8bc 5755 88be ab8f 013e
00000040: 0fad a73e 6bfb 033e 764e d73e 7fc3 3bbe
00000050: 5ca7 b8be 6e81 b33e 356d b53e 9cb6 ce3b
00000060: c652 2b3e ce7b cf3d 0b2f 26be cbb0 233e
00000070: b41d c4be 92d4 b3be 3d4c 013e 3ac6 803e
00000080: 4f56 01bd 406b 383e 3dcb 7d3e 3f81 9a3c
00000090: 1af5 e63e 4327 c5bd 5980 763e 9bf6 163f

lstm.bias_hh_l0 f4 [40]
0.007688115 -0.1551189 0.34558144 0.6002133 0.02353813 0.21164465 0.9125377 0.19692737
0.59323514 0.10364482 -0.046645902 -0.27608705 0.11301498 0.3079402 -0.026459025 -0.19676785
0.25799078 -0.03266657 0.33086488 0.0037428997 -0.31027582 0.3636818 0.26549688 -0.043823335
0.4975054 0.3856531 -0.27025238 -0.16013487 -0.29252344 0.23247978 0.1407733 -0.106462106
0.16378486 0.44631815 0.51544 0.43740407 0.3035307 0.14313759 0.2852851 0.10595017
00000000: 95ec fb3b 7dd7 1ebe 0df0 b03e 94a7 193f
00000010: 09d3 c03c 60b9 583e 129c 693f 54a7 493e
00000020: 42de 173f bc43 d43d c60f 3fbd 485b 8dbe
00000030: 6674 e73d 57aa 9d3e 99c0 d8bc 837d 49be
00000040: 5e17 843e 62cd 05bd 1f67 a93e 704b 753b
00000050: 79dc 9ebe 8034 ba3e 35ef 873e 1980 33bd
00000060: 07b9 fe3e 5374 c53e 855e 8abe 65fa 23be
00000070: a2c5 95be 2e0f 6e3e e026 103e ce08 dabd
00000080: 38b7 273e d083 e43e e0f3 033f 6df3 df3e
00000090: 6068 9b3e a992 123e e310 923e 67fc d83d

lstm.weight_ih_l1 f4 [40, 10]
0.21256864 -0.12805596 0.227632 -0.17627132 0.19488874 -0.01131004 0.50384486 0.14311984
-0.2990646 0.056554142 -0.32796443 0.28764504 -0.09033124 0.18477376 -0.1542636 0.0749208
0.053116515 0.25017366 0.16771084 -0.3931113 -0.09360022 0.3044478 0.28831282 0.55105263
0.694397 0.3037271 0.2646786 0.93576175 0.07389241 -0.2441252 -0.3259481 -0.06354937
-0.10413538 0.338253 -0.02413429 0.5082036 0.34081075 0.36588338 -0.119260535 -0.12722987
-0.049451534 0.37209836 0.4103379 0.2819334 0.20180522 0.017503927 0.50104934 0.27649727
0.23045047 -0.29023355 -0.32278472 0.37370402 0.061738126 0.5124826 -0.1826074 -0.0050298176
0.24105053 0.1465771 0.21905637 -0.43512738 -0.022098942 0.08408761 0.04684948 0.19124961
0.13992113 0.26064983 0.059308793 0.21376736 -0.15931018 -0.476699 -0.092534915 0.28744996
0.32952246 0.35149434 0.3192067 0.20729816 -0.28019005 0.12356878 -0.012689858 -0.4986055
-0.1442936 -0.034691 -0.13454664 -0.077553526 -0.280507 0.14456658 0.3053413 -0.123880096
-0.036163863 0.0112237 -0.42624646 0.30586165 0.08720023 0.46257672 0.41969252 0.25395238
0.39991018 0.68035555 -0.13160379 -0.26796022 0.15291826 0.32789382 -0.038746744 0.19562341
-0.031592216 -0.2514916 0.3181249 -0.10828025 0.19210722 -0.10962919 -0.31181422 0.071773306
-0.035482522 0.26031548 0.13806397 0.062459994 0.22374761 0.24192102 -0.3642147 0.26712915
-0.19158557 -0.087481305 0.24107385 0.44286937 -0.16263811 0.3132142 0.41620177 0.35310882
0.49496794 -0.5964207 -0.10766831 0.024825895 0.11068361 -0.25729007 -0.17195155 -0.17015697
-0.10065752 -0.05724977 -0.043575753 0.15358165 0.0008979157 -0.12881273 0.011591196 -0.22350705
-0.22926843 -0.0459576 0.42697468 0.123565175 -0.071684554 0.06707513 0.074998915 0.09807614
0.17343864 0.087243445 -0.0014282571 -0.13752471 0.21466286 -0.12312675 -0.28859514 -0.23207821
-0.28316864 -0.09541842 -0.12859724 0.08339221 -0.1899133 -0.22798283 -0.016249968 0.17054792
0.06549357 0.22863048 0.076442786 0.16793147 -0.12550978 0.47509548 -0.040916067 0.17023575
-0.28476572 -0.08732245 -0.27249184 0.23188701 0.19404617 0.25637984 -0.21633776 0.11692982
0.11979858 0.1913361 -0.09871795 -0.038987856 0.1356115 0.24970822 -0.37559482 0.36185914
-0.33180436 0.15898405 0.27312776 -0.022809273 0.3826061 0.4247106 0.15150462 0.14024888
0.004512542 -0.22896752 -0.11689263 0.05949364 0.20025823 -0.22048089 0.032670815 0.011934986
-0.2739261 -0.4888585 -0.38958138 0.26168525 0.09703087 0.31657484 -0.26808846 0.35389048
0.18132918 0.13698879 0.15062541 -0.16217011 0.21324226 0.1470956 -0.30917364 -0.018269662
0.122741446 -0.21686019 -0.86974174 0.21247801 -0.3651155 0.59114397 0.34849882 0.17030391
-0.20722686 -0.20365967 0.17948203 -0.2279158 -0.26312682 0.33750692 0.29296952 0.39483684
-0.12568595 0.05907842 0.22334552 -0.021333406 0.114661284 0.3162373 0.10655533 0.28146222
0.13142164 -0.070876725 0.40729675 0.18132082 -0.3680828 -0.11856153 -0.048091844 -0.23657571
00000000: 98ab 593e 1a21 03be 5d18 693e 7880 34be
00000010: ea90 473e bf4d 39bc fafb 003f 028e 123e
00000020: ff1e 99be 51a5 673d f4ea a7be 3646 933e
00000030: 96ff b8bd 5535 3d3e 47f7 1dbe 1470 993d
00000040: b490 593d c316 803e 64bc 2b3e e245 c9be
00000050: 79b1 bfbd 95e0 9b3e bd9d 933e c911 0d3f
00000060: 00c4 313f 1e82 9b3e f483 873e 158e 6f3f
00000070: e754 973d f5fb 79be abe2 a6be 2c26 82bd
00000080: ee44 d5bd 7f2f ad3e 46b5 c5bc a219 023f
00000090: bf7e ae3e 1155 bb3e de3e f4bd 8c48 02be
000000a0: b18d 4abd ad83 be3e cf17 d23e 9359 903e
000000b0: 07a6 4e3e 6564 8f3c c544 003f 0d91 8d3e
000000c0: 35fb 6b3e 7e99 94be 0a44 a5be 2256 bf3e
000000d0: 1ee1 7c3d 0f32 033f 6ffd 3abe 2bd1 a4bb
000000e0: f3d5 763e 4f18 163e 5050 603e 04c9 debe
000000f0: d708 b5bc 2036 ac3d 3ee5 3f3d f0d6 433e
00000100: 7c47 0f3e e573 853e c7ed 723d d5e5 5a3e
00000110: 3522 23be e411 f4be f282 bdbd a42c 933e
00000120: 2bb7 a83e 11f7 b33e 106f a33e f845 543e
00000130: 1275 8fbe a111 fd3d 1fe9 4fbc 3849 ffbe
00000140: b4c1 13be 2618 0ebd 98c6 09be 62d4 9ebd
00000150: 9d9e 8fbe 4309 143e b255 9c3e d9b4 fdbd
00000160: 8f20 14bd 9ce3 373c fa3c dabe e699 9c3e
00000170: 0996 b23d dbd6 ec3e f0e1 d63e 0c06 823e
00000180: 07c1 cc3e c82b 2e3f 25c3 06be 1532 89be
00000190: 9b96 1c3e b3e1 a73e e8b4 1ebd 8151 483e
000001a0: d766 01bd 82c3 80be 44e1 a23e 09c2 ddbd
000001b0: c1b7 443e 4585 e0bd 1da6 9fbe e2fd 923d
000001c0: 1f56 11bd 1248 853e a460 0d3e 0dd6 7f3d
000001d0: 181e 653e 25ba 773e 597a babe 27c5 883e
000001e0: 022f 44be 6629 b3bd 10dc 763e c6bf e23e
000001f0: 9b8a 26be 9d5d a03e 6618 d53e aeca b43e
00000200: 706c fd3e 07af 18bf 3481 dcbd ad5f cb3c
00000210: 17ae e23d 86bb 83be 1114 30be a13d 2ebe
00000220: 8825 cebd bc7e 6abd 7d7c 32bd 8244 1d3e
00000230: 1a62 6b3a 7ce7 03be 00e9 3d3c 08df 64be
00000240: 58c5 6abe 093e 3cbd 6d9c da3e bd0f fd3d
00000250: 5acf 92bd b05e 893d 0899 993d 25dc c83d
00000260: e699 313e b1ac b23d 5b34 bbba 47d3 0cbe
00000270: 95d0 5b3e e129 fcbd bec2 93be e9a5 6dbe
00000280: 7bfb 90be bc6a c3bd ffae 03be 89c9 aa3d
00000290: a278 42be 5574 69be a71e 85bc 1da4 2e3e
000002a0: 7e21 863d 1c1e 6a3e 098e 9c3d 3af6 2b3e
000002b0: a385 00be b73f f33e 9b97 27bd 4852 2e3e
000002c0: d0cc 91be 1dd6 b2bd 0d84 8bbe ca73 6d3e
000002d0: 0ab4 463e 3844 833e a587 5dbe e778 ef3d
000002e0: f558 f53d 9ced 433e a32c cabd bbb1 1fbd
000002f0: bedd 0a3e 83b3 7f3e f74d c0be 9a45 b93e
00000300: 43e2 a9be b7cc 223e 67d7 8b3e 83da babc
00000310: f2e4 c33e ab73 d93e 0724 1b3e 679d 0f3e
00000320: f2dd 933b 7676 6abe 6765 efbd 9aaf 733d
00000330: 7e10 4d3e bec5 61be d5d1 053d f68a 433c
00000340: 0b40 8cbe a94b fabe 3677 c7be 9cfb 853e
00000350: 1fb8 c63d 1916 a23e e442 89be 2231 b53e
00000360: 5bae 393e ca46 0c3e 8c3d 1a3e ec0f 26be
00000370: 2e5c 5a3e 3ba0 163e 024c 9ebe 42aa 95bc
00000380: de5f fb3d 9910 5ebe 65a7 5ebf d693 593e
00000390: 6bf0 babe 3655 173f 706e b23e 2664 2e3e
000003a0: 4733 54be 298c 50be 23ca 373e c262 69be
000003b0: 8fb8 86be b5cd ac3e 1a00 963e 0e28 ca3e
000003c0: d1b3 00be 37fc 713d b0b4 643e 65c3 aebc
000003d0: 89d3 ea3d dbe9 a13e ae39 da3d d11b 903e
000003e0: 6593 063e d127 91bd 3389 d03e 2aac 393e
000003f0: 5975 bcbe 63d0 f2bd f4fb 44bd e740 72be

lstm.weight_hh_l1 f4 [40, 10]
0.282207 -0.051542137 -0.009036843 -0.17260365 0.11452452 -0.05247008 0.31184298 0.07911089
0.051096793 0.023410808 0.24470028 -0.2204427 -0.25423828 0.104816295 -0.11823823 -0.18873236
0.11193581 -0.0134842135 -0.18016458 0.11532518 -0.40995193 -0.30859903 -0.37152767 0.011098443
0.2185589 -0.025832783 -0.14146216 0.019441035 0.079054944 0.13376054 -0.2738028 0.08743317
0.24596466 0.18561764 -0.007230216 -0.28481168 0.07039763 -0.20649387 -0.037049837 0.27991152
0.17601508 -0.058144342 0.08900082 -0.09125488 0.34815204 -0.020409085 -0.098293565 -0.26673108
0.3216434 -0.30167085 0.25761902 -0.03150726 0.1779015 -0.033448767 -0.11790972 0.15085426
-0.18558687 0.048520736 -0.01108522 0.08355114 0.13693886 0.13708127 0.31611723 -0.17857713
-0.04711296 -0.14550962 0.098389246 0.038112503 0.18280846 0.28099623 0.2855298 0.13105486
-0.27958214 -0.1368686 0.3295158 -0.30849633 0.011156356 -0.027250633 0.19985881 -0.37791672
0.043382358 0.23966536 -0.025538815 0.07090595 -0.21513177 -0.18385416 -0.3476556 0.4572449
-0.27307254 -0.343793 0.07558967 0.14250998 0.261281 -0.15762156 0.014473573 0.12721902
0.193022 -0.010433855 0.09508694 -0.27368844 0.33411467 0.34827915 0.12025627 0.13828194
-0.074222535 -0.16050375 0.044135243 0.19943228 -0.14018893 -0.32888582 0.120447576 -0.063895084
0.22581165 -0.37659305 -0.042975076 0.078779526 -0.15409863 -0.111576535 -0.04937697 -0.067163125
-0.57754666 -0.4474317 -0.19209708 0.34297585 -0.29068455 0.43435755 -0.2769941 0.41177163
0.294229 -0.381843 0.24310294 -0.042716444 0.021942182 0.30365613 0.34028533 -0.35332188
0.26249957 0.123027585 -0.0517864 -0.047033995 0.34360942 -0.2563487 0.28445926 0.06916424
0.08251115 -0.18990918 0.020464314 -0.17860821 -0.16383772 0.001964467 -0.040268023 0.33688754
0.23879206 0.19039565 -0.13144243 0.26398286 -0.015665134 0.07849801 0.035906628 -0.07923112
-0.1815059 0.31836236 0.22099715 -0.29548657 -0.083171345 0.044005357 -0.20346865 0.030657645
0.3927543 -0.17870472 -0.17113723 0.16472606 0.16323431 -0.34017047 0.020087764 0.1203929
0.09710691 -0.18334688 -0.14754845 -0.14450893 0.27214888 0.24660912 0.2581241 -0.18701804
-0.03494874 0.024116196 0.14907563 0.34329385 -0.27275366 -0.15294696 -0.3505978 0.13136278
0.59048337 -0.082162976 0.32079598 -0.03639527 -0.07619824 -0.358061 -0.052112438 -0.13310659
0.3579307 -0.026338972 -0.34376454 -0.28362212 -0.0026007066 -0.26365006 0.30081943 0.17239815
-0.1452571 0.112228155 0.0021692952 0.024454473 0.029678294 0.072082505 0.048612993 -0.3452255
0.03694734 -0.41285753 0.13227373 0.19055703 0.15103842 -0.048884824 -0.22399138 -0.4505502
0.0107211815 0.014539474 -0.002138054 -0.07970979 0.036931295 0.46950695 -0.13733731 0.18252806
0.030301273 -0.06943908 0.001816282 0.07526846 0.014379676 -0.136253 -0.33759114 0.08125657
0.22807048 0.19039586 0.14960949 0.06857008 -0.11344595 0.08402326 0.31798598 -0.07037732
-0.11675013 0.06256 0.19135767 -0.2541681 -0.3996015 0.11733611 -0.28686938 -0.24237123
00000000: 707d 903e d91d 53bd 440f 14bc 03bf 30be
00000010: d58b ea3d deea 56bd e2a9 9f3e e404 a23d
00000020: df4a 513d 06c8 bf3c b692 7a3e bbbb 61be
00000030: 852b 82be eda9 d63d e326 f2bd 0e43 41be
00000040: 9a3e e53d e4ec 5cbc 107d 38be 9c2f ec3d
00000050: 38e5 d1be b100 9ebe e038 bebe 3ed6 353c
00000060: e7cd 5f3e 469f d3bc 75db 10be ce42 9f3c
00000070: 8fe7 a13d 86f8 083e e12f 8cbe 2910 b33d
00000080: 29de 7b3e 8d12 3e3e 73eb ecbb d6d2 91be
00000090: a22c 903d 2173 53be 92c1 17bd 9050 8f3e
000000a0: 4c3d 343e c328 6ebd 1046 b63d d7e3 babd
000000b0: fc40 b23e f430 a7bc 234e c9bd fa90 88be
000000c0: 72ae a43e 9a74 9abe a4e6 833e c20d 01bd
000000d0: d02b 363e 9301 09bd a77a f1bd 8a79 1a3e
000000e0: 7c0a 3ebe aebd 463d c89e 35bc dc1c ab3d
000000f0: b339 0c3e 085f 0c3e 1eda a13e ecdc 36be
00000100: 85f9 40bd 7900 15be 4d80 c93d db1b 1c3d
00000110: 2432 3b3e bdde 8f3e f630 923e 3f33 063e
00000120: 6425 8fbe 4827 0cbe 4cb6 a83e 3bf3 9dbe
00000130: 26c9 363c b83c dfbc caa7 4c3e 4d7e c1be
00000140: b3b1 313d d66a 753e c736 d1bc 2437 913d
00000150: 814b 5cbe 4444 3cbe eaff b1be 011c ea3e
00000160: 2ad0 8bbe a305 b0be c2ce 9a3d 23ee 113e
00000170: a0c6 853e 8c67 21be 9122 6d3c b445 023e
00000180: 8fa7 453e c2f2 2abc f1bc c23d e420 8cbe
00000190: 1411 ab3e a551 b23e eb48 f63d c899 0d3e
000001a0: fc01 98bd 185b 24be 28c7 343d fa37 4c3e
000001b0: b08d 0fbe b963 a8be 38ad f63d 6ddb 82bd
000001c0: 2b3b 673e ced0 c0be a206 30bd 2957 a13d
000001d0: 08cc 1dbe 3d82 e4bd 813f 4abd d28c 89bd
000001e0: 19da 13bf c515 e5be 19b5 44be 889a af3e
000001f0: 9bd4 94be 1d64 de3e 2cd2 8dbe bbd3 d23e
00000200: 2fa5 963e ed80 c3be faef 783e 70f7 2ebd
00000210: 17c0 b33c d178 9b3e e139 ae3e 9be6 b4be
00000220: 5866 863e e3f5 fb3d fa1d 54bd b8a6 40bd
00000230: 93ed af3e 2340 83be a5a4 913e fba5 8d3d
00000240: 9bfb a83d 8d77 42be c7a4 a73c 12e5 36be
00000250: 13c5 27be 4abe 003b 15f0 24bd 867c ac3e
00000260: e885 743e 14f7 423e d898 06be c328 873e
00000270: 2b54 80bc 91c3 a03d d412 133d ed43 a2bd
00000280: afdc 39be 6400 a33e 144d 623e 044a 97be
00000290: bd55 aabd f63e 343d 165a 50be be25 fb3c
000002a0: 1717 c93e 5ffe 36be 993e 2fbe f3ad 283e
000002b0: e526 273e d32a aebe 188f a43c 8e90 f63d
000002c0: fddf c63d 49bf 3bbe f116 17be 26fa 13be
000002d0: 1957 8b3e 1a87 7c3e d828 843e a881 3fbe
000002e0: 6926 0fbd 548f c53c 48a7 183e 36c4 af3e
000002f0: 5ea6 8bbe 219e 1cbe 8e81 b3be f783 063e
00000300: eb29 173f 1045 a8bd 5f3f a43e 3513 15bd
00000310: d30d 9cbd c553 b7be da73 55bd 184d 08be
00000320: b142 b73e d4c4 d7bc e801 b0be eb36 91be
00000330: 9e70 2abb 24fd 86be 0105 9a3e 2489 303e
00000340: 47be 14be e0d7 e53d bc2a 0e3b bf54 c83c
00000350: e51f f33c fe9f 933d 6b1e 473d 66c1 b0be
00000360: 1856 173d 1062 d3be c472 073e 6221 433e
00000370: d1a9 1a3e 743b 48bd ff5d 65be 84ae e6be
00000380: e5a7 2f3c f936 6e3c 981e 0cbb e33e a3bd
00000390: 4545 173d 3763 f03e 27a2 0cbe a3e8 3a3e
000003a0: 603a f83c 1436 8ebd 5010 ee3a 5a26 9a3d
000003b0: bc98 6b3c e885 0bbe bfd8 acbe d869 a63d
000003c0: 4f8b 693e 22f7 423e 3b33 193e 786e 8c3d
000003d0: 5a56 e8bd 6314 ac3d 0fcf a23e fc21 90bd
000003e0: b11a efbd 751f 803d 44f3 433e 5222 82be
000003f0: 9198 ccbe ea4d f03d 8be0 92be 2a30 78be

lstm.bias_ih_l1 f4 [40]
0.21724021 0.12901647 0.5913623 0.3626222 0.29087323 0.047779065 -0.16882676 0.41872528
0.22885145 0.381696 0.23543881 0.28130573 -0.116793774 0.31354553 0.32041872 0.20150495
-0.03817364 -0.16477413 -0.026722303 -0.073498346 0.30111757 0.376462 -0.26367006 -0.2119474
0.40504143 -0.36025235 -0.046213564 -0.18379879 0.07988327 0.21697892 -0.016403662 -0.14569522
0.22553767 0.3721766 0.28728965 0.22315979 -0.21175133 0.06566021 -0.10297173 0.14446862
00000000: 3874 5e3e e51c 043e 8563 173f 9ea9 b93e
00000010: 56ed 943e fbb3 433d ece0 2cbe 2963 d63e
00000020: 0958 6a3e a86d c33e df16 713e 4e07 903e
00000030: 9331 efbd 0a89 a03e ec0d a43e 5057 4e3e
00000040: f65b 1cbd 8dba 28be bbe8 dabc 4d86 96bd
00000050: 152c 9a3e a1bf c03e c3ff 86be bd08 59be
00000060: 9761 cf3e ff72 b8be 6f4a 3dbd c035 3cbe
00000070: d799 a33d b92f 5e3e f960 86bc 2131 15be
00000080: 59f3 663e ee8d be3e a117 933e 0084 643e
00000090: 57d5 58be dc78 863d d8e2 d2bd 95ef 133e

lstm.bias_hh_l1 f4 [40]
-0.11892627 -0.05768989 0.47032675 0.080029406 0.18553743 0.40979233 -0.031125782 0.04417244
0.15562643 0.41332412 0.22650193 0.3374467 -0.19811928 -0.16932088 0.3162042 0.3335316
0.17775597 0.0011350019 -0.16795924 0.23809801 0.07220604 0.03700918 0.1475723 0.10781996
-0.12232565 -0.020781772 0.37293142 0.08934401 0.06085899 -0.059866842 -0.057681516 -0.14724718
0.35353497 0.48079094 0.40144536 -0.02544155 -0.0064151157 0.47956094 0.21607338 0.17882952
00000000: 9e8f f3bd 3c4c 6cbd abce f03e 75e6 a33d
00000010: 86fd 3d3e 4dd0 d13e 7ffb febc 29ee 343d
00000020: 895c 1f3e 389f d33e 1ff0 673e d0c5 ac3e
00000030: c8df 4abe 7462 2dbe 84e5 a13e a7c4 aa3e
00000040: a905 363e 58c4 943a 82fd 2bbe f7cf 733e
00000050: c3e0 933d f096 173d 311d 173e b6d0 dc3d
00000060: df85 fabd 893e aabc def0 be3e fef9 b63d
00000070: 4747 793d ef36 75bd 7443 6cbd f7c7 16be
00000080: 8902 b53e 3b2a f63e 3f8a cd3e cc6a d0bc
00000090: e435 d2bb 0389 f53e 5742 5d3e 161f 373e

lstm.weight_ih_l2 f4 [40, 10]
-0.2158038 -0.13383691 -0.42805496 0.19581677 -0.0474233 -0.0918439 0.2236911 -0.07797997
-0.014631026 0.37384486 -0.13890527 0.1644381 -0.098932356 -0.044346273 -0.1537371 -0.099217154
0.040589225 -0.0016596445 -0.06127549 0.43948945 0.40912843 -0.12869054 -0.39928102 -0.0944234
0.44387805 -0.031045899 0.056783352 0.05689697 -0.20442086 0.3970299 -0.23694286 0.12602
0.13809939 0.14881577 0.2454426 0.2603976 0.0897895 0.18967614 -0.20840299 0.096028484
-0.17352301 0.33001906 -0.024084391 -0.14041555 0.04808958 0.18615565 0.10084599 -0.35044733
0.20509405 0.29675883 0.29796275 0.25562084 -0.22583322 0.06849207 0.32774988 -0.03482493
0.2815735 -0.576139 -0.24065463 0.2745595 0.28611237 0.09522317 -0.6146991 0.08751993
0.3980085 -0.08713111 0.11311686 -0.81585747 -0.1845092 -0.10022373 -0.28717437 0.21078707
-0.059855185 0.27538785 0.06356897 0.067803636 -0.04493364 -0.25839877 -0.00484835 0.11062358
0.21435216 0.3212256 -0.32379976 0.114271246 0.06713873 -0.16319516 0.06663441 -0.046404287
0.27660966 0.034259066 -0.18422534 0.24703057 -0.48913804 -0.28058863 -0.17430517 -0.2441126
0.07704854 -0.26984823 0.3136577 0.360584 -0.08739392 0.20188683 -0.13790618 0.21515174
-0.37276593 0.17567888 -0.3219769 -0.023202946 -0.33690417 0.117724374 0.2862165 0.22623064
0.12478821 0.05320092 -0.2572438 0.18075065 0.33680987 -0.35525367 -0.00038092045 0.085345164
-0.13041517 0.0761652 -0.109255664 -0.17226525 0.08201972 -0.2996991 0.2764962 -0.13114278
0.13582802 0.34275958 -0.19397987 -0.20430803 -0.17300782 0.36152348 -0.3043458 -0.2659551
0.041185148 0.058020744 -0.23687895 0.04677214 -0.10212761 0.08236418 0.10656955 -0.17851683
0.07507459 -0.25746796 0.2958351 -0.24577752 0.1731026 0.14917025 0.25336617 -0.031655915
0.024519395 -0.24449916 -0.21412598 -0.06503131 -0.13820416 0.24758075 0.011520406 0.29062653
-0.13786155 -0.10415365 -0.11990616 0.35919568 -0.1527209 -0.15702309 -0.2626783 0.29624632
0.29280916 -0.21678428 0.15692112 -0.3464374 -0.22225708 -0.124811776 -0.15683913 -0.025213351
-0.03967818 0.2554682 -0.06516048 0.2059901 -0.21576068 -0.15182884 -0.34971303 -0.32740256
0.21406424 0.25838643 0.31847847 -0.20786503 0.20117578 0.041635536 -0.0054755793 0.029828688
0.033748873 0.10143725 0.32992142 0.07731279 0.15398878 -0.16436522 0.099280536 -0.07562235
-0.13283475 -0.18656336 -0.66275895 -0.3469704 0.32869214 0.1506503 0.19952947 -0.42405272
-0.19721854 -0.16927277 0.40403596 -0.19408904 -0.34963182 0.1343084 0.30094656 0.17995933
0.3777571 -0.042235035 -0.19219545 -0.018238125 0.15147805 0.006615578 -0.44376358 -0.3175157
0.3454952 -0.2785997 -0.020097684 -0.073889494 0.1495261 0.4066801 -0.011985281 -0.16885892
-0.15499578 -0.37847644 -0.13482638 -0.38925916 0.15694055 0.03960705 0.017716302 -0.21844985
0.025750665 0.27905688 -0.09217035 -0.11708842 0.15360077 0.021422394 0.29838783 -0.33842543
-0.10213224 -0.106261246 0.034299858 0.2709244 -0.4591603 -0.3159244 0.41707036 -0.34458995
00000000: acfb 5cbe 8b0c 09be 052a dbbe 3184 483e
00000010: ef3e 42bd a818 bcbd 480f 653e f6b3 9fbd
00000020: f9b6 6fbc 9868 bf3e 2f3d 0ebe 7662 283e
00000030: 0c9d cabd 70a4 35bd 426d 1dbe 5d32 cbbd
00000040: e340 263d 6e88 d9ba 02fc 7abd c304 e13e
00000050: 4879 d13e 74c7 03be 906e ccbe 0e61 c1bd
00000060: fc43 e33e f853 febc a995 683d cc0c 693d
00000070: b453 51be 8147 cb3e 26a1 72be 630b 013e
00000080: ed69 0d3e 2963 183e 4e55 7b3e d652 853e
00000090: 8fe3 b73d 763a 423e 9867 55be 95aa c43d
000000a0: 04b0 31be 42f8 a83e a14c c5bc 18c9 0fbe
000000b0: 94f9 443d 969f 3e3e 5888 ce3d d56d b3be
000000c0: 2d04 523e c6f0 973e 938e 983e bce0 823e
000000d0: d340 67be 9245 8c3d d5ce a73e 96a4 0ebd
000000e0: 672a 903e d87d 13bf 2b6e 76be 1093 8c3e
000000f0: 527d 923e 5e04 c33d ec5c 1dbf a63d b33d
00000100: c5c7 cb3e cc71 b2bd d0a9 e73d 09dc 50bf
00000110: fbef 3cbe 1942 cdbd 8508 93be 91d8 573e
00000120: b62a 75bd a3ff 8c3e 7330 823d a2dc 8a3d
00000130: 560c 38bd d84c 84be e8de 9ebb 9e8e e23d
00000140: 227f 5b3e af77 a43e 15c9 a5be 0b07 ea3d
00000150: 0880 893d a21c 27be 9f77 883d 6c12 3ebd
00000160: c89f 8d3e 3c53 0c3d 91a5 3cbe 95f5 7c3e
00000170: 4d70 fabe 50a9 8fbe 0e7d 32be a7f8 79be
00000180: a0cb 9d3d 8c29 8abe be97 a03e 779e b83e
00000190: 95fb b2bd 6cbb 4e3e 4737 0dbe bd50 5c3e
000001a0: 2ddb bebe 2ae5 333e 28da a4be 1b14 bebc
000001b0: b47e acbe 7a19 f13d f88a 923e 01a9 673e
000001c0: f690 ff3d 35e9 593d 76b5 83be b316 393e
000001d0: 5872 ac3e cfe3 b5be 47b6 c7b9 72c9 ae3d
000001e0: 8e8b 05be 80fc 9b3d 6fc1 dfbd 4d66 30be
000001f0: f4f9 a73d 2972 99be e990 8d3e 4b4a 06be
00000200: 8016 0b3e 2f7e af3e a9a2 46be 2036 51be
00000210: f628 31be 9b19 b93e 36d3 9bbe 442b 88be
00000220: c2b1 283d 29a7 6d3d 6590 72be 2594 3f3d
00000230: 4828 d1bd 8dae a83d 2341 da3d 1ecd 36be
00000240: b5c0 993d d7d2 83be b377 973e 1aad 7bbe
00000250: cf41 313e 16c0 183e 36b9 813e a2a9 01bd
00000260: e6dc c83c fd5d 7abe d743 5bbe 232f 85bd
00000270: 6485 0dbe cf85 7d3e 16c0 3c3c 00cd 943e
00000280: 942b 0dbe 824e d5bd 5c91 f5bd 7fe8 b73e
00000290: de62 1cbe a9ca 20be c57d 86be 99ad 973e
000002a0: 15eb 953e b3fc 5dbe eeaf 203e 3e60 b1be
000002b0: 5c97 63be 519d ffbd 709a 20be 3b8c cebc
000002c0: 9685 22bd bacc 823e dc72 85bd 12ef 523e
000002d0: 5ef0 5cbe 0579 1bbe 960d b3be 4fa1 a7be
000002e0: a833 5b3e 3a4b 843e 9c0f a33e 92da 54be
000002f0: 0601 4e3e 068a 2a3d 7d6c b3bb 4b5b f43c
00000300: 423c 0a3d 55be cf3d 76eb a83e 2b56 9e3d
00000310: 3caf 1d3e 5b4f 28be 9853 cb3d e4df 9abd
00000320: d505 08be 770a 3fbe 92aa 29bf 1ba6 b1be
00000330: 564a a83e 1244 1a3e 7451 4c3e 701d d9be
00000340: a8f3 49be d755 2dbe cddd ce3e 47bf 46be
00000350: f102 b3be 2488 093e ab15 9a3e 4247 383e
00000360: 6169 c13e a5fe 2cbd e2ce 44be 1f68 95bc
00000370: 101d 1b3e 7ec7 d83b fb34 e3be 6b91 a2be
00000380: bfe4 b03e 9fa4 8ebe e6a3 a4bc 6053 97bd
00000390: 5f1d 193e 6038 d03e e95d 44bc 5ae9 2cbe
000003a0: 37b7 1ebe aac7 c1be ed0f 0abe fa4c c7be
000003b0: 06b5 203e 013b 223d c721 913c 51b1 5fbe
000003c0: 0ff3 d23c 8be0 8e3e cfc3 bcbd 0ecc efbd
000003d0: 8549 1d3e 047e af3c 4ac6 983e 1946 adbe
000003e0: b52a d1bd 7f9f d9bd 027e 0c3d 9ab6 8a3e
000003f0: 0f17 ebbe d8c0 a1be 3f8a d53e 186e b0be

lstm.weight_hh_l2 f4 [40, 10]
-0.2593082 -0.13704404 -0.28168344 -0.0947544 0.17804521 0.2498631 0.2316982 -0.30188268
-0.31040552 0.18305473 0.026042704 0.22071213 -0.2501809 -0.30986735 0.0690971 -0.32806343
-0.35136068 -0.30941746 0.14594148 -0.28183627 -0.09452405 0.12775266 -0.03126964 -0.32998163
0.2665076 -0.2779071 -0.21872967 -0.21247028 -0.004322422 -0.13833676 0.28013363 -0.018892752
0.21487771 0.17296283 -0.17558081 -0.1887726 -0.23188049 -0.100603394 -0.10283718 -0.0043589044
-0.2863945 -0.018726159 0.2139443 -0.3215567 0.11557091 -0.27134302 -0.11978991 0.10596669
-0.23341063 0.18030934 0.19993237 0.24238656 0.07754544 0.10627975 0.15847924 0.018146176
-0.31001157 -0.23465328 -0.14766264 -0.16639361 0.016350828 0.22552659 0.0105587095 -0.15190259
0.17541216 0.27639744 0.23297043 -0.29986948 0.40440792 -0.23134309 -0.3310265 0.08941643
0.130924 -0.09231742 -0.11048834 0.1610353 -0.30413342 0.3082814 0.0045358427 -0.0483316
-0.21232441 -0.10760419 -0.040980402 0.11627884 -0.2084022 -0.10569824 -0.30052832 0.11803906
-0.1526566 0.23924106 0.06891545 0.27157462 0.06716472 -0.32083508 0.11338385 -0.20586634
-0.2551662 -0.08890647 0.20580165 -0.3092077 0.2253832 0.099738345 0.022897303 -0.12145244
-0.37938303 -0.14471947 -0.2795787 0.29256076 0.0182804 -0.17737588 0.16474262 0.026932139
0.29868215 -0.1955641 0.27167225 -0.31549922 0.08543844 -0.06881743 -0.25658718 0.18319336
-0.20045587 0.05516194 -0.13526803 0.14973336 0.2972487 -0.33181068 -0.15451886 -0.004880696
-0.010512374 0.20414811 0.100702465 -0.06876823 -0.074145965 0.21634537 0.052427895 0.08458661
0.33405355 -0.0037917376 0.11910902 0.26771 0.1496341 -0.013074491 0.27494434 0.13418126
0.21875289 -0.021915147 -0.34129214 -0.3198964 -0.28603122 -0.01867208 -0.19285846 0.025728976
-0.1632574 -0.14950983 -0.022696743 0.1956732 -0.2665108 0.1662834 -0.38429227 0.25635803
-0.049433738 0.26814848 0.23986915 0.28371915 -0.12661277 0.16503677 -0.12739162 0.116059214
0.16048831 0.26145065 -0.031371195 -0.12880938 -0.20750122 -0.16940269 0.23950054 -0.14770333
0.06156528 0.030407732 -0.03835969 0.40127608 -0.2670274 0.021135267 -0.05938122 0.117804684
0.16485417 -0.30855337 -0.360268 -0.34303164 0.070597015 0.2808025 -0.27622455 0.23113945
-0.106094725 0.23780328 -0.11780364 0.17814223 -0.16077833 -0.03567709 0.08370098 0.010711983
0.18458045 0.36051783 0.10204202 0.0300061 0.07796909 0.17974252 0.071301945 -0.0016584718
0.0711856 -0.2754911 -0.33273086 0.30452746 0.17016056 -0.106919505 0.027753325 0.20046547
-0.36659554 0.050167397 0.020020895 -0.31788874 0.04582352 -0.016643139 -0.14287238 -0.10807622
0.26515585 -0.07722518 -0.2165019 0.05807852 0.23450969 -0.2887518 -0.069925226 -0.13026504
-0.0067126867 0.0888599 0.046322823 -0.30283925 0.21842809 -0.22989859 -0.21948199 0.28573528
-0.046272587 0.019679107 0.21838051 -0.040238723 -0.0071507967 0.0343906 -0.1493395 -0.14357187
-0.11471858 0.11870078 0.14344664 -0.0742225 0.2312647 -0.06395971 -0.05311855 0.09473365
00000000: 0bc4 84be 4655 0cbe d038 90be 980e c2bd
00000010: 7c51 363e 1ddc 7f3e 4b42 6d3e 5e90 9abe
00000020: 79ed 9ebe b372 3b3e 8257 d53c 5c02 623e
00000030: b617 80be efa6 9ebe c882 8d3d eef7 a7be
00000040: 8ce5 b3be f76b 9ebe af71 153e d84c 90be
00000050: d395 c1bd 98d1 023e 9814 00bd 5af3 a8be
00000060: af73 883e d749 8ebe acfa 5fbe cf91 59be
00000070: 1ba3 8dbb 27a8 0dbe ad6d 8f3e f9c4 9abc
00000080: e708 5c3e 2b1d 313e 75cb 33be 9b4d 41be
00000090: 1472 6dbe 2709 cebd 4d9c d2bd 24d5 8ebb
000000a0: 4da2 92be 9a67 99bc 3714 5b3e 14a3 a4be
000000b0: 71b0 ec3d 79ed 8abe 6a54 f5bd 1005 d93d
000000c0: 3203 6fbe 03a3 383e 12bb 4c3e 2f34 783e
000000d0: 25d0 9e3d 33a9 d93d 6248 223e 4aa7 943c
000000e0: d6b9 9ebe f348 70be e034 17be 1663 2abe
000000f0: 2cf2 853c 71f0 663e 70fe 2c3c 5a8c 1bbe
00000100: 3f9f 333e f783 8d3e cd8f 6e3e 7e88 99be
00000110: 8e0e cf3e 34e5 6cbe 4e7c a9be f61f b73d
00000120: f110 063e ea10 bdbd b647 e2bd 70e6 243e
00000130: 60b7 9bbe 0fd7 9d3e 68a1 943b 5bf7 45bd
00000140: 926b 59be 965f dcbd 11db 27bd 9a23 ee3d
00000150: 6367 55be 5278 d8bd d9de 99be 76be f13d
00000160: 0352 1cbe 9cfb 743e 8b23 8d3d d40b 8b3e
00000170: a88d 893d 7f44 a4be cb35 e83d a0ce 52be
00000180: 25a5 82be 9814 b6bd abbd 523e 7950 9ebe
00000190: dbca 663e 9e43 cc3d 2093 bb3c 0fbc f8bd
000001a0: 7e3e c2be 5731 14be f024 8fbe 86ca 953e
000001b0: c7c0 953c 06a2 35be 4ab2 283e caa0 dc3c
000001c0: deec 983e f541 48be a018 8b3e 1d89 a1be
000001d0: 59fa ae3d 27f0 8cbd 655f 83be 0a97 3b3e
000001e0: 4e44 4dbe 7df1 613d b483 0abe b453 193e
000001f0: fb30 983e 17e3 a9be 313a 1ebe 3fee 9fbb
00000200: 183c 2cbc 340c 513e 183d ce3d 5cd6 8cbd
00000210: d7d9 97bd a489 5d3e a2be 563d bf3b ad3d
00000220: 1109 ab3e cd7e 78bb 6eef f33d 4911 893e
00000230: ae39 193e 6436 56bc 81c5 8c3e d066 093e
00000240: c200 603e 6587 b3bc d8bd aebe 76c9 a3be
00000250: af72 92be 31f6 98bc b07c 45be 93c5 d23c
00000260: f32c 27be 1b19 19be 85ee b9bc 8e5e 483e
00000270: 1b74 88be 3246 2a3e f5c1 c4be 5c41 833e
00000280: 087b 4abd c24a 893e 42a0 753e a343 913e
00000290: c7a6 01be 66ff 283e f372 02be 74b0 ed3d
000002a0: 0c57 243e dcdc 853e 157f 00bd 9be6 03be
000002b0: 337b 54be e677 2dbe a13f 753e 8b3f 17be
000002c0: e02b 7c3d a319 f93c 0d1f 1dbd 0f74 cd3e
000002d0: d1b7 88be de23 ad3c b939 73bd 9543 f13d
000002e0: 88cf 283e b5fa 9dbe 0c75 b8be d8a1 afbe
000002f0: 2b95 903d 58c5 8f3e 4e6d 8dbe d2af 6c3e
00000300: 3148 d9bd b482 733e 0943 f1bd eb6a 363e
00000310: 13a3 24be 2422 12bd 6b6b ab3d 5081 2f3c
00000320: a802 3d3e cb95 b83e 68fb d03d 5acf f53c
00000330: 42ae 9f3d 6c0e 383e c106 923d 1461 d9ba
00000340: c1c9 913d 2b0d 8dbe b35b aabe 06eb 9b3e
00000350: 923e 2e3e 9df8 dabd f15a e33c d246 4d3e
00000360: 69b2 bbbe 547c 4d3d dc02 a43c 50c2 a2be
00000370: 71b1 3b3d 3157 88bc 234d 12be 1157 ddbd
00000380: 82c2 873e 3c28 9ebd adb2 5dbe bee3 6d3d
00000390: 4f23 703e 47d7 93be f534 8fbd 3364 05be
000003a0: 19f6 dbbb 2efc b53d 00bd 3d3d bf0d 9bbe
000003b0: 9dab 5f3e 896a 6bbe e3bf 60be e54b 923e
000003c0: 5388 3dbd 1436 a13c 249f 5f3e 5cd1 24bd
000003d0: 3b51 eabb 28dd 0c3d 74ec 18be 8104 13be
000003e0: 93f1 eabd 6519 f33d ade3 123e f701 98bd
000003f0: a7d0 6c3e 4ffd 82bd d692 59bd b703 c23d

lstm.bias_ih_l2 f4 [40]
-0.07266994 0.3300882 0.41343352 0.16695774 0.18087961 0.36934173 -0.26582235 -0.083331026
0.37913215 0.026493594 -0.16880557 -0.25288534 0.0075425515 -0.109410524 -0.09083496 -0.26734948
0.21851915 0.10182069 -0.20146477 0.20787029 0.12384559 0.21190315 0.18952997 -0.19200762
0.13493276 0.100033864 -0.116243206 -0.09015206 -0.021529734 -0.1395043 -0.26669455 0.14108145
-0.17560336 -0.019778876 -0.19811197 0.1280371 -0.25383577 0.093786374 -0.10833565 0.0068630097
00000000: fad3 94bd 5201 a93e 8fad d33e f8f6 2a3e
00000010: 8138 393e 5c1a bd3e de19 88be 75a9 aabd
00000020: 9c1d c23e 1809 d93c 5edb 2cbe 307a 81be
00000030: 8227 f73b a012 e0bd ae07 babd 08e2 88be
00000040: 7cc3 5f3e 5e87 d03d c84c 4ebe f3db 543e
00000050: c2a2 fd3d 24fd 583e 2514 423e a59d 44be
00000060: d02b 0a3e 8ede cc3d eb10 eebd a5a1 b8bd
00000070: 205f b0bc 37da 0ebe 308c 88be a877 103e
00000080: 5ed1 33be 4f07 a2bc dddd 4abe 281c 033e
00000090: c3f6 81be 1213 c03d 15df ddbd 19e3 e03b

lstm.bias_hh_l2 f4 [40]
0.18088059 -0.17525542 0.06873955 0.044093136 0.18844654 0.33090466 0.20939565 -0.29069158
0.24766476 -0.005100443 -0.21046379 -0.108891055 -0.13260403 0.26394072 -0.082595214 -0.033130877
-0.085014924 -0.23587029 0.21291593 -0.231133 -0.2021396 0.09164071 0.2690853 -0.13371341
0.031014305 -0.101274595 -0.028302398 -0.17243458 0.35196674 -0.12699538 -0.29349446 0.12002644
0.39178914 -0.19998276 0.19797204 0.11316351 -0.041428033 0.15291299 0.39495853 0.086668745
00000000: c338 393e 2876 33be 52c7 8c3d 019b 343d
00000010: 21f8 403e 566c a93e d06b 563e 87d5 94be
00000020: d59b 7d3e 9e21 a7bb d283 57be 4602 dfbd
00000030: 5ac9 07be 3d23 873e ae27 a9bd 3eb4 07bd
00000040: 4e1c aebd fb87 71be a206 5a3e 21ae 6cbe
00000050: affd 4ebe 20ae bb3d 8cc5 893e 2bec 08be
00000060: b611 fe3c 0e69 cfbd 6eda e7bc b192 30be
00000070: fc34 b43e 140b 02be e844 96be 6cd0 f53d
00000080: 9698 c83e 48c8 4cbe 2fb9 4a3e 45c2 e73d
00000090: 71b0 29bd 3995 1c3e 0138 ca3e 627f b13d

fc.weight f4 [1, 10]
0.22467957 0.26366004 0.3609955 0.26246378 0.35785243 0.1158703 0.1974488 -0.026792146
0.31698042 -0.4241945
00000000: 6712 663e 73fe 863e 67d4 b83e a761 863e
00000010: 6f38 b73e 684d ed3d 0530 4a3e 347b dbbc
00000020: 424b a23e 0630 d9be
