ec_l2o_log/mtl_0.5_1_1_0.5/lstm_unroll.pth (torch, 13115 bytes, 13 tensors)

lstm.weight_ih_l0 f4 [40, 2]
0.07905209 -0.08358955 -0.062311813 0.38637772 -0.07054166 -0.23328228 0.5925097 0.4118164
0.39573357 -0.097259775 0.16160208 0.4508516 0.16422196 -0.06564784 0.14821224 0.06748926
0.37266415 0.3890042 0.5609317 0.41997245 -0.27605465 -0.17161243 0.11266647 -0.138324
0.5210675 -0.21508798 0.028186815 0.0061044027 0.15442438 -0.25229433 -0.026855612 -0.17684205
-0.2438225 -0.31495747 0.09649134 0.17020129 0.37545827 -0.14454271 0.4339055 0.32529414
-0.21654084 -0.25081635 0.25944337 0.3058388 0.1492319 -0.2007045 -0.36709452 -0.4665309
0.15093638 -0.42941657 0.266623 0.44879282 0.049919363 -0.32982022 -0.41005772 -0.16129209
0.38921413 0.06064729 -0.39102128 0.061373804 0.03957024 0.36341247 0.017296346 -0.15197167
0.5527398 -0.16212527 0.2646887 0.06897076 0.18544897 0.11299313 0.25773373 0.2970924
0.59184664 -0.07940895 0.67401004 0.63290423 0.23013616 0.23426273 0.59800386 0.24214628
00000000: 10e6 a13d ff30 abbd ac3a 7fbd 4dd3 c53e
00000010: 2578 90bd 8de1 6ebe b7ae 173f 99d9 d23e
00000020: 979d ca3e 2230 c7bd 047b 253e 05d6 e63e
00000030: cd29 283e 6072 86bd f3c4 173e cf37 8a3d
00000040: d6cd be3e 8f2b c73e 3899 0f3f a106 d73e
00000050: 0957 8dbe 2bbb 2fbe aebd e63d cfa4 0dbe
00000060: ae64 053f 0640 5cbe 09e8 e63c 7107 c83b
00000070: 6d21 1e3e b92c 81be 4d00 dcbc 1516 35be
00000080: 9bac 79be 1b42 a1be 409d c53d 3f49 2e3e
00000090: 113c c03e 0103 14be dd28 de3e f48c a63e
000000a0: e2bc 5dbe 006b 80be c3d5 843e e796 9c3e
000000b0: 3fd0 183e 7b85 4dbe d0f3 bbbe 23dd eebe
000000c0: 118f 1a3e 7ddc dbbe cf82 883e 2cc8 e53e
000000d0: 3f78 4c3d 32de a8be 16f3 d1be c129 25be
000000e0: 1347 c73e 4b69 783d f133 c8be 1963 7b3d
000000f0: 6714 223d 3311 ba3e 11b1 8d3c 769e 1bbe
00000100: 5b80 0d3f 2b04 26be 4785 873e 8b40 8d3d
00000110: 56e6 3d3e f168 e73d adf5 833e 7f1c 983e
00000120: 4383 173f 29a1 a2bd ec8b 2c3f 0306 223f
00000130: d0a8 6b3e 92e2 6f3e c816 193f 32f5 773e

lstm.weight_hh_l0 f4 [40, 10]
0.09766796 -0.17636946 0.1819879 -0.15420604 0.17572807 0.298325 0.30602202 -0.32448727
0.07342895 -0.17194611 0.11229976 0.040558085 -0.05123572 -0.18820366 0.09767771 -0.046104927
0.2888426 -0.17703387 0.076176725 0.152193 -0.34018844 -0.2561851 0.16945057 0.11853043
0.43171027 -0.11555218 0.017160555 0.17328396 0.09704203 -0.14544772 -0.21600537 0.3018464
-0.2673471 -0.100512706 0.4100256 -0.28979996 0.2551871 -0.04277664 -0.1261624 -0.15361832
-0.42215443 -0.051291265 -0.36274758 0.35471523 0.13563779 -0.06886098 0.7157764 0.22910212
0.43521982 -0.31748793 -0.06913288 -0.15915115 0.050107013 -0.26621866 0.2617008 -0.37220386
-0.05457524 0.20072234 0.33274373 0.28002626 0.21752338 0.1847723 -0.3192192 0.11352182
0.19494237 -0.20130256 -0.179597 0.025118984 -0.13928689 -0.36467183 -0.060757007 0.39740375
-0.07019169 -0.47769248 -0.15389654 -0.022540944 -0.11908699 -0.05886495 0.16010608 -0.33363193
-0.2858982 0.27039415 0.37926444 -0.56545985 -0.0748922 0.088308245 0.15758035 -0.008383619
0.41566178 -0.5492849 -0.47416264 0.4204451 0.031097699 -0.3778985 0.14745107 0.4629103
0.3078574 -0.52822447 0.49818647 0.11496984 0.15787455 -0.07380705 -0.17175288 -0.028850844
-0.17251249 -0.09266836 0.37954593 0.11896928 0.006042886 0.007857548 0.07497655 -0.14133547
-0.13659693 -0.08166029 -0.11508428 0.00074115576 -0.16501006 -0.24406734 -0.30149773 0.23932646
0.019305814 0.17467892 -0.22597268 0.18887676 0.2920151 -0.018863436 0.13483922 0.29751825
-0.14359124 0.07992239 -0.007713116 -0.18018954 -0.2441724 -0.23872237 0.25594527 0.13081837
0.1973312 -0.010705235 0.1790269 0.17521691 -0.0026611083 0.035082262 -0.14403528 0.2495123
0.031852756 -0.16228396 0.5770237 0.39832935 0.115280755 -0.31045336 0.060918864 -0.22986917
-0.078476615 -0.040537544 0.21155863 -0.15787189 0.055991724 0.18998781 -0.019623758 0.4285904
-0.14298373 0.12090993 0.11900373 -0.13439687 0.34751692 0.062712595 0.11054713 -0.08800078
-0.2797335 -0.323914 -0.28883114 0.30623817 -0.4468156 -0.09708767 0.28447375 -0.010760146
-0.09722557 -0.085014746 0.22244969 -0.45551276 0.14328015 -0.14644732 -0.18425728 -0.38588732
0.1808382 0.24660437 0.37030146 -0.42501926 0.3238672 -0.55045843 -0.07329765 -0.062743574
0.015829442 -0.67562014 0.14041947 0.6261304 0.26760402 -0.40736258 0.17899232 -0.6247893
0.013634341 0.027405791 -0.47565764 0.4678802 0.06665928 -0.41824383 -0.14787272 0.30025026
0.14967605 0.7434597 -0.22059923 0.034312878 -0.28255364 0.046243973 -0.0065784934 -0.04005167
0.1378799 -0.29897043 -0.3525736 0.01692211 -0.20918012 -0.054703455 0.018464658 -0.14451016
-0.5168502 0.05466099 0.056120593 -0.09942459 -0.29442438 0.52863693 -0.005561393 0.033679184
-0.3898619 0.42296532 0.37455478 0.16092183 -0.052375097 0.25171837 0.16189939 0.024888659
-0.14771341 -0.18573974 0.023912393 0.07068067 -0.035274293 -0.2575251 0.42666358 -0.028634658
0.041236646 -0.28028914 0.088153616 0.042330407 0.43120438 -0.43191242 -0.3457153 0.35340342
00000000: 2406 c83d 329a 34be 095b 3a3e 30e8 1dbe
00000010: 0ff2 333e 0ebe 983e ebae 9c3e 3223 a6be
00000020: eb61 963d a412 30be 6bfd e53d 3c20 263d
00000030: 8cdc 51bd 76b8 40be 400b c83d 85d8 3cbd
00000040: 2de3 933e 5e48 35be 8b02 9c3d 7bd8 1b3e
00000050: 2e2d aebe b22a 83be 7384 2d3e 15c0 f23d
00000060: 2109 dd3e 9fa6 ecbd 4b94 8c3c 5a71 313e
00000070: f9bd c63d 3ff0 14be 8330 5dbe 9d8b 9a3e
00000080: b8e1 88be 9bd9 cdbd e0ee d13e a960 94be
00000090: e2a7 823e 8f36 2fbd b730 01be 1f4e 1dbe
000000a0: a024 d8be ca16 52bd 0dba b9be 3c9d b53e
000000b0: a2e4 0a3e fc06 8dbd 1f3d 373f bf99 6a3e
000000c0: 22d5 de3e c78d a2be 8a95 8dbd 85f8 22be
000000d0: 033d 4d3d d04d 88be a6fd 853e 8191 bebe
000000e0: 498a 5fbd 288a 4d3e 635d aa3e 9a5f 8f3e
000000f0: 73be 5e3e f334 3d3e b370 a3be 217e e83d
00000100: f99e 473e 4222 4ebe 47e8 37be 54c6 cd3c
00000110: 39a1 0ebe 44b6 babe 57dc 78bd 8178 cb3e
00000120: a9c0 8fbd 1c94 f4be 0e97 1dbe c9a7 b8bc
00000130: e1e3 f3bd 601c 71bd d9f2 233e ced1 aabe
00000140: 4061 92be 1a71 8a3e f32e c23e fac1 10bf
00000150: 1561 99bd f4da b43d be5c 213e 725b 09bc
00000160: 9fd1 d43e ef9d 0cbf 72c5 f2be 9544 d73e
00000170: 9ac0 fe3c ea7b c1be 6afd 163e 9402 ed3e
00000180: 7c9f 9d3e b839 07bf 4c12 ff3e 4f75 eb3d
00000190: dea9 213e 2728 97bd fddf 2fbe 9b58 ecbc
000001a0: 1da7 30be e9c8 bdbd d853 c23e 2aa6 f33d
000001b0: 6703 c63b f2bc 003c 4e8d 993d 3fba 10be
000001c0: 11e0 0bbe 833d a7bd 4fb1 ebbd 1f4a 423a
000001d0: 66f8 28be caec 79be e95d 9abe ff11 753e
000001e0: 3a27 9e3c 08df 323e 6265 67be e968 413e
000001f0: 0183 953e 7e87 9abc 4b13 0a3e 5054 983e
00000200: 9509 13be 5aae a33d 4ebe fcbb 9b83 38be
00000210: 5408 7abe a373 74be 420b 833e 40f5 053e
00000220: 3111 4a3e 0365 2fbc d452 373e 106c 333e
00000230: fd65 2ebb 6bb2 0f3d fc7d 13be 2780 7f3e
00000240: 0978 023d c42d 26be d3b7 133f d3f1 cb3e
00000250: 5118 ec3d bef3 9ebe 0f86 793d d362 6bbe
00000260: 59b8 a0bd b20a 26bd d3a2 583e 2ba9 21be
00000270: 9457 653d 2a8c 423e 01c2 a0bc 3370 db3e
00000280: 546a 12be a09f f73d 3ab8 f33d 559f 09be
00000290: bded b13e 766f 803d 8966 e23d c139 b4bd
000002a0: 3b39 8fbe 0ed8 a5be ade1 93be 40cb 9c3e
000002b0: 04c5 e4be e6d5 c6bd 8ba6 913e 534b 30bc
000002c0: 331e c7bd 361c aebd dac9 633e f838 e9be
000002d0: 08b8 123e 49f6 15be f1ad 3cbe 0693 c5be
000002e0: a62d 393e db85 7c3e 2798 bd3e 209c d9be
000002f0: ecd1 a53e d8ea 0cbf 141d 96bd b47f 80bd
00000300: bfac 813c 71f5 2cbf 1fca 0f3e 154a 203f
00000310: 6503 893e d491 d0be c349 373e 31f2 1fbf
00000320: 9262 5f3c 1c82 e03c 6689 f3be fe8d ef3e
00000330: a984 883d 0e24 d6be f26b 17be 67ba 993e
00000340: ae44 193e 6053 3e3f c4e4 61be a98b 0c3d
00000350: dfaa 90be 526a 3d3d 6790 d7bb 380d 24bd
00000360: 6330 0d3e a712 99be 8784 b4be 3da0 8a3c
00000370: 5033 56be bb10 60bd 3243 973c 79fa 13be
00000380: 4b50 04bf 34e4 5f3d b5de 653d 1f9f cbbd
00000390: cbbe 96be c054 073f 593c b6bb 2ff3 093d
000003a0: fb9b c7be e98e d83e a5c5 bf3e b1c8 243e
000003b0: 4587 56bd 3be1 803e f4c8 253e 4de3 cb3c
000003c0: 2f42 17be 8f32 3ebe ece3 c33c 07c1 903d
000003d0: c77b 10bd 54da 83be a673 da3e 3b93 eabc
000003e0: c2e7 283d 0f82 8fbe e289 b43d a662 2d3d
000003f0: d2c6 dc3e a023 ddbe 9901 b1be 4bf1 b43e

lstm.bias_ih_l0 f4 [40]
0.3193037 -0.16786164 0.32709345 0.5493533 0.11801759 0.482592 0.04591863 0.114225425
-0.018505733 0.038017098 -0.18283904 -0.12883842 -0.0336239 0.06593926 0.05576499 0.3212911
-0.24376526 0.45006844 0.03620136 0.10882456 -0.196059 0.07710547 -0.08918861 0.11005736
0.31428346 -0.11593536 0.26248673 -0.09309252 0.26852486 0.08064722 0.18600339 0.0931497
0.068942085 0.47059375 -0.054037865 0.21992542 0.09238319 0.05423092 -0.05720192 0.58372355
00000000: c67b a33e ece3 2bbe cb78 a73e 6ba2 0c3f
00000010: 35b3 f13d 4c16 f73e 2c15 3c3d 05ef e93d
00000020: 5699 97bc d1b7 1b3d 283a 3bbe 38ee 03be
00000030: 37b9 09bd 2a0b 873d d569 643d 4480 a43e
00000040: 9a9d 79be 5f6f e63e e147 143d 69df de3d
00000050: b1c3 48be 79e9 9d3d 85a8 b6bd c165 e13d
00000060: c3e9 a03e 856f edbd a964 863e 4ba7 bebd
00000070: 177c 893e 5f2a a53d ac77 3e3e 45c5 be3d
00000080: 8231 8d3d aaf1 f03e cf56 5dbd 2134 613e
00000090: 6633 bd3d 3e21 5e3d 8f4c 6abd e86e 153f

lstm.bias_hh_l0 f4 [40]
-0.0065581333 0.3355298 0.24342452 0.19339706 0.108215176 0.35897964 0.06289769 0.110450216
-0.05054691 0.27514547 0.09965271 0.01185018 0.079330556 -0.1551747 -0.086474106 0.3612554
-0.23866673 0.2304351 0.2715132 0.36561322 -0.18417959 -0.029091934 -0.2662936 0.14993212
-0.0103638675 0.1309597 0.06734043 0.116921015 0.0066601997 -0.06308412 0.16397364 -0.17351058
0.35088614 0.09208211 0.041417785 0.41913158 0.06265071 0.63075465 0.039510135 0.57461125
00000000: 9ce5 d6bb 90ca ab3e 4744 793e e109 463e
00000010: eb9f dd3d 2ecc b73e 81d0 803d b933 e23d
00000020: 470a 4fbd dedf 8c3e b816 cc3d 4227 423c
00000030: 0f78 a23d 1ee6 1ebe 5619 b1bd 78f6 b83e
00000040: 0d65 74be 2ef7 6b3e c703 8b3e a831 bb3e
00000050: 9399 3cbe 3552 eebc a257 88be ce87 193e
00000060: 36cd 29bc 4d1a 063e c8e9 893d 4974 ef3d
00000070: ce3d da3b 3f32 81bd b5e8 273e c2ac 31be
00000080: 59a7 b33e 8c95 bc3d b2a5 293d 6a98 d63e
00000090: 044f 803d 2379 213f 61d5 213d b919 133f

lstm.weight_ih_l1 f4 [40, 10]
-0.24364398 -0.1200625 0.0059671197 -0.16478413 0.152757 0.44004786 0.31413734 -0.33108106
0.29630154 0.058315787 -0.27851176 0.41013986 -0.21384475 -0.47734526 0.23849681 0.22223622
0.28475642 -0.2171511 0.4824772 -0.6927856 -0.10327872 -0.1412851 -0.3135874 -0.36527646
0.76531845 -0.22769196 0.14440879 0.0767723 -0.09284363 -0.38083202 -0.14129229 0.20526654
-0.043909375 0.05580923 0.41685283 -0.0501445 0.015762769 -0.064095005 0.22037165 -0.1603543
-0.45110556 -0.036410503 0.17773256 -0.46417743 0.013905316 0.33332017 0.41506648 -0.12329148
-0.060963098 -0.032661475 -0.2671423 0.06998062 -0.07222737 -0.28792474 0.53347296 0.16636457
0.005347676 -0.13692188 0.41408706 -0.62075555 -0.32245475 -0.039524674 -0.24066372 -0.1662206
-0.06580489 0.44383004 -0.1956117 -0.23253086 0.17263761 0.061573874 -0.19527477 0.25054523
-0.29306337 -0.4473262 0.034042068 0.42665157 0.2286517 0.11802555 0.30165085 -0.47939685
-0.39951327 0.09784457 -0.022263728 -0.19567351 0.3734253 0.1706074 0.12349848 -0.3141343
0.23558535 -0.094231196 -0.41094533 0.5495685 -0.32021913 0.011502763 0.13706703 -0.06206907
-0.34817997 -0.6205984 0.1466752 -0.4609376 0.32456923 0.21537246 -0.34735578 0.3355992
-0.1574206 0.07726512 -0.034776527 0.38542923 -0.16199966 0.3454422 0.15354463 0.24038754
-0.3555726 -0.280709 0.38089725 0.26049834 -0.06865877 0.25531897 -0.18618374 -0.16679059
-0.0031708202 0.18643966 -0.2515741 0.20104708 0.2898989 -0.28183556 0.59129256 -0.0038417454
-0.21815118 0.30945927 0.23413275 0.2134838 -0.23220602 -0.209293 0.26400906 -0.25895157
-0.020417811 -0.01710128 -0.0048510632 0.044373494 -0.3681495 -0.033420518 -0.196102 0.44410846
0.23457265 0.12622137 -0.05321392 0.14088641 0.10371224 0.28113034 -0.24718645 0.15325978
-0.13721088 -0.08830974 0.29240337 0.12786497 0.48981658 0.07831533 -0.1165264 -0.14550005
-0.27363184 -0.09145553 0.15666538 -0.33459377 0.22273156 -0.107904874 -0.0200766 -0.5842315
0.15510994 -0.036815602 0.3011589 -0.29326773 -0.05918367 -0.019690704 0.45169577 0.19395688
0.3225377 0.2520614 0.1416715 0.21543457 -0.057026055 0.3705125 0.06407549 0.054274354
-0.098656096 -0.0011049429 -0.027720287 0.33908245 0.18716757 -0.1320295 -0.09703976 0.53795797
-0.3813057 -0.625178 0.20759654 -0.060377736 -0.21443075 -0.5401454 0.4917259 -0.38315016
0.10872325 -0.12530434 0.12937835 0.038008716 0.11660829 -0.15236516 0.017759765 -0.057742067
0.37048945 -0.344569 -0.12889877 -0.13056427 0.55917484 -0.2895547 -0.05826447 0.504695
0.07610513 -0.5169871 -0.018708859 -0.10803231 -0.22081807 -0.030074393 0.088467665 -0.6471393
-0.41553748 0.622541 0.25643793 -0.5058715 0.43568152 -0.124089465 -0.17036937 -0.07681731
0.07586518 0.30750015 -0.0056314995 0.1891645 -0.010993171 0.10204812 0.27462557 -0.050614715
0.11371629 0.26537347 0.19947545 0.476589 -0.13589814 -0.08215381 -0.35687828 -0.09794931
0.08620047 0.14203627 -0.13733889 -0.32265946 -0.16492426 0.80809325 0.4979856 -0.27072334
00000000: cf7d 79be 54e3 f5bd d487 c33b 2cbd 28be
00000010: 556c 1c3e f44d e13e 9cd6 a03e 7583 a9be
00000020: d6b4 973e 89dc 6e3d 1899 8ebe dafd d13e
00000030: 1efa 5abe 9966 f4be 8238 743e e491 633e
00000040: 98cb 913e dc5c 5ebe 4007 f73e 665a 31bf
00000050: cb83 d3bd 0bad 10be 878e a0be 8405 bbbe
00000060: e9eb 433f 1528 69be e6df 133e cc3a 9d3d
00000070: cd24 bebd 6afc c2be edae 10be 6431 523e
00000080: 51da 33bd 3898 643d bc6d d53e 5264 4dbd
00000090: ec20 813c 3e44 83bd 1ba9 613e eb33 24be
000000a0: 4ff7 e6be 2e23 15bd 86ff 353e aaa8 edbe
000000b0: 1fd3 633c f1a8 aa3e 9883 d43e 3e80 fcbd
000000c0: 71b4 79bd 0ac8 05bd e0c6 88be 0052 8f3d
000000d0: f2eb 93bd df6a 93be af91 083f 795b 2a3e
000000e0: 8f3b af3b 4035 0cbe 3803 d43e d6e9 1ebf
000000f0: ca18 a5be a0e4 21bd 8d70 76be bc35 2abe
00000100: b7c4 86bd b13d e33e 6f4e 48be 921c 6ebe
00000110: eac7 303e e334 7c3d 1cf6 47be 7747 803e
00000120: 670c 96be f107 e5be b26f 0b3d 1372 da3e
00000130: ac23 6a3e 61b7 f13d fb71 9a3e 8173 f5be
00000140: 018d ccbe bc62 c83d 6c62 b6bc a35e 48be
00000150: 9a31 bf3e b5b3 2e3e c5ec fc3d 36d6 a0be
00000160: 493d 713e 49fc c0bd 6d67 d2be 85b0 0c3f
00000170: c3f3 a3be 1676 3c3c 4d5b 0c3e 233c 7ebd
00000180: a544 b2be 89df 1ebf 0632 163e 0300 ecbe
00000190: f02d a63e 998a 5c3e 9ed8 b1be a9d3 ab3e
000001a0: de32 21be 2d3d 9e3d d571 0ebd fb56 c53e
000001b0: 3de3 25be cddd b03e ce3a 1d3e 2728 763e
000001c0: 9d0d b6be 17b9 8fbe f704 c33e 0a60 853e
000001d0: f89c 8cbd 2bb9 823e f3a6 3ebe 27cb 2abe
000001e0: 89cd 4fbb 0aea 3e3e 52ce 80be 49df 4d3e
000001f0: a16d 943e c04c 90be f35e 173f cbc5 7bbb
00000200: 0663 5fbe 7271 9e3e 7fc0 6f3e 7f9b 5a3e
00000210: 6ac7 6dbe e750 56be 322c 873e 4d95 84be
00000220: 4143 a7bc fc17 8cbc abf5 9ebb fbc0 353d
00000230: 177e bcbe f4e3 08bd f6ce 48be 2f62 e33e
00000240: d033 703e 2d40 013e d7f6 59bd 8744 103e
00000250: 1567 d43d 51f0 8f3e 721e 7dbe 22f0 1c3e
00000260: 0281 0cbe bddb b4bd e5b5 953e 09ef 023e
00000270: 3dc9 fa3e ca63 a03d 65a5 eebd f7fd 14be
00000280: 7919 8cbe 094d bbbd e46c 203e e04f abbe
00000290: be13 643e 3bfd dcbd af77 a4bc 3290 15bf
000002a0: 24d5 1e3e f5cb 16bd 8031 9a3e 3027 96be
000002b0: 936a 72bd 664e a1bc ab44 e73e a29c 463e
000002c0: a923 a53e 310e 813e 5512 113e e19a 5c3e
000002d0: 2794 69bd d0b3 bd3e 033a 833d c94e 5e3d
000002e0: 350c cabd bbd3 90ba a815 e3bc 379c ad3e
000002f0: dba8 3f3e be32 07be c8bc c6bd 9db7 093f
00000300: 803a c3be aa0b 20bf 3094 543e a54e 77bd
00000310: bc93 5bbe f846 0abf 7fc3 fb3e 422c c4be
00000320: 4caa de3d c84f 00be c27b 043e 07af 1b3d
00000330: 54d0 ee3d 9d05 1cbe ed7c 913c f282 6cbd
00000340: cbb0 bd3e 596b b0be 0afe 03be a4b2 05be
00000350: 1526 0f3f 8340 94be baa6 6ebd b133 013f
00000360: 02dd 9b3d 4459 04bf 5243 99bc 0b40 ddbd
00000370: 221e 62be 935e f6bc 892e b53d ecaa 25bf
00000380: 54c1 d4be d95e 1f3f d54b 833e cb80 01bf
00000390: a611 df3e 9e22 febd 4f75 2ebe 6552 9dbd
000003a0: 345f 9b3d a970 9d3e 7188 b8bb 57b4 413e
000003b0: b31c 34bc 9bfe d03d b99b 8c3e 6051 4fbd
000003c0: 16e4 e83d 08df 873e 4b43 4c3e 7903 f43e
000003d0: e228 0bbe 4240 a8bd c0b8 b6be a699 c8bd
000003e0: df89 b03d f571 113e 91a2 0cbe 9f33 a5be
000003f0: e8e1 28be 33df 4e3f f8f7 fe3e 409c 8abe

lstm.weight_hh_l1 f4 [40, 10]
-0.069088586 -0.22004612 -0.29863232 0.10747748 0.12281587 0.21736722 -0.107263416 -0.32455215
0.078014806 -0.44898325 0.049024954 0.08626505 0.28089532 -0.43356064 -0.18209362 -0.05553441
0.22570789 0.32735187 0.057431363 -0.14363559 0.27991787 -0.07876908 0.052079525 -0.39105666
-0.14699125 0.057009555 -0.0024072952 0.23707484 0.17392637 0.11895056 0.22623098 0.048811577
0.12143863 0.09264098 -0.030137165 0.03245202 -0.08738816 -0.03525171 0.14261626 -0.1613461
0.33521897 0.23867218 -0.03325024 -0.3772475 -0.12134955 -0.14964947 -0.16169465 -0.3217341
0.09392021 -0.09546595 -0.26541942 -0.019897431 0.21240279 0.022181895 0.12727502 0.21230038
0.2875561 0.24238291 0.5955262 0.35396716 0.3457913 0.4296996 0.33719853 0.047449082
-0.072113216 -0.29695356 -0.147844 -0.21009202 0.3525115 -0.7526492 0.2591551 0.1325089
0.14537016 -0.3543521 -0.18950151 0.09565628 0.058591105 -0.1826278 0.1326448 -0.2572255
0.38110358 0.27061892 0.18994981 -0.0074880747 -0.010551473 -0.32719624 -0.067879006 -0.20067084
-0.43595964 -0.3878191 0.42163068 0.16302888 -0.1881693 -0.07164588 -0.12725185 -0.32045835
-0.42079735 -0.17423339 -0.06524863 -0.02893182 0.17845592 0.2282822 0.2637018 -0.21669677
0.2656248 -0.27670416 -0.29588786 -0.34173363 0.20354085 -0.23519777 0.33825114 -0.17701662
-0.16542049 0.2833559 -0.2909322 -0.16224004 -0.022898978 -0.19011241 0.112646766 0.12977079
0.092112005 0.09665925 0.05079346 0.11895753 0.09100879 0.12798512 0.22935668 -0.26940274
0.051298957 -0.14912221 0.20953287 -0.14336573 0.17484465 -0.08786947 0.05119287 -0.1037532
-0.1791992 0.025298763 0.18173675 0.12674318 0.27861235 0.28019223 0.08572202 -0.22216347
-0.039480645 -0.23949511 0.32571757 0.009079736 0.24803609 -0.049690545 0.14873725 0.11487898
0.101345174 0.18404692 -0.5979629 -0.377278 0.14631042 -0.37370828 0.58067805 0.19483304
0.36498582 0.030500878 0.18380305 0.005706748 0.18443318 0.11021559 -0.20362923 0.22919498
-0.22506234 -0.3618516 0.02257123 -0.14420699 0.11346496 -0.1443009 -0.35500586 0.13041398
0.20591402 0.20333908 0.15880819 0.13764176 -0.025992632 -0.1646392 0.27185658 -0.0027420607
0.12560844 -0.17700094 -0.27948228 -0.3958452 0.11086031 -0.35897475 -0.1767039 -0.33653298
0.025808726 0.013314096 -0.13627295 0.021310745 -0.27485332 -0.26113686 -0.50212413 -0.28990063
0.2625313 -0.3211447 0.08032339 -0.03284348 -0.1619997 -0.033739366 -0.0072750286 0.16919562
0.010334365 -0.34877786 -0.16768776 -0.2385205 0.37738788 -0.20984837 -0.28035182 0.03189025
0.09889261 -0.22332095 0.2230234 0.14140333 0.08252767 0.3064195 -0.10907458 0.026663138
-0.09938682 0.076188765 -0.17431508 -0.108529784 0.2896691 -0.13445672 0.025831807 0.07183319
0.020883963 -0.17049411 0.18103054 -0.26607627 0.3252913 -0.29486796 -0.24881421 0.32244515
0.27905288 -0.10764845 -0.28513545 -0.14889951 0.45852953 0.22600204 0.11588717 -0.14100565
0.1252451 -0.29685113 -0.034378868 -0.43808773 -0.37581828 0.2106956 0.095343694 0.22717765
00000000: 517e 8dbd c553 61be 56e6 98be 271d dc3d
00000010: e386 fb3d 8395 5e3e ecac dbbd b32b a6be
00000020: 3ac6 9f3d 22e1 e5be 64ce 483d bbab b03d
00000030: 83d1 8f3e a9fb ddbe c076 3abe 0d78 63bd
00000040: f81f 673e aa9a a73e 263d 6b3d 3515 13be
00000050: 6551 8f3e af51 a1bd 5751 553d 9438 c8be
00000060: e084 16be da82 693d b6c3 1dbb bfc3 723e
00000070: c119 323e 5a9c f33d 18a9 673e a6ee 473d
00000080: d1b4 f83d 8eba bd3d 37e2 f6bc 69ec 043d
00000090: 90f8 b2bd 1964 10bd ff09 123e e937 25be
000000a0: d2a1 ab3e 7b66 743e 6731 08bd 9626 c1be
000000b0: 1d86 f8bd b63d 19be 4893 25be 55ba a4be
000000c0: 3d59 c03d a783 c3bd 0ee5 87be f0ff a2bc
000000d0: 1e80 593e ceb6 b53c 6254 023e 4565 593e
000000e0: 8e3a 933e 3a33 783e 6874 183f 2f3b b53e
000000f0: 8f0b b13e 9601 dc3e 49a5 ac3e f859 423d
00000100: 18b0 93bd 4c0a 98be 6b64 17be 5d22 57be
00000110: 637c b43e 9ead 40bf faaf 843e 6ab0 073e
00000120: eadb 143e a36d b5be af0c 42be 71e7 c33d
00000130: 3afd 6f3d c802 3bbe 0ad4 073e 10b3 83be
00000140: 0220 c33e 908e 8a3e 3482 423e 865e f5bb
00000150: 16e0 2cbc 4486 a7be 2604 8bbd a87c 4dbe
00000160: 1a36 dfbe 3a90 c6be fadf d73e 0bf1 263e
00000170: 74af 40be 13bb 92bd 4f4e 02be 1e13 a4be
00000180: c072 d7be 3d6a 32be 13a1 85bd 6d02 edbc
00000190: 26bd 363e cfc2 693e ec03 873e c2e5 5dbe
000001a0: f9ff 873e 2bac 8dbe 9d7e 97be b6f7 aebe
000001b0: 036d 503e afd7 70be 412f ad3e d843 35be
000001c0: fd63 29be 0614 913e 11f5 94be 4122 26be
000001d0: a396 bbbc d4ac 42be 59b3 e63d a2e2 043e
000001e0: 38a5 bc3d 49f5 c53d ce0c 503d 01a0 f33d
000001f0: d162 ba3d 880e 033e 7adc 6a3e 28ef 89be
00000200: db1e 523d 7eb3 18be c98f 563e 77ce 12be
00000210: 7a0a 333e e9f4 b3bd 9daf 513d 8f7c d4bd
00000220: ff7f 37be 5a3f cf3c 3319 3a3e f7c8 013e
00000230: 47a6 8e3e 5b75 8f3e 078f af3d d27e 63be
00000240: 75b6 21bd 353e 75be 74c4 a63e 2cc3 143c
00000250: 2cfd 7d3e 5088 4bbd 944e 183e ac45 eb3d
00000260: 0f8e cf3d cc76 3c3e 1914 19bf 952a c1be
00000270: 66d2 153e b156 bfbe 51a7 143f 5082 473e
00000280: 6cdf ba3e fadc f93c de36 3c3e acff ba3b
00000290: 0ddc 3c3e b6b8 e13d 2e84 50be 17b2 6a3e
000002a0: be76 66be 9d44 b9be 4de7 b83c ffaa 13be
000002b0: 5160 e83d 9dc3 13be 54c3 b5be 3e8b 053e
000002c0: 20db 523e 1f38 503e 9d9e 223e f6f1 0c3e
000002d0: 80ee d4bc 2e97 28be c930 8b3e 25b4 33bb
000002e0: 809f 003e bc3f 35be 4d18 8fbe 39ac cabe
000002f0: bb0a e33d 8acb b7be def1 34be 0d4e acbe
00000300: d26c d33c 5e23 5a3c 238b 0bbe df93 ae3c
00000310: 93b9 8cbe bbb3 85be 358b 00bf db6d 94be
00000320: 816a 863e 146d a4be 9780 a43d e386 06bd
00000330: 40e3 25be 4a32 0abd 5d63 eebb 9e41 2d3e
00000340: 7851 293c 0393 b2be 57b6 2bbe b83e 74be
00000350: fc38 c13e 7ee2 56be 468a 8fbe 5a9f 023d
00000360: 3588 ca3d 3fae 64be 3f60 643e 09cc 103e
00000370: 4404 a93d 04e3 9c3e 7e62 dfbd a76c da3c
00000380: 518b cbbd db08 9c3d a77f 32be dd44 debd
00000390: 824f 943e 06af 09be 3a9d d33c 481d 933d
000003a0: d814 ab3c 0296 2ebe 1260 393e 263b 88be
000003b0: 958c a63e eff8 96be 27c9 7ebe 8817 a53e
000003c0: 05e0 8e3e ca76 dcbd 46fd 91be 1d79 18be
000003d0: 62c4 ea3e 146d 673e 4156 ed3d c963 10be
000003e0: 4040 003e dffc 97be dbd0 0cbd 094d e0be
000003f0: 416b c0be 96c0 573e 8e43 c33d 42a1 683e

lstm.bias_ih_l1 f4 [40]
0.30751845 0.3330062 -0.0438667 -0.081347205 -0.06339515 -0.08170271 0.025292348 0.21923193
0.11362802 0.056649208 0.0273338 -0.09591179 0.39264044 0.18319876 0.26663867 0.1793502
0.14730538 -0.2273354 0.24903113 0.08972307 0.4121167 0.114268966 -0.17211182 0.1315081
-0.25129104 -0.13668217 -0.31706426 -0.20689902 -0.16341148 -0.022832273 0.19165972 0.046917357
0.36630452 0.05270104 0.12832685 -0.17338593 -0.122832686 -0.20138973 0.48707938 0.2849004
00000000: 0f73 9d3e ca7f aa3e 92ad 33bd 5d99 a6bd
00000010: 51d5 81bd c053 a7bd e631 cf3c 567e 603e
00000020: cfb5 e83d 0009 683d 22eb df3c 676d c4bd
00000030: 2b08 c93e 7598 3b3e dd84 883e 94a7 373e
00000040: 39d7 163e 9cca 68be 0402 7f3e bbc0 b73d
00000050: f600 d33e d905 ea3d 153e 30be 0faa 063e
00000060: 38a9 80be 69f6 0bbe 3f56 a2be 56dd 53be
00000070: 5755 27be bf0a bbbc 7242 443e 6a2c 403d
00000080: 448c bb3e 0cdd 573d 1d68 033e 158c 31be
00000090: b48f fbbd 1c39 4ebe 7862 f93e 77de 913e

lstm.bias_hh_l1 f4 [40]
0.10495501 0.18958198 0.4220903 -0.063353755 0.27662525 0.24191236 0.17220041 -0.23248067
0.028215887 0.0045147412 0.17754543 0.116895966 0.06776646 0.011362665 -0.0940409 -0.03713969
0.0999817 -0.2047702 0.2525044 0.33373767 0.105060495 -0.2024398 0.07728738 -0.19127436
0.07117159 0.060126197 0.24771473 -0.2680291 0.17419843 0.22219856 0.15596502 0.5549004
0.15752581 -0.13888825 0.0907274 0.37712115 0.14156953 -0.12415494 0.13449377 0.14038424
00000000: a7f2 d63d c721 423e 381c d83e 9dbf 81bd
00000010: d3a1 8d3e e0b7 773e 4e55 303e 6a0f 6ebe
00000020: 0125 e73c 65f0 933b 78ce 353e 2767 ef3d
00000030: 24c9 8a3d 792a 3a3c 8498 c0bd ca1f 18bd
00000040: 35c3 cc3d 48af 51be 4248 813e aadf aa3e
00000050: f529 d73d 614c 4fbe d948 9e3d 6ddd 43be
00000060: 69c2 913d e346 763d eea8 7d3e 1c3b 89be
00000070: 1361 323e 0588 633e 4bb5 1f3e f40d 0e3f
00000080: 724e 213e b938 0ebe 49cf b93d 0616 c13e
00000090: 9af7 103e f244 febd bcb8 093e e3c0 0f3e

lstm.weight_ih_l2 f4 [40, 10]
-0.14188494 -0.19919029 -0.04090336 -0.266041 -0.08846318 -0.3087673 -0.14659284 0.074438654
0.15440467 0.14270318 -0.231606 -0.15799892 0.13512015 -0.2061057 0.07394516 -0.43786976
-0.4126953 0.20582996 0.009106533 0.38690975 0.21788205 0.45353717 0.06020862 0.100432105
-0.3716289 -0.41670033 0.20913567 0.020474793 0.3986896 0.27910933 -0.3004268 0.07897543
-0.3438949 -0.0354106 -0.052050587 -0.05552441 0.09319819 0.05867831 0.2745846 -0.38877186
-0.0027629347 0.14221455 0.0883879 -0.03310022 -0.019187946 -0.004024899 -0.51588583 0.26346785
0.03932948 -0.01295371 0.36574236 0.13079326 0.63523203 0.4316503 -0.5474928 -0.4711165
0.23146959 -0.2158922 0.26627937 -0.06993758 0.47508764 -0.014989507 0.007375775 0.25722897
0.07355098 -0.19398896 -0.3980226 -0.02683133 -0.46539336 -0.2891275 -0.039823305 -0.077617064
0.24803221 0.3212188 -0.031163532 0.11667829 -0.35589746 0.18117058 -0.3117377 0.3020644
0.26261854 -0.053688865 0.38026252 0.022594921 -0.012508695 -0.6507951 -0.49991143 -0.3254172
0.29783905 -0.30175573 -0.18154754 0.32068124 0.19746438 0.079227425 -0.31649086 0.006745539
-0.13793014 -0.025926923 0.37057394 0.14788596 -0.26130503 -0.17480434 -0.07317991 -0.1951425
0.25889957 -0.085313074 0.11411157 0.3681219 -0.15346034 -0.04599318 -0.34570107 0.1600926
-0.024639463 -0.1832966 0.21633391 -0.003073866 -0.3869503 -0.0011475307 -0.14342503 0.07020587
-0.12737839 -0.23285374 0.30045798 0.052882273 -0.16790904 0.17658862 -0.570861 0.08772956
-0.12587525 0.13518639 -0.27507958 0.25517 -0.1228881 0.12535445 -0.23474301 -0.054693367
0.23659694 -0.21413614 0.33047035 -0.4124689 -0.38786244 -0.33923212 -0.11343727 -0.11100464
0.15028156 0.23150054 -0.018691856 0.06713411 -0.19708945 0.14452086 -0.13403387 0.16238216
0.15466024 -0.30446577 0.076925635 0.39977112 0.46049917 0.2368947 -0.07012666 -0.0920614
0.04918127 -0.480492 -0.47750968 -0.16065308 0.23671855 0.46663228 -0.34391028 0.47123563
-0.34636053 0.36073124 0.23066321 -0.005019653 -0.040211607 0.32766634 -0.09023709 -0.17104682
-0.44498602 -0.09288651 -0.335719 0.30291915 0.33234325 0.029621523 -0.07295877 0.24169737
-0.013185939 -0.15546434 -0.3975332 -0.09294199 -0.32336476 -0.039466694 0.15796158 -0.30625382
0.054396413 -0.2612451 0.2448633 -0.21699189 -0.101848856 0.10572129 -0.064821735 0.18100972
-0.040575363 0.30099273 -0.29740766 0.001699834 0.043075718 0.2936407 0.32817394 0.16243814
0.02274012 -0.23445117 -0.10165241 0.54287714 0.504333 0.11023678 -0.36365652 -0.3476849
0.22046001 0.2499893 0.44121075 0.15378088 -0.14293642 -0.30327168 -0.273021 -0.043932248
-0.098166086 0.2388505 0.039835244 0.07866099 0.041784927 -0.4634241 0.067951955 0.22957233
-0.01869972 0.05526353 -0.12072513 -0.0827605 0.19480446 0.2780598 -0.0025301292 -0.038498092
0.1822336 0.42120972 0.44702032 -0.13410966 -0.37562615 -0.04424443 0.35575178 -0.3502246
0.39389625 -0.01849236 0.15666647 -0.18818867 0.031139148 0.31106782 0.012030775 0.32938874
00000000: 494a 11be 8af8 4bbe 488a 27bd 8736 88be
00000010: 2f2c b5bd bf16 9ebe 6f1c 16be 4b73 983d
00000020: 421c 1e3e c820 123e 202a 6dbe 78ca 21be
00000030: f05c 0a3e 5f0d 53be 8f70 973d 7730 e0be
00000040: cc4c d3be 17c5 523e 9133 153c 0919 c63e
00000050: 791c 5f3e 0636 e83e 509d 763d 59af cd3d
00000060: 2546 bebe bf59 d5be a927 563e c1ba a73c
00000070: 0b21 cc3e 6be7 8e3e 8bd1 99be dfbd a13d
00000080: fe12 b0be b50a 11bd ff32 55bd 906d 63bd
00000090: b1de be3d ab58 703d 5a96 8c3e 1b0d c7be
000000a0: 5a12 35bb b1a0 113e b704 b53d 1994 07bd
000000b0: 0a30 9dbc 4de3 83bb 1811 04bf 42e5 863e
000000c0: f317 213d cc3b 54bc 9542 bb3e abee 053e
000000d0: 919e 223f 4501 dd3e 7d28 0cbf 2f36 f1be
000000e0: 5d06 6d3e d812 5dbe c555 883e 6f3b 8fbd
000000f0: b03e f33e 8d96 75bc 7cb0 f13b 84b3 833e
00000100: e5a1 963d 0ba5 46be 9ec9 cbbe 61cd dbbc
00000110: 0a48 eebe 8508 94be c31d 23bd b2f5 9ebd
00000120: 28fc 7d3e ca76 a43e aa4a ffbc 07f5 ee3d
00000130: 3138 b6be c884 393e 159c 9fbe 2fa8 9a3e
00000140: f075 863e dbe8 5bbd c5b1 c23e fc18 b93c
00000150: 45f1 4cbc 829a 26bf 64f4 ffbe 159d a6be
00000160: 5c7e 983e ba7f 9abe 99e7 39be 5530 a43e
00000170: 1a34 4a3e fd41 a23d 170b a2be af09 dd3b
00000180: 8f3d 0dbe b364 d4bc debb bd3e 6b6f 173e
00000190: c6c9 85be e9ff 32be 59df 95bd 6fd3 47be
000001a0: 7c8e 843e 9fb8 aebd 54b3 e93d 797a bc3e
000001b0: b524 1dbe 5863 3cbd bbff b0be 51ef 233e
000001c0: b3d8 c9bc 1bb2 3bbe a386 5d3e ea72 49bb
000001d0: 5a1e c6be be68 96ba 03de 12be 18c8 8f3d
000001e0: 7b6f 02be 3671 6ebe a1d5 993e 159b 583d
000001f0: 59f0 2bbe a6d3 343e f223 12bf 8eab b33d
00000200: 71e5 00be 4d6e 0a3e 3bd7 8cbe a4a5 823e
00000210: c2ac fbbd eb5c 003e 7960 70be 2706 60bd
00000220: 7846 723e 8146 5bbe 6933 a93e 202f d3be
00000230: e895 c6be d5af adbe cd51 e8bd 6756 e3bd
00000240: 69e3 193e 7a0e 6d3e aa1f 99bc 9c7d 893d
00000250: d1d1 49be 47fd 133e 2d40 09be 8247 263e
00000260: 415f 1e3e f0e2 9bbe 308b 9d3d cdae cc3e
00000270: 8cc6 eb3e 8694 723e 919e 8fbd b08a bcbd
00000280: 4d72 493d 0c03 f6be 267c f4be 3e82 24be
00000290: 5966 723e 6dea ee3e 0215 b0be cc45 f13e
000002a0: 2b56 b1be c4b1 b83e fa32 6c3e e77b a4bb
000002b0: edb4 24bd e2c3 a73e 39ce b8bd e626 2fbe
000002c0: 35d5 e3be 483b bebd 5ce3 abbe 3818 9b3e
000002d0: e528 aa3e d6a8 f23c 686b 95bd 847f 773e
000002e0: d609 58bc 0b32 1fbe 7989 cbbe 5f58 bebd
000002f0: 1190 a5be d4a7 21bd aec0 213e 4dcd 9cbe
00000300: c6ce 5e3d ebc1 85be 72bd 7a3e 1f33 5ebe
00000310: 2296 d0bd 6784 d83d 42c1 84bd 9d5a 393e
00000320: 5a32 26bd b81b 9a3e d145 98be f7cc de3a
00000330: 2a70 303d 1358 963e 6a06 a83e 2f56 263e
00000340: 7d49 ba3c f813 70be 242f d0bd fff9 0a3f
00000350: f81b 013f d2c3 e13d 3031 babe c103 b2be
00000360: 45c0 613e 32fd 7f3e 60e6 e13e bc78 1d3e
00000370: ed5d 12be 6d46 9bbe 69c9 8bbe 4df2 33bd
00000380: 4d0b c9bd 3a95 743e 482a 233d 0319 a13d
00000390: ac26 2b3d ec45 edbe 652a 8b3d 0215 6b3e
000003a0: 2830 99bc 035c 623d bd3e f7bd 567e a9bd
000003b0: d27a 473e db5d 8e3e 86d0 25bb 2db0 1dbd
000003c0: 729b 3a3e cda8 d73e d9df e43e 0b54 09be
000003d0: 1252 c0be a639 35bd 1925 b63e a450 b3be
000003e0: c5ac c93e 4a7d 97bc 2d6d 203e 88b4 40be
000003f0: 8717 ff3c 4844 9f3e ba1c 453c a4a5 a83e

lstm.weight_hh_l2 f4 [40, 10]
0.3378462 -0.22385746 0.07959008 0.39067957 -0.25323698 0.35970432 -0.200843 0.20777512
-0.0570608 0.25800255 0.11989008 -0.27744788 0.22505896 0.29650822 -0.10265187 0.11370355
-0.35439444 -0.12914273 0.2749625 -0.2644824 -0.28041315 0.12198139 0.12418854 0.08670231
-0.46255237 -0.0038915395 -0.36645803 0.15517169 -0.13289186 -0.12261097 0.015926726 0.10570066
-0.22615024 0.22781178 0.2219584 0.29491284 0.47739124 0.27080125 0.10662164 -0.19846882
0.21063296 0.09516903 0.20086266 0.13370103 -0.32128945 -0.34915826 -0.53822243 0.04766119
-0.07126945 -0.23110558 0.019990174 0.15399404 0.022413932 0.09614707 0.046315826 -0.17389202
-0.48578274 0.2881994 0.089216866 -0.07862415 0.054606624 -0.10336974 -0.29599884 -0.037910197
-0.10431829 0.1715251 0.190068 0.84158486 0.12329968 0.2729956 -0.01045321 -0.04013545
0.18059143 -0.04628161 -0.2511699 -0.10442519 0.4173067 0.116387844 -0.28340304 0.22976543
0.08389262 -0.18938933 0.22111163 0.32858464 -0.14237382 -0.09562002 -0.3758876 0.3081613
-0.11007207 -0.11652123 -0.30062976 -0.23417279 -0.07257132 0.3419654 -0.34416687 0.2573494
-0.2613075 0.112244196 -0.20072366 -0.048133 -0.09368748 0.05962982 0.20563585 0.32956558
-0.26205307 0.16592714 -0.31775686 -0.10720681 0.36453283 0.16105068 0.3691637 0.17267695
0.25938937 -0.04412187 0.0584857 0.15343282 -0.34950307 0.12055118 -0.19568527 -0.162696
0.07657186 -0.020984178 0.11601642 0.28470382 -0.08095728 0.09276469 -0.28187323 0.36925694
-0.2593823 -0.0015642011 0.2718461 0.19692193 -0.16620916 -0.22005466 -0.20305277 0.03131711
0.03238509 -0.17841278 0.00047544533 -0.1297265 -0.23186512 0.28384367 -0.37198818 0.28316095
-0.13256422 -0.30078298 -0.07910452 0.07214712 0.100807585 0.22149608 0.3025739 0.1222396
-0.010893546 -0.067091644 0.22851828 0.30262387 -0.4698966 0.040515706 0.01534387 -0.08395727
0.08324521 -0.27194548 0.33354002 0.14971896 0.15894346 0.37456223 0.12756667 0.6392159
-0.13172476 0.08680877 -0.0052223713 -0.16715929 0.05575948 -0.19453424 0.053924333 0.26769072
0.015689839 0.05167858 0.17694753 0.21779394 -0.011734163 -0.27613333 -0.25568447 0.06668118
0.32206354 0.046756264 0.0759554 0.28803954 0.16238262 0.2877233 -0.20282182 -0.26944706
-0.28426328 0.013055722 -0.10539218 0.0027007372 -0.20526959 0.35937235 -0.12712587 0.049979497
-0.15198973 0.15047751 -0.038419705 -0.1683498 0.025884366 0.011812038 0.0773005 0.17279646
0.18564713 0.2895349 -0.17262794 -0.0039182585 -0.16108103 0.2660752 0.24082223 0.047331236
-0.092655785 0.2084141 0.43365562 -0.03261504 0.11451383 0.005320027 -0.20627397 -0.06698054
-0.16015421 -0.17965578 0.23437104 -0.19496779 -0.16609623 0.23425788 -0.24979043 -0.14060594
-0.3062384 0.03791271 0.103509925 0.15108117 0.37172213 0.102865845 0.11409297 -0.05719425
-0.060319018 -0.21317916 -0.21666123 -0.25629628 -0.022843948 0.13148852 -0.1425418 0.015211567
0.28654745 0.26880923 -0.06958123 -0.09213335 -0.24450801 -0.09075292 -0.05560554 0.12142477
00000000: 2dfa ac3e e43a 65be 2000 a33d 2707 c83e
00000010: 47a8 81be 2a2b b83e caa9 4dbe 00c3 543e
00000020: 96b8 69bd e918 843e ee88 f53d a60d 8ebe
00000030: db75 663e edcf 973e 253b d2bd 68dd e83d
00000040: 3073 b5be fe3d 04be e3c7 8c3e 3d6a 87be
00000050: 5092 8fbe 61d1 f93d 9056 fe3d fb90 b13d
00000060: aad3 ecbe 3309 7fbb 63a0 bbbe 54e5 1e3e
00000070: ce14 08be 761b fbbd c478 823c 9679 d83d
00000080: ee93 67be 7e47 693e 1049 633e d1fe 963e
00000090: a06c f43e 76a6 8a3e 725c da3d 693b 4bbe
000000a0: 2bb0 573e fbe7 c23d f1ae 4d3e ece8 083e
000000b0: 0d80 a4be dfc4 b2be f2c8 09bf 6138 433d
000000c0: b8f5 91bd f1a6 6cbe 6fc2 a33c 9db0 1d3e
000000d0: 6c9d b73c c1e8 c43d aab5 3d3d c010 32be
000000e0: 84b8 f8be df8e 933e 55b7 b63d b305 a1bd
000000f0: 32ab 5f3d 84b3 d3bd 298d 97be b947 1bbd
00000100: d4a4 d5bd 47a4 2f3e 30a1 423e 1b72 573f
00000110: 8b84 fc3d 14c6 8b3e f143 2bbc 1265 24bd
00000120: f6ec 383e c991 3dbd 5799 80be e0dc d5bd
00000130: 39a9 d53e c05c ee3d 341a 91be a147 6b3e
00000140: e5cf ab3d 47ef 41be 166b 623e 3f3c a83e
00000150: 71ca 11be 6ed4 c3bd 5774 c0be 51c7 9d3e
00000160: 776d e1bd afa2 eebd 25ec 99be feca 6fbe
00000170: 46a0 94bd 1716 af3e a436 b0be 4dc3 833e
00000180: 19ca 85be 49e0 e53d 818a 4dbe 1c27 45bd
00000190: 39df bfbd 663e 743d 3492 523e d2bc a83e
000001a0: d22b 86be cee8 293e 07b1 a2be 3e8f dbbd
000001b0: 0ca4 ba3e 78ea 243e 0603 bd3e 3ad2 303e
000001c0: afce 843e 22b9 34bd b48e 6f3d 7e1d 1d3e
000001d0: 11f2 b2be 89e3 f63d b861 48be c899 26be
000001e0: b5d1 9c3d 03e7 abbc 049a ed3d b3c4 913e
000001f0: eecc a5bd 6afb bd3d b051 90be 3f0f bd3e
00000200: c2cd 84be e105 cdba 692f 8b3e e7a5 493e
00000210: bc32 2abe 0256 61be 11ed 4fbe 5f46 003d
00000220: 3aa6 043d d7b1 36be 3145 f939 06d7 04be
00000230: 0d6e 6dbe f553 913e 3c75 bebe 79fa 903e
00000240: eabe 07be 3a00 9abe 8d01 a2bd dfc1 933d
00000250: 3574 ce3d decf 623e f7ea 9a3e c158 fa3d
00000260: d87a 32bc 5867 89bd b200 6a3e 84f1 9a3e
00000270: 4a96 f0be ccf3 253d db64 7b3c caf1 abbd
00000280: 777c aa3d 703c 8bbe c2c5 aa3e ed4f 193e
00000290: 13c2 223e 9fc6 bf3e d6a0 023e a7a3 233f
000002a0: dbe2 06be ccc8 b13d 6d20 abbb ce2b 2bbe
000002b0: 0d64 643d fc33 47be c3df 5c3d c20e 893e
000002c0: fa87 803c ebac 533d bc31 353e 6005 5f3e
000002d0: a640 40bc 5961 8dbe 13e9 82be 2490 883d
000002e0: 83e5 a43e 7f83 3f3d 818e 9b3d eb79 933e
000002f0: a147 263e 7850 933e 86b0 4fbe f7f4 89be
00000300: f58a 91be abe7 553c dbd7 d7bd dafe 303b
00000310: 3132 52be a7ff b73e 492d 02be 4db7 4c3d
00000320: 32a3 1bbe c716 1a3e fb5d 1dbd e463 2cbe
00000330: 730b d43c 4787 413c b94f 9e3d 8ef1 303e
00000340: 481a 3e3e eb3d 943e 61c5 30be bc64 80bb
00000350: 6df2 24be 023b 883e 1a9a 763e 66de 413d
00000360: 51c2 bdbd 816a 553e 1c08 de3e 5997 05bd
00000370: 3a86 ea3d 9f53 ae3b 7c39 53be 182d 89bd
00000380: 77ff 23be aff7 37be f6fe 6f3e a3a5 47be
00000390: 2115 2abe 4ce1 6f3e 10c9 7fbe 01fb 0fbe
000003a0: 48cb 9cbe 5c4a 1b3d 03fd d33d 06b5 1a3e
000003b0: 5d52 be3e 54ab d23d 93a9 e93d 8544 6abd
000003c0: 1311 77bd a34b 5abe 71dc 5dbe 4439 83be
000003d0: 3b23 bbbc eda4 063e 7af6 11be f039 793c
000003e0: 59b6 923e 5da1 893e 9b80 8ebd 69b0 bcbd
000003f0: 4f60 7abe abdc b9bd a2c2 63bd 8dad f83d

lstm.bias_ih_l2 f4 [40]
-0.03891061 -0.17116511 0.43659106 -0.17334367 0.31516758 0.08809666 -0.051219776 0.1362578
0.45289567 0.34857762 -0.34081537 -0.029830337 0.12785232 0.14484127 -0.016955195 0.020310605
0.0155352745 0.08679113 0.06196948 0.12121564 -0.28671658 0.22886601 0.06982971 0.0009844799
-0.08508726 0.0055404883 0.25268766 -0.23234387 0.026931496 0.33611408 0.26224488 0.2899305
0.22095962 -0.05866342 -0.058720414 0.0075217485 0.059635673 -0.044153623 0.37145573 -0.077611595
00000000: bb60 1fbd e845 2fbe dd88 df3e 0181 31be
00000010: a55d a13e 066c b43d d4cb 51bd 2a87 0b3e
00000020: f1e1 e73e c478 b23e 5a7f aebe c05e f4bc
00000030: b8eb 023e 4551 143e 9fe5 8abc 6d62 a63c
00000040: aa87 7e3c 8cbf b13d b6d3 7d3d e83f f83d
00000050: 84cc 92be da5b 6a3e e102 8f3d aa09 813a
00000060: 3b42 aebd fc8c b53b 4760 813e 8deb 6dbe
00000070: 719f dc3c 2517 ac3e f644 863e c571 943e
00000080: 3d43 623e 0e49 70bd d184 70bd 0079 f63b
00000090: 8944 743d 6eda 34bd 722f be3e d4f2 9ebd

lstm.bias_hh_l2 f4 [40]
0.3741766 -0.1087276 0.0446267 -0.097641796 0.010841616 0.56768894 0.34736088 -0.08659242
0.4207839 0.03633296 0.019126188 -0.13206896 0.035084013 0.20307915 -0.13401315 -0.12288397
-0.080142654 0.124301024 0.05361127 -0.19063465 -0.06421652 -0.0016607047 -0.28470993 0.19858415
-0.22690147 -0.21637161 -0.15434739 0.03305069 -0.39193624 0.3706754 -0.20168896 -0.06418283
0.2710886 -0.20201443 -0.039986745 0.46787086 0.30742785 -0.23323758 0.32087782 0.3355182
00000000: 1394 bf3e 93ac debd 7dca 363d 6cf8 c7bd
00000010: 09a1 313c 1054 113f 49d9 b13e 5e57 b1bd
00000020: fd70 d73e dfd1 143d 86ae 9c3c 163d 07be
00000030: 41b4 0f3d fbf3 4f3e be3a 09be 97aa fbbd
00000040: d521 a4bd 8991 fe3d 7e97 5b3d bb35 43be
00000050: f383 83bd 01ac d9ba 80c5 91be a559 4b3e
00000060: dc58 68be 8590 5dbe 3e0d 1ebe 2960 073d
00000070: deab c8be 2bc9 bd3e 8d87 4ebe 4a72 83bd
00000080: 20cc 8a3e dfdc 4ebe 24c9 23bd c58c ef3e
00000090: 2f67 9d3e d5d5 6ebe 194a a43e 0bc9 ab3e

fc.weight f4 [1, 10]
-0.11817498 0.32954058 -0.4124832 -0.19528307 0.21051346 -0.18647347 0.24882792 0.09956884
-0.1161296 0.17514606
00000000: b905 f2bd 8bb9 a83e ff30 d3be 49f8 47be
00000010: d790 573e e7f2 3ebe bfcc 7e3e bfea cb3d
00000020: 5bd5 edbd 7d59 333e
