ec_l2o_log/mtl_0.5_1_1_1/lstm_unroll.pth (torch, 13115 bytes, 13 tensors)

lstm.weight_ih_l0 f4 [40, 2]
00000000: 973f 413e 4cb5 bfbc 077a 12bd 727f 983e
00000010: 06e8 9cbe a2e6 313e 3f17 493f 46f2 fe3e
00000020: 6f86 a83e 94ae fa3e 5cb0 563a 65f1 f93e
00000030: 9c11 d23d 4f91 1c3e 5be0 3b3f c9db 013f
00000040: 4621 6d3f 8080 7d3d 937a 293e 81e8 e33c
00000050: e752 e9bd be7e 593e 9b04 7a3d 0de0 813e
00000060: 3727 513e 0254 103e 81e3 b4bd 9857 bc3e
00000070: 3528 a03e 3502 9b3e 6304 8f3e 2d4c ac3d
00000080: 5009 2e3e b5a9 303e f20f 71bd cd0d e1bd
00000090: 1a88 9abe 3f1e 5cbe e8d5 01be d9ba 1b3d
000000a0: 9428 d13e d483 b53d 5fdb 0bbe c77a 91bd
000000b0: a460 e63e 5062 b7bc 26ff 023f e7e7 2a3e
000000c0: da01 7c3e 090d 51be db4d a0be 8f83 2cbe
000000d0: da69 bb3e 8301 04be 2000 0b3f e1cf a93e
000000e0: 4964 10bf 0665 2e3e 9c9d c13e 5684 993e
000000f0: 22cf 013f 5719 813e b9a1 a23d 05fa 483e
00000100: d68a 423b 438f 833d 5363 d63e 2c9d 1e3f
00000110: 0965 f93e 586c c73e f816 813e 297f bf3e
00000120: 4e6e b03e 7c2d 153e 80ce 223f 39ed df3e
00000130: 1a03 493f 9fd3 4a3e edf8 973e 1a99 053e
0.18871914 -0.023401879 -0.035760906 0.29784733 -0.3064577 0.17373136 0.78551096 0.49794215
0.32915065 0.48961318 0.0008189732 0.48816982 0.10257265 0.15289806 0.73389214 0.5072599
0.92628896 0.061890125 0.16550665 0.027820827 -0.113927655 0.21239755 0.06103955 0.2536625
0.20425116 0.14094546 -0.088324554 0.3678558 0.31280676 0.3027512 0.27933034 0.08412967
0.1699574 0.17252238 -0.058853097 -0.109889604 -0.30181962 -0.21495913 -0.12679255 0.03801999
0.4085127 0.08863035 -0.13657902 -0.07103496 0.44995606 -0.022385746 0.51170576 0.16690026
0.24610081 -0.20415129 -0.313094 -0.1684706 0.36604196 -0.12891202 0.54297066 0.33166412
-0.56403023 0.17030725 0.3781556 0.29983777 0.50706685 0.25214645 0.079410024 0.19626625
0.0029684803 0.064238094 0.41872653 0.61958575 0.48709896 0.38949847 0.25212836 0.37401703
0.34459156 0.14568132 0.63596344 0.43735674 0.7852036 0.1980729 0.29682103 0.13046685

lstm.weight_hh_l0 f4 [40, 10]
00000000: 24a8 fa3d 5cb4 32bd c60d dd3e 2725 5fbd
00000010: 2567 9f3e 6f24 88bd b8cf fd3d fdc5 f03e
00000020: adb6 80be 0fbf 3dbe 354d 233e e295 96be
00000030: 3f98 81bd 2a6d 51be 1164 a63e cac9 17bd
00000040: b937 e83e 31e1 aebe 755e 89be f872 54be
00000050: 42c4 20be 3f92 e73e 3d74 2fbe fcbd b53e
00000060: e18c d5be 5bf5 343d 5d0e 4dbe bfb9 993e
00000070: 7714 0b3f e50c 263e e0d6 fd3e cc6a 7f3e
00000080: 9bfe 6bbe 76e7 dd3e 5760 08bf 6d60 2e3d
00000090: 1aa7 d03d 1676 3e3f d9ff b83b f1eb ba3e
000000a0: 87d6 d93d 85bc b53d ad2d 043f cd30 de3d
000000b0: 99d3 aabd 55db 46be d79f 07bd 5ad3 f1bd
000000c0: c7fd b9be 5abc 5d3e ca03 083d bceb a13d
000000d0: 6d58 b23e de24 1d3d 475e 4a3e 35ea 89be
000000e0: 7403 493e e477 f83e 26e1 08bf 7c3c 993e
000000f0: 0597 83be 68a3 a53d c0c8 913e e086 6b3e
00000100: 45ea 80be e060 53bd 7d5f c33d 48aa 80be
00000110: 2cf5 c43e 2c0b 143e c02e 973e c4ef bbbc
00000120: 51b1 ba3e 5b60 7d3e da02 5ebe a2a0 b8be
00000130: 7887 5a3e 2240 093d edaa 7cbe 4827 c23e
00000140: 69ee 46bd d9c1 073e 63f6 6abc d23f 29bf
00000150: 4f9e 773d fb2c c93d d203 60be 2fb0 123f
00000160: 667d c03e db0a a9be f766 62be d6d9 9dbe
00000170: be00 c03d 73b6 b0be 4b75 0cbe ede4 56bd
00000180: ed5b 253e fa18 c83e f476 e63d 69ec 05be
00000190: 0a90 9a3e 3ee6 b03d 5f7a 08bd 109e 4b3d
000001a0: 5bda 41be 9f06 083e 555a 0f3d 39a9 15be
000001b0: 28c8 cabe 93e4 11be 4fd4 85be f1d5 7b3d
000001c0: 57b2 e43e 5cc2 d63b a94c 8e3e 3c77 23be
000001d0: dccb 903c a2bd a03d 6991 793d 8970 933d
000001e0: e036 e23d 37ea 3fbe c57c 11bd 013f 09be
000001f0: 83ca b5be d6bf 8f3d d00d 51be e7b3 5e3c
00000200: e40b 983e cc9a 9e3e 3bb4 d53e c674 5c3e
00000210: b22b 063d 3139 bbbb 3cb9 d3be 9a86 11be
00000220: d8a8 d9be f08f 043f 86b6 7abe be6a 003d
00000230: 276b ecbd 2ec8 83be 30be 633e 285c dd3c
00000240: d23b 39be ac9f 99be 1c62 8bbe 5ab3 e5bd
00000250: ebb6 babe 1f7e b63e 8c06 973e 4940 483e
00000260: 0b33 a7bd e36a 293e e915 8fbd bd38 6dbe
00000270: b148 4bbd e330 52be c1a9 abbe 59a8 63bc
00000280: a56f 3cbe 571e 2a3e a6c7 833d 836a 3abe
00000290: 4236 6dbe 76df 403d cca8 a4be ee7d a7bd
000002a0: c862 903e 1a39 b13d 526a 9ebe 63c2 b0be
000002b0: 3554 5d3e 1543 b9be 500c 783d d43c 6d3e
000002c0: 16be 053f d385 d1be 5aa2 e3bd 6fe0 143e
000002d0: 69f2 1c3e e5b4 ef3e cf50 df3c e714 f5be
000002e0: f90c abbc 2794 c13d 0f06 75be 41ef 913d
000002f0: d081 923c 4de8 57be c4a1 77bd b65d c8be
00000300: 08aa a13d 8a37 a5be 7803 65bd ab4e cbbd
00000310: 7b11 e2bd bb0c 5a3c e255 8abe 1c76 003d
00000320: f362 f73c 0edc e9bc e975 88bc 19ba a63d
00000330: 12e0 dc3d 6883 ab3d 3a87 a0be 175a 743d
00000340: e02b aabd 0e20 0d3d 250b 8cbe 27bb 6b3e
00000350: 59f5 debd 5d73 08be 71ff 41bd 6ae7 4a3d
00000360: 1e93 543c 2122 aebe 75c0 7abe 3ec7 803e
00000370: 01c1 0d3e d90a eabe 19f9 0a3e 12fb ad3c
00000380: fff7 fd3e b1cb 5cbd c837 983e 780c aabe
00000390: d265 df3d e8bb f23d b66b d33d 914f 9abe
000003a0: d961 0f3e 2136 293e 820e 1ebe 0a7f 7dbe
000003b0: ecfb 7d3e 63d2 9ebd 7773 9cbe 1f0a 9e3b
000003c0: 8fbc 5ebe 1082 413e 5d52 edbd cdb0 8f3d
000003d0: abe8 9c3c ae25 b73e ccfe c53e 4963 60be
000003e0: bc2c 2d3f cd5b c73d fab8 933d 6156 763e
000003f0: dcef c3be e2b1 873e 6f18 ca3d 85a6 09be
0.122391015 -0.043629035 0.4317457 -0.05447879 0.3113338 -0.06647574 0.12393135 0.47026053
-0.2513937 -0.18529914 0.15947421 -0.29411227 -0.06327867 -0.20451799 0.3249822 -0.037057675
0.45355013 -0.34156182 -0.26829877 -0.20746982 -0.15699866 0.45228764 -0.17134185 0.3549651
-0.41709045 0.0441793 -0.2002501 0.30024526 0.543281 0.16215856 0.49578 0.24943084
-0.23046343 0.43340653 -0.53272 0.042572428 0.10188122 0.74398935 0.005645734 0.36508134
0.10636621 0.08873848 0.51632196 0.10849152 -0.0834114 -0.19419606 -0.03311142 -0.1180789
-0.3632643 0.21653882 0.03320674 0.07906291 0.3483309 0.038365237 0.19762526 -0.26936498
0.19630224 0.4852897 -0.5346855 0.29928958 -0.25701156 0.08087808 0.28473473 0.2300067
-0.25178733 -0.05160606 0.09539697 -0.25129914 0.384683 0.14457387 0.29527855 -0.022941478
0.36463407 0.24743788 -0.21680775 -0.36060053 0.2134074 0.033508427 -0.24674578 0.37920594
-0.04856721 0.13257541 -0.01434097 -0.6611301 0.06045371 0.098230325 -0.21876457 0.57300085
0.3759567 -0.33016095 -0.2210959 -0.30830258 0.093751416 -0.34514198 -0.13716619 -0.052464414
0.16148348 0.39081556 0.11253157 -0.13078465 0.30188018 0.08637665 -0.033319827 0.049711287
-0.18930952 0.13283776 0.034998257 -0.14615335 -0.39605832 -0.1424735 -0.2613854 0.061483327
0.44667313 0.006553931 0.27792862 -0.15963453 0.017675333 0.078486696 0.06092969 0.07199199
0.11045623 -0.1874169 -0.03551938 -0.1340294 -0.35506067 0.07019012 -0.20415425 0.013592697
0.29696572 0.30977476 0.41739067 0.2152892 0.032756515 -0.005713605 -0.4135226 -0.14211503
-0.4251163 0.5178213 -0.2448369 0.031351797 -0.11543875 -0.25738662 0.2224052 0.027021483
-0.18089226 -0.30004632 -0.2722329 -0.11215849 -0.3646768 0.35643098 0.29497182 0.19555773
-0.081640325 0.1654468 -0.06986601 -0.23166175 -0.04962987 -0.20526461 -0.3352795 -0.013895118
-0.18401964 0.16613136 0.06434564 -0.18204693 -0.23165229 0.04708811 -0.32160032 -0.08178316
0.28200364 0.086534694 -0.3094049 -0.34523305 0.21614154 -0.36183992 0.060558617 0.23167735
0.52243173 -0.40922412 -0.111149505 0.1453874 0.15326847 0.468177 0.027260212 -0.4786751
-0.02088021 0.09452086 -0.23928092 0.07125712 0.017884165 -0.2108471 -0.060457006 -0.39133996
0.07893759 -0.32268935 -0.05591151 -0.09927114 -0.110384904 0.013308699 -0.27018648 0.031362638
0.03019855 -0.028547313 -0.016657786 0.08140964 0.107849255 0.08374673 -0.3135317 0.05965623
-0.0830915 0.034454398 -0.27352253 0.23020612 -0.1088664 -0.13325258 -0.04736275 0.0495371
0.012974529 -0.34010413 -0.24487479 0.2515201 0.13843156 -0.457114 0.13571586 0.021237884
0.49603269 -0.053905193 0.29730058 -0.33212638 0.109080926 0.118522465 0.103232786 -0.3013883
0.1400217 0.16524555 -0.15435222 -0.24755493 0.24803132 -0.07754972 -0.30556843 0.004822984
-0.21751617 0.18897271 -0.11587975 0.07016144 0.019153913 0.35770935 0.38670957 -0.21912874
0.67646384 0.097343065 0.07213016 0.24056388 -0.38268936 0.265029 0.098679416 -0.13442428

lstm.bias_ih_l0 f4 [40]
00000000: 3db2 a6bd 2c70 0f3e 0a9a 2a3d b9e4 f83e
00000010: 0c15 3f3f 523d 57bd 8d83 923d 17f7 503e
00000020: 3783 493f 0e28 27be 910e 2b3e c369 303e
00000030: 1f95 d43e 62f0 ee3c e847 ac3d 6b9f db3d
00000040: 27fe cd3d bfa1 a7be d2b9 5a3d 0869 96bc
00000050: 6d3d f2bc a47e c33e bf65 d4be f3fe ab3e
00000060: 23ad 8fbe 63c2 a0be 8244 f83c bf5f 853e
00000070: 4ef4 243e 215f 7fbd a7cf 383e ff18 623e
00000080: 8bf2 423e f57f 8d3e 86e6 903e 9b30 de3d
00000090: 9444 633e 6bfb bb3e 27a7 113f bba6 46be
-0.08139465 0.14007634 0.04165081 0.48612002 0.7464149 -0.052548714 0.071539976 0.20406757
0.7871584 -0.16323873 0.16704775 0.17227845 0.4152002 0.029167358 0.084121525 0.10723766
0.10058241 -0.3274059 0.05339987 -0.01836063 -0.029570306 0.38182557 -0.41483876 0.33592948
-0.2806178 -0.31398305 0.030306105 0.2604961 0.1610882 -0.06234658 0.18047963 0.22079848
0.19037835 0.27636686 0.28300875 0.108491145 0.22194129 0.36715254 0.5689568 -0.1939954

lstm.bias_hh_l0 f4 [40]
00000000: ab26 473e 00e9 ccbc 1eec 523e 1d67 693d
00000010: 4439 073f 9041 8bbd 9bba 9b3e 5688 2e3f
00000020: 3526 303f f2e9 ddbd 92bf 7cbe 95a3 f5bd
00000030: 4da2 803e 14fc c23e 1225 443e 19cd 943e
00000040: d85f e7bd baa6 c43a fb16 e73e 3fc7 1fbe
00000050: 2ff2 e2bb c765 9d3e 9144 9ebc 1705 32be
00000060: b57e c0be 7c5e a13d c6aa 25be 7115 8dbe
00000070: 67bf fa3d f389 703d 40ec 733e 97e6 84bc
00000080: 3f13 043f 891d 923e 11c4 003f 74f7 5b3b
00000090: a99e 293e d67a 2d3f f300 bf3e 95b3 58be
0.19448344 -0.025013447 0.20597884 0.056983102 0.52821755 -0.067996144 0.30415806 0.6817678
0.688083 -0.10835637 -0.24682453 -0.119940914 0.25123826 0.38082945 0.19154766 0.29062727
-0.112975776 0.0015003302 0.4513472 -0.1560335 -0.006925843 0.30741712 -0.019319804 -0.17384754
-0.3759667 0.078793496 -0.16178426 -0.2755542 0.12243538 0.05872531 0.23820591 -0.016223235
0.5159187 0.2853816 0.50299174 0.0033564242 0.1656443 0.6776556 0.37305412 -0.21162255

lstm.weight_ih_l1 f4 [40, 10]
00000000: f550 b73e 0c22 533e b3f7 99bc 7d14 f53e
00000010: 916f d5be 87a7 90be f028 7f3e 97e6 ca3e
00000020: 7f4b 29bf f748 873e c3ec 583d 4f2d e73d
00000030: c1db 303d dd85 833d 15b2 a2be 83b8 f33c
00000040: 1437 b33d 6400 0b3f c3bd 5cbf 1694 cd3e
00000050: 2d64 d23d a5b4 803e abdc 803e c604 a13e
00000060: 553b bfbd 81fa e7be 2794 b3be b6aa 163e
00000070: 6271 c4be 7ec9 51bd 993e c93e df52 fcbc
00000080: 36ba 3bbe 06d1 de3e 6241 efbe e0ef 14bf
00000090: 6451 113d b74e b73e 1c40 6abe 56f8 813e
000000a0: 057a 693e 8f06 d3bd 4d4f f83d 81d4 373e
000000b0: e219 313d 9358 84be 6ea5 113f bfcd a33e
000000c0: 34b0 35bf a1a8 d53e c0b4 0d3f 2616 43be
000000d0: 305b df3e 5cbd c53e 7b77 90be 7e43 513d
000000e0: 6bdd 633e f1f5 d63e 2751 57bf 6dbc aa3e
000000f0: b614 073f d2de 693e 062b 31be bba2 273f
00000100: 7cc5 c2bd 2b45 cabe c8e1 963e 9ad1 fd3e
00000110: b25a 96be ace2 02bc 1f33 d23d 29f2 173e
00000120: 1f0d 04be b8cb 34be 3d82 a0bb 6b99 103e
00000130: 2185 b13d 72c8 7a3e 9673 eebd 4c03 48be
00000140: bf1b b53e f131 dfbd 8ac6 f73e f905 273f
00000150: e9f9 13be af59 aebe 686a 313e b94e 1c3f
00000160: d259 44bf 2ddb 003f 4a1e c13d 0660 c43e
00000170: 3ae4 a9be 9dc3 babc 1735 08bf 820a 9b3d
00000180: 4d60 43bd 85c4 f1bb c51a fc3e 8939 81be
00000190: 37d6 0a3e ccc6 4d3e 2564 77be daa8 c93e
000001a0: ca9f 43be e10d 133e cc22 8f3e 89b8 87be
000001b0: 0056 a23c 443e 05be 93ec 33be ecb4 24bc
000001c0: f09d 0c3f 4730 3a3e 665d 6e3d 5a18 e8bc
000001d0: 564c 80be f2c0 62be ab14 23bf 5751 14bd
000001e0: 9cc3 8e3e c9b5 96be fc52 9e3e f482 4a3d
000001f0: 9e3a 663e 983d db3b 09d3 a53d fc47 163e
00000200: b291 68bd 7ef4 0dbe 7d18 22bd 6f34 203e
00000210: c13d b03d 3d05 d13e 60d6 6abd 6045 efbe
00000220: 121f 82bd 9b4c 513d 6926 e3be 5ea7 52be
00000230: 7aa7 3a3e 8605 6ebe cd27 53be 39f4 ca3e
00000240: 31d9 1dbe 08cf b73d 221d e83c 6117 c1be
00000250: 1270 9cbe ed56 733e 1b0e d03d cd07 36bc
00000260: 7f4f 45be 61fa ab3d a30e 9cbe 27bb 88be
00000270: db11 bc3d 7cba 863e 4803 0dbb aef1 92bd
00000280: 3cc6 5e3e e080 e9bd 1749 ac3e cd19 b73d
00000290: e813 7fbe 228e 94be 79a6 ebbd ad29 99bd
000002a0: 1926 a63c b84e 2e3d 85ca 473e 27d5 01be
000002b0: 6414 c43d a88c 24be 8f76 923e 6d72 eebc
000002c0: 9209 1fbe 4252 37be 470e 52be 080c 443c
000002d0: e08c 8c3e 2f8d 85be 1002 3c3f 6edb 843e
000002e0: c579 22be d9f2 c2bc b780 23be afc4 d73e
000002f0: 85f1 0bbf ebf3 fc3d 5f02 5b3e 1673 89bd
00000300: fcea 23bb e19f 92be 15bc 87be b6b6 44bd
00000310: ce8d 86be 7154 b83e 8c35 f6bd 3f8e 33bd
00000320: 375e bebe f590 743e c0b1 b8bd 1990 ccbe
00000330: d68c 6e3e 2df0 2f3e 3199 88be 872b 9fbe
00000340: 9f75 853e c992 9cbe 277b dcbe ca73 46be
00000350: cf0f f5bd 0c9e f3bd 65f9 93be f57c a73c
00000360: 7e6b 3dbd 421c 6abe dd97 303f be89 2a3e
00000370: b2e8 b2bc 18b6 00bf 3c78 d83e 6e45 5bbe
00000380: 518c e03e 75f5 b93e 731c 803e 5d3e 2cbf
00000390: f5ad a9be 494d 60be 79f9 c4be de4b 5ebe
000003a0: 0645 01be 5c83 11bf 0a8c 1dbe b5f6 403d
000003b0: cb94 88be 3f4f 69be 94cb cd3e 7854 07bd
000003c0: b682 8e3c 9726 153e 238f 8cba aa47 d1be
000003d0: 502d 603e c711 1abd 8d23 d2be efa1 fdbe
000003e0: 8d92 f13d e9ae c6bd 481c 693c 065f 17be
000003f0: 84ad f23d 6af1 86be 5b8c a33e 99a0 d13e
0.35803953 0.20618457 -0.01879487 0.47867194 -0.4168668 -0.28252813 0.2491796 0.3962905
-0.6613082 0.26422855 0.05296017 0.11287939 0.043178324 0.06422017 -0.3177649 0.029751068
0.0875074 0.5429747 -0.86227053 0.40152043 0.10273013 0.2513782 0.25168356 0.31448954
-0.093374886 -0.45308307 -0.3507397 0.14713559 -0.38367754 -0.05121755 0.3930557 -0.030801235
-0.18332753 0.43518847 -0.4672957 -0.5817852 0.03547801 0.35802242 -0.22876018 0.25384778
0.22800453 -0.10303985 0.121245004 0.17952158 0.043237574 -0.25848827 0.5689305 0.3199291
-0.7097199 0.41730216 0.5535393 -0.19051418 0.43624258 0.38621032 -0.28216156 0.051089756
0.22252433 0.41984513 -0.84108204 0.33346882 0.5276598 0.22838905 -0.17301568 0.6548268
-0.095103234 -0.39505896 0.29469132 0.49573976 -0.2936607 -0.007988613 0.10263657 0.1483847
-0.1289563 -0.17655838 -0.004898338 0.14121024 0.086679704 0.24490526 -0.1164314 -0.19532508
0.3537273 -0.108981974 0.4839366 0.6524349 -0.14450802 -0.34052798 0.17325747 0.6105762
-0.76699555 0.50334436 0.09429605 0.3835451 -0.33181936 -0.022798354 -0.5320601 0.075703636
-0.04769926 -0.0073781633 0.49239174 -0.25239208 0.13558279 0.20095366 -0.24159296 0.39386636
-0.19103923 0.14360763 0.27956235 -0.26507977 0.019816399 -0.13012034 -0.17570715 -0.010052901
0.54928493 0.18182479 0.05819454 -0.028331924 -0.2505824 -0.22143915 -0.6370341 -0.036210384
0.27883613 -0.29435566 0.30922687 0.049441293 0.22483298 0.006690692 0.080968924 0.14675897
-0.05677957 -0.13862798 -0.039574135 0.15645002 0.086055286 0.4082431 -0.05733335 -0.46732616
-0.063535824 0.051098447 -0.44365242 -0.20571658 0.1822795 -0.23244295 -0.20620652 0.39639452
-0.15414883 0.08975035 0.028334204 -0.3771315 -0.30554253 0.23763628 0.101589404 -0.011110258
-0.19268607 0.08397365 -0.30479917 -0.26705286 0.09183093 0.2631415 -0.0021516848 -0.07175003
0.21755308 -0.11401534 0.33649513 0.08940468 -0.24909937 -0.2901469 -0.115063615 -0.07478652
0.020281838 0.04255554 0.19510849 -0.12678967 0.09574202 -0.16069281 0.28606078 -0.029107297
-0.15530995 -0.17902473 -0.20513259 0.011965759 0.2745123 -0.26084277 0.7344065 0.25948662
-0.15866764 -0.02379744 -0.1596707 0.42142245 -0.54665405 0.12351211 0.21387623 -0.06711404
-0.0025011888 -0.28637603 -0.26510683 -0.04802581 -0.26280063 0.36001924 -0.12021932 -0.04383683
-0.37181255 0.23883422 -0.09018278 -0.39953688 0.23295912 0.17181464 -0.26679376 -0.31087896
0.260663 -0.30580738 -0.43062708 -0.19380108 -0.11965906 -0.118953794 -0.2890121 0.020445326
-0.04624509 -0.22862342 0.68981725 0.16654107 -0.021839473 -0.50277853 0.42279232 -0.21413204
0.43857053 0.3632008 0.25021705 -0.6728266 -0.3314053 -0.21904482 -0.38471583 -0.21708629
-0.12623987 -0.56841063 -0.15385452 0.04711028 -0.2667602 -0.22784136 0.4019438 -0.03303954
0.017396312 0.14565502 -0.001072381 -0.40874988 0.21892285 -0.03761461 -0.41042748 -0.49537608
0.117955305 -0.0970133 0.014227934 -0.14782342 0.11849502 -0.2635606 0.3194302 0.4094284

lstm.weight_hh_l1 f4 [40, 10]
00000000: a3b3 f73d b119 c83d 8cce 8e3e 3ad9 2fbe
00000010: 7013 7bbe 85ba 29bc ce61 4ebe 7ca5 133c
00000020: 61b1 923e 8d6b bcbe 9fae 3c3e 067a a7be
00000030: 420b c0bd b1c4 7fbe 544b 0b3e aa4d a4bd
00000040: 3108 0b3e c54a 823d 639f aa3c cc27 dc3e
00000050: 48fb 9b3e aff8 1ebe c199 59be f5cc 833d
00000060: 6ba8 7e3d d297 893d 3f99 dc3d 6717 3c3e
00000070: a33b dfbd 3247 b4bd b74b 44bd 3dae 3dbe
00000080: eed5 2dbe b196 94bb 988e 8dbd 076a 7abe
00000090: 9269 8f3e b9c9 9a3e 1b83 ffbd 84d3 e13d
000000a0: ad15 633e 8cf5 a93e 3424 113e 0c17 67be
000000b0: e601 e1bc 07f6 fbbc 59c1 46be fcf1 79bd
000000c0: fd54 3dbe c045 503d 280e 68bd aee2 c2bd
000000d0: 20f9 e73d cc34 7dbe e13d f23d cc5d 90bc
000000e0: 2ea0 1c3e 13f3 703e aa04 463e 6705 f2bd
000000f0: c9b8 2d3e 0ec6 ffba 7ca6 83be bcde a2be
00000100: 5865 adbe a96b 313d 20c2 91bd 30ac 4f3e
00000110: f9ea 00be 7372 98be ad98 35bd 29e4 e1bc
00000120: 344f 2bbe 5aed 8c3e 5a85 383e d324 933c
00000130: 6795 5dbe f146 173d 8809 263d 3aa5 c3bd
00000140: 2a57 8b3d 7317 c0be 833f 32bd 42ad d73c
00000150: e116 66be dcac eabd 4850 1cbe 58b6 853e
00000160: 2ffc 29bd 39c3 0d3f 7c45 cd3c 0e2f 1bbe
00000170: 6b88 90be 1eee ab3c df81 e7be b85c f3be
00000180: 924e 8c3e 4ae1 693e 5c8f 623e 25e4 07bd
00000190: 700e d63d ac89 e83d 47fa 0abe f28d 453e
000001a0: 31d4 a33d b209 60be 752c 9c3c 8788 17be
000001b0: d94a fe3c 0414 80be 3526 8f3c 6dd9 24be
000001c0: 5f25 89bd 7c83 953d f09c c73c 493e d03c
000001d0: 43c4 40be c35e 1b3d 1283 483e 1e9b a93c
000001e0: e986 08bd d055 11bd 2bc0 023e f26d c9bc
000001f0: 8a72 64bd ffa8 ab3e b8f2 3f3c 8354 9c3d
00000200: b520 8fbe 38d8 983e 8ce3 d9be 10c6 a93d
00000210: 2e0f fc3d 42f5 06be 6780 f6bd 1d4e e2bd
00000220: 1a54 20be f70e df3d 6b3b 5b3d 7f3b 63bd
00000230: 3c0c 4b3e bb14 ea3d cf5d 563d 3f8e 99be
00000240: 78fe 673e 82c3 f83d a72a aa3d 1333 023e
00000250: d59c ebbe b655 be3d 68c2 91be 428c 8e3e
00000260: 1e73 f43d 1ff3 bebe 071c a53d 6dbe 813e
00000270: afa8 1dbe 08c1 703e ecff c7bc 0417 c73d
00000280: 813a 3dbe 5f3f 3cbe d3b9 7a3d 4b62 583e
00000290: 5a6c b4be 1820 ed3d e9c1 673e 46cc 39bc
000002a0: 3886 60be dc02 873d 8380 66be 3596 633e
000002b0: 8dd1 7d3e 5f61 5a3e 282e a63c 2cdf ea3d
000002c0: 1f4f 903c d8f1 993e 6bba da3d 2730 a13e
000002d0: 7cc8 b73e 0cb5 62bc 36d5 8d3c 90b0 c73e
000002e0: 4b08 823e 8ae4 5c3e a0c5 a03d 24f5 013d
000002f0: 7215 33be 4c30 803d 3a84 87be 8937 09bf
00000300: 3ca2 833e 7fa2 7bbe 4e39 e4bd c48d 08be
00000310: e92f 273d 33fa e5bd c1b8 713d 4dd1 27be
00000320: dce4 66bd 5007 113e eecb 933d 8915 9f3e
00000330: b7de a33d 5108 143e 8620 7f3d ce5a 10bd
00000340: 30b8 f33c 186a b13e 459b 243e 0bdf 2a3e
00000350: 3267 04be d24f 84be 2f2d b3bc 6db2 bebd
00000360: aeba da3d ab1c 4c3e a161 583e 0412 96be
00000370: f34d 0ebe 81d0 e63e 3bee b2bd 7b81 2dbe
00000380: 5209 08bd 5f9b d63e 4b2c 533d 3fb4 23be
00000390: 6adf 94bd caff 4b3e ea68 963e 89c2 b33c
000003a0: cbe6 ab3e 888b e23d ee71 b9bc 32b2 9c3e
000003b0: e8b3 c4be 6dcb 0f3e e700 7bbe f0ef 8c3e
000003c0: 26f7 75ba 149a 833e 8fb4 063d 0cde 463e
000003d0: 035a b33e b41a d53d 9c65 31be f87a acbd
000003e0: a1cc 9fbe f3f0 523e 088a 31be 9337 303e
000003f0: 3865 c7bd 24a3 293d e291 bb3e 9918 6b3e
0.1209481 0.09770525 0.27891958 -0.17172709 -0.24519134 -0.010359411 -0.20154497 0.0090116225
0.28650954 -0.36800805 0.18425988 -0.32710284 -0.09377147 -0.24977376 0.13602954 -0.08022626
0.13577344 0.063619174 0.020827955 0.42999113 0.3046515 -0.15524553 -0.21250059 0.06435577
0.062172335 0.067184106 0.10771417 0.18368302 -0.10900047 -0.08802642 -0.04792377 -0.18523498
-0.16976139 -0.0045345654 -0.06911963 -0.24454509 0.2801023 0.30232027 -0.12476178 0.110266715
0.22176237 0.3319515 0.14173967 -0.22567385 -0.027466726 -0.030756963 -0.19409694 -0.06102179
-0.18489452 0.05084777 -0.056654125 -0.09515892 0.11326814 -0.24727172 0.11828209 -0.01762285
0.15295479 0.23530225 0.19337717 -0.11817437 0.16965021 -0.0019513981 -0.25712955 -0.31810558
-0.33866382 0.043315563 -0.071171045 0.20280528 -0.12589635 -0.29774818 -0.044335056 -0.027574616
-0.16729432 0.27524835 0.1801962 0.017961895 -0.21639024 0.03693289 0.040536433 -0.09552999
0.068037346 -0.3751789 -0.0435176 0.026327733 -0.22469665 -0.114587516 -0.15265 0.2611568
-0.041500267 0.5537601 0.025057547 -0.15154669 -0.2822908 0.020987567 -0.4521627 -0.47531676
0.27403694 0.22839847 0.22125 -0.03317656 0.104519725 0.11354384 -0.13572036 0.19292429
0.07999457 -0.21878698 0.019064168 -0.14798175 0.03104155 -0.2501527 0.017474273 -0.16098566
-0.06696581 0.07300469 0.024366826 0.025420325 -0.18824868 0.03793217 0.1958125 0.020703848
-0.033331785 -0.035482228 0.12768619 -0.024588559 -0.055773295 0.3352737 0.0117155835 0.07633307
-0.2795464 0.29852462 -0.42556417 0.082897305 0.12307583 -0.13179496 -0.120362096 -0.11050055
-0.15657082 0.10891526 0.053523462 -0.05547666 0.19828886 0.11429735 0.052335557 -0.29991338
0.22655666 0.12146665 0.083089165 0.12714796 -0.4601809 0.09293692 -0.28468633 0.27841383
0.11936019 -0.37294862 0.080619864 0.25340596 -0.15396379 0.23511136 -0.024414025 0.09721187
-0.18479349 -0.18383549 0.061212372 0.21131246 -0.35238916 0.11578387 0.22632565 -0.0113402065
-0.219262 0.06592342 -0.22509961 0.22225268 0.24786969 0.21326207 0.02028568 0.11468348
0.017615853 0.30067325 0.10680088 0.3148205 0.35895145 -0.01383711 0.017313581 0.39001894
0.25396952 0.21571556 0.07850194 0.031727925 -0.1748865 0.06259212 -0.26468068 -0.53600365
0.25709713 -0.24573706 -0.111437425 -0.1333533 0.040817175 -0.11229362 0.059014086 -0.16388436
-0.0563706 0.14162946 0.07216631 0.31071118 0.08001464 0.14456297 0.062286876 -0.035242848
0.029750913 0.34651256 0.16074856 0.16686647 -0.12929991 -0.25842148 -0.021872131 -0.09311376
0.106801376 0.19932811 0.21130992 -0.2931062 -0.13896923 0.4508095 -0.08736845 -0.16943924
-0.033212014 0.41915414 0.051555913 -0.15986727 -0.07269175 0.19921795 0.29376918 0.021943348
0.3357452 0.1106177 -0.022637334 0.30604702 -0.38418508 0.14042445 -0.24512063 0.27526808
-0.0009382836 0.2570349 0.032887038 0.19420642 0.3502961 0.10405484 -0.17323917 -0.08421892
-0.31210807 0.20599727 -0.17337811 0.172087 -0.09736103 0.04141535 0.36634737 0.22958602

lstm.bias_ih_l1 f4 [40]
00000000: 3c99 613e 7e7e 183e 113e 473e ded8 993d
00000010: 238c 583e e92b 8b3e 7304 8f3e c13a c63e
00000020: 71ad d13e 9372 4b3e 5359 bc3e b4ed aabe
00000030: 6112 cbbd b698 a13e bc62 0bbe e783 e3bc
00000040: 3f63 4c3e af53 883e 8a26 a2be fe6f b63b
00000050: c1d9 66be e978 943d 2304 55bd 616e fc3d
00000060: 52d5 0dbe 290e 7dbd 3b7d 6d3e 7d2c 3e3e
00000070: ce0c 2fbe 7505 75bd e4cf 75bc ad46 a33e
00000080: dfea b13b c2a0 d53e e64e 373e d4b2 05bc
00000090: 41ac 303e 2a30 64be 9c71 c33e dee0 a63e
0.2203111 0.14892003 0.1945727 0.07512067 0.21147208 0.27181938 0.27933082 0.387167
0.40952638 0.19867925 0.367869 -0.33384478 -0.09915615 0.31561822 -0.13611883 -0.027772857
0.19959734 0.26626346 -0.31670028 0.0055675497 -0.22544004 0.07249624 -0.0520059 0.123257406
-0.13850906 -0.061781082 0.23192303 0.18571658 -0.17094728 -0.059819657 -0.015003178 0.3188986
0.00542961 0.4172421 0.17901191 -0.008160312 0.1725321 -0.22283998 0.38172615 0.32593435

lstm.bias_hh_l1 f4 [40]
00000000: 04dc 17be efed aa3e 788c 013d 2d9b c43d
00000010: 3420 863c 5773 503d 54e8 b63e e50b ad3e
00000020: bf72 003f ec79 df3e f1d1 aabd 33e0 8fbe
00000030: 86f1 a2be 965a 733d 97e5 2bbe bacf 753e
00000040: 5dd8 b83d 1b82 8bbe f4fe b0be 9b33 51be
00000050: 61f8 6fbe d767 aabe aefa edbd a831 a1be
00000060: d39e 98be 0d1a b5be f434 cd3e 0a42 7dbe
00000070: 744d 5a3e ab62 ecbd 4b9b febd 287b 003e
00000080: 8ecc e53d f44c aa3e 9aa9 4c3e 0aa0 d0bc
00000090: 0b8f 843d 9e1a 4bbc 1e73 c53e f615 a43e
-0.14830023 0.33384654 0.031628102 0.0959991 0.016372778 0.050891247 0.35724127 0.33798137
0.5017509 0.43647707 -0.083408244 -0.28100738 -0.31824893 0.05941256 -0.167868 0.24005023
0.09025643 -0.272477 -0.34569514 -0.20429842 -0.23434593 -0.3328235 -0.11620079 -0.31483197
-0.29808673 -0.35371438 0.40079463 -0.24732223 0.21318609 -0.11542257 -0.124319635 0.1254698
0.11220656 0.33261836 0.19986573 -0.025466938 0.06472596 -0.012396483 0.3856439 0.32048005

lstm.weight_ih_l2 f4 [40, 10]
00000000: ff2b 25be 053d 74bd e46e 8d3e e47a d73d
00000010: 3bd6 493e 52c9 b2be ded6 b63e b179 17be
00000020: f082 773d a854 433e dd88 88be 71d7 1b3e
00000030: 71e6 8e3e 1043 443e 5068 703d bcf1 6b3e
00000040: c4f2 333e 1b0b b93c fa97 963d 26cf 8a3e
00000050: 5cec 333e 669f 803e 9772 6f3e 3877 cebd
00000060: 558a 57be d99f 7c3e 9091 353e 5904 c6bc
00000070: 21bc 3cbc 280b be3d ce95 a1be b561 8bbd
00000080: c4ac a7be eab6 01bf d30a 81bb 1251 84bd
00000090: 6dd4 4abb 0e18 073e 5b6f f53e ab4e 6c3e
000000a0: 308d 5ebe 7858 e5bd 25bd b6bd 8e9f b2bc
000000b0: f9cd 46be 7616 76be 54be 8b3e 4eb5 c83e
000000c0: 7d5e f33e fae1 5a3e 9b53 883d d717 bbbe
000000d0: 217c 0b3e 80ee 1c3e 4cf6 303e 7bb7 8b3d
000000e0: bc4b 193e 6f7c 553e 91a5 df3e 6140 9e3e
000000f0: 32fb 5dbe 1268 94be b416 a83d a5b0 2abc
00000100: 550a 60be b34b ff3d 7cab 2c3d 9f61 873e
00000110: b435 ab3e 54da 593e e53e c43d 2f12 06bf
00000120: dd07 4dbe 3d07 06be 0f86 833d 69b3 75be
00000130: d029 a43e 7358 473e aa98 ac3e 14b5 923e
00000140: 41b2 68be e027 cabe 7f77 00be c52c 333e
00000150: 0ce5 9dbd c746 98bd 6ffd d13c 3d2f 5cbe
00000160: 58d2 103e dc9b ae3c 1d57 70bd b8de c8be
00000170: 267f 3cbe 5f87 1dbd a9da 0bbe bd34 f3be
00000180: 105c 56bc 04d9 ef3e 397c 053f 0e39 f23e
00000190: 53df 27be 30ce 0e3e dd12 af3e bf11 15be
000001a0: f722 8dbe 126c 8d3e 626b 30be fc0d 3f3e
000001b0: 721b 783e 7fd4 89be 801d efbd 5338 2fbe
000001c0: e47e 10be 0929 f43d 68c7 823c 4498 2ebe
000001d0: 482f e83d 4533 e53d 2399 453d 31c1 923e
000001e0: 61e7 1fbe c363 ba3e 2b7f 113e d6d7 2bbe
000001f0: 3997 ba3e d757 263d 1b89 37be 007f 38bd
00000200: 4335 b83c b14b 9f3e 5e16 b43d 1fea 3fbe
00000210: 9871 b53e 7e63 193e cb7b 553e 27de 893e
00000220: 7bb9 1ebe cd47 be3e 9e4e 013e c8c9 583e
00000230: 8401 85be 8bff f8bd e8c0 d63d d4d4 183e
00000240: fa1e 383e 4909 6cbd e4c4 803d 67e1 03be
00000250: 0d42 2dbe e3c5 ec3d 953c 5ebe 8d2a 8d3e
00000260: 7d8f ad3e a3bb cabb af64 8b3e a2bc a13e
00000270: 083a 9f3e 7e0d 333e 4eb8 1a3e eb52 5c3e
00000280: 7590 783e 8bba f63b 5527 863e d08a 29be
00000290: 56b1 823e 9566 653e bd09 483e de43 1b3e
000002a0: 2396 293e 78b5 573e 862d 7b3e 4617 76be
000002b0: 2526 02be 21b4 acbd 3a3d 8cbd 991f 323e
000002c0: 60be b8bc b916 cebb 177f bf3e 5c8e b03e
000002d0: b6f0 c6bd a129 223e ea5d 603e e0a6 9fbd
000002e0: f9a7 bf3e 9ebd bd3c 25ba 9abe 1199 8e3e
000002f0: bf14 bc3d 85df 453e e253 0dbe f930 4dbe
00000300: 156e ac3e b35f 1a3e 7cd7 223e e7ba 583e
00000310: 7ca1 49be 7bf8 683d 39fe 1cbe cd30 3c3f
00000320: 18ee d0bd 9e96 343e 19c1 efbd 339d 7b3e
00000330: 3cbe a43e d450 613d c8de 10be 6f2d cd3d
00000340: 686e dcbe 02c6 5b3d f14b 893e 73f4 db3d
00000350: acc4 9dbe fa78 45bd badc 40be 73c1 6abe
00000360: 84dc 633e 31fc 7abe 8c60 96be 75b5 c2bd
00000370: 8466 923e 2f9c 10bd 4fc7 8dbe 6d13 2ebe
00000380: 5e5f 293e 79e8 143d 4f56 bbbd 0c9e 703e
00000390: 0d5d 04be 81d5 703e 5707 9cbd 79e7 c8be
000003a0: 8c42 9836 2797 783c fc08 a4be e2e7 c5bd
000003b0: a286 c03d fa5b b03d 1e33 153f e237 af3c
000003c0: 8cc0 bf3e 3b6e d03e 7f21 563d cb87 fe3d
000003d0: 8b13 b03c 8506 933e 94f0 2dbe 56fb a8bd
000003e0: 703d e5bc ec82 3bbe 5762 833e caf7 823e
000003f0: acf1 a3bd 1e9f da3e 47fb f43d d431 3e3e
-0.16130064 -0.059628505 0.27623665 0.105214864 0.19710629 -0.3491922 0.35710806 -0.14792515
0.060427606 0.19075263 -0.26666918 0.15218903 0.27910188 0.19166207 0.05869323 0.23041433
0.17573076 0.022588303 0.07353206 0.27111167 0.17570633 0.2512161 0.23383556 -0.10081333
-0.21048863 0.24670352 0.17731309 -0.024171995 -0.011519463 0.09279472 -0.31559604 -0.068057455
-0.32748997 -0.5066973 -0.003938058 -0.064607754 -0.003094937 0.1319277 0.4793652 0.23076884
-0.21733546 -0.11198515 -0.08922795 -0.021804597 -0.1941451 -0.24032006 0.27293646 0.39200824
0.47533026 0.21375266 0.066565715 -0.36541626 0.1362157 0.15325356 0.17281455 0.068221055
0.14970297 0.20848249 0.43681005 0.30908492 -0.21677855 -0.2898565 0.08207455 -0.010418092
-0.21878941 0.1246561 0.042155728 0.26441666 0.3343941 0.21274692 0.09582309 -0.52371496
-0.20022531 -0.13088699 0.06422054 -0.23994221 0.3206315 0.19467334 0.33710223 0.28653777
-0.22724248 -0.39483547 -0.12545584 0.17497547 -0.07709703 -0.07435375 0.025633542 -0.21502395
0.1414274 0.021314554 -0.058676828 -0.3923242 -0.18407878 -0.038459178 -0.13657631 -0.47501174
-0.013083473 0.46845257 0.52142674 0.47309154 -0.16393785 0.13945842 0.3419408 -0.14557551
-0.2756574 0.27621514 -0.17228463 0.18657678 0.2422922 -0.26919934 -0.116755486 -0.1711133
-0.14110905 0.11921889 0.015964225 -0.17050272 0.11337143 0.111914195 0.048241746 0.28663018
-0.15615608 0.36404237 0.14208667 -0.16781554 0.364435 0.040611114 -0.17923395 -0.04504299
0.022486335 0.31112435 0.08793329 -0.18741654 0.35438228 0.1497936 0.20848005 0.269273
-0.15500443 0.37164155 0.12627646 0.21170723 -0.2597772 -0.12158116 0.10486013 0.14924937
0.17980567 -0.057626043 0.06287554 -0.12878953 -0.16919728 0.115611814 -0.21702798 0.27571526
0.33898535 -0.006186919 0.27225253 0.31589228 0.31098962 0.17485616 0.15109369 0.21516006
0.24273856 0.007529562 0.26201883 -0.16556859 0.25525922 0.22402413 0.19534965 0.15162608
0.16561179 0.21065319 0.24529085 -0.24032316 -0.12709863 -0.08432794 -0.068476155 0.17394866
-0.022551715 -0.00628933 0.3740165 0.34483612 -0.09713881 0.15836193 0.21910825 -0.07795501
0.3743284 0.023161706 -0.30220142 0.27851155 0.091836445 0.19323547 -0.1380153 -0.20038213
0.33677736 0.15075569 0.15902513 0.21165048 -0.19690508 0.056877594 -0.15331353 0.73511964
-0.10201663 0.17635581 -0.11706752 0.24571685 0.32176387 0.055008724 -0.14147484 0.100184314
-0.43052983 0.05365563 0.2681575 0.10739984 -0.3081411 -0.048211075 -0.188342 -0.22925358
0.22252089 -0.24510266 -0.29370534 -0.095072664 0.28593838 -0.0353052 -0.27691123 -0.16999598
0.16540286 0.036354516 -0.091473214 0.2349779 -0.12926121 0.23518945 -0.076185875 -0.392391
4.5377e-06 0.015172756 -0.32038105 -0.09663369 0.09400679 0.08611293 0.58281124 0.021388952
0.3745159 0.407091 0.052278038 0.12428244 0.021493694 0.28715912 -0.16986305 -0.082510635
-0.027983397 -0.18311661 0.25660965 0.25579673 -0.080050796 0.42699522 0.1196199 0.18573695

lstm.weight_hh_l2 f4 [40, 10]
00000000: 0050 633e daee 78be 17f7 4b3e 775e 003d
00000010: 701c 9d3e 4759 28be 2992 0ebe e53e 5e3e
00000020: 1d5a 64be 2b70 6bbd 56b0 fbbd 9fad 9b3e
00000030: 6508 c7bc 0a4c 1d3e 52a8 8b3e 2c25 d13d
00000040: 5815 0cbd 785c 1e3e c6d5 933e 8a22 a6be
00000050: 7948 823e 6cbe 07bd ab65 433e f039 eb3c
00000060: 452a a63d 3a9f f03d e0a7 83be 3d4c 463c
00000070: d6b9 3c3e 0f8d 6fbd 1c18 393d dbec 91be
00000080: 6f21 153e 7e26 bebe 3695 023d 0303 b33e
00000090: 6b9e 56be 1248 26bd e2ca b83e 83b3 30be
000000a0: 6044 263d a132 433e c772 e73d edd7 70be
000000b0: c39a 033d 0c49 ffbd 65b9 d53d 6f33 0e3e
000000c0: a81d bd3d bb7e f23d 489a d3bd f93d 0a3e
000000d0: 28e6 003e 95ca f8bc 7a0b 80be b706 93bd
000000e0: 571a 77bd f35a b23d 8af1 483d 137e 143d
000000f0: 6a4c 0f3e af61 053b d70d 2b3e 250c 8ebe
00000100: 8aeb 8bbe e94a c63d 0272 af3d 12c4 323e
00000110: 9376 273e d1e6 ab3c 0842 39bd 8e57 953d
00000120: c881 e73d 720f a33e 6af1 35bd bf94 a0be
00000130: f799 91be 801d 583e f853 0b3e 097d 87bd
00000140: 3963 25bd fa71 583e 38a3 5cbe abb1 66bd
00000150: cf1d 51bd 0581 a03d 84c7 fc3d 0a76 933e
00000160: b64f 8fbe 8706 65bc fd49 063d 1b0f 89be
00000170: 5029 923d 8007 9a3e a715 4dbd 3e81 563e
00000180: 08c7 213d fa0a fe3d a02d 663e bb6e fdbb
00000190: a639 29be 4ea8 6bbe 2552 29be 78a6 8d3e
000001a0: e991 2bbe 1137 ac3c 9aff 2cbe 6f6f 12be
000001b0: 7fa6 8d3e fc3b c9bd ab21 32bd aae9 81bc
000001c0: d2c0 693e 7958 8a3e 47aa 4f3e 37dc 413e
000001d0: 8068 bebd 0238 643e 2551 5e3e 5410 b3be
000001e0: 896d 673e bc3c db3c 1f43 75be fe8c 663e
000001f0: 1e54 96bc b69d 22be 8083 a7be 8136 acbd
00000200: 57a5 31bd 5ce2 043e 7d5d 183e 1736 cebc
00000210: 06be 953d 5d88 f8be b751 eabd 7a6d c4bd
00000220: ae37 72be 9d2c 213e 10ba e33e 0721 0cbe
00000230: 2536 46be 7cc9 20be 353f 123b d744 08be
00000240: 9993 85be 40a0 423d 9b6a 9dbe 5cf7 a43c
00000250: bf2f ac3e 968a 9cbd 79f3 43be 6a8c 13bd
00000260: dbc1 923e ef7a 013e 80a2 773e c1c4 03bd
00000270: 05a3 74bd c1f1 fd3d d06e 64bd 5f20 eb3d
00000280: f9b2 0ebb d250 7fbe 5e6c 433d 6927 99be
00000290: 8f5c 11be 7ec6 17bd 1eec af3c ab5f e53d
000002a0: 0556 963d 4b19 64be 1ab4 9e3e fefb f4bd
000002b0: dbc2 8cbe 6028 8dbe 420f 793e 025b 18be
000002c0: c87d 943d 6f72 f03d b189 19bd ada0 3fbe
000002d0: f9b6 c03e d6ca 13be fd3b 5dbe cd96 b3bc
000002e0: ae7f e43e ffdc 903e d11c afbd e1ba 37bd
000002f0: 8017 813e cdb3 87be 70a9 e33e 559d 5abd
00000300: 78a1 263e 8de4 01be 9f05 80bd c84a 3e3e
00000310: 3376 0f3d 595c e03e 481e 6ebe c223 033e
00000320: e851 08ba 7067 0e3c 4e21 673e 9078 88be
00000330: 836f 62be f34d ab3e 48c5 32be f35f a33d
00000340: dd4e 0bbe 594f 1f3e 0203 223e 913f 8abd
00000350: b331 2cbe cb84 a13e 6ea9 703e 8545 dbbd
00000360: 656c b83d 4cbf ed3d c2b4 d4be a907 903e
00000370: 3b17 983d 3460 44bd 84c9 933d 75ea 173e
00000380: 81dc 393e 2035 aebe ed2f e1bc 5e71 a1be
00000390: a54f f7bd fb77 3cbe bf4a 3abe 2a9e 5d3c
000003a0: e2d0 78be ca92 c2be 4809 6a3e 145f 0abe
000003b0: 4fc7 60be 4985 a73d 7c94 f73c d2e1 7bbd
000003c0: f95f a83e 61a2 ab3d e406 4abb c47f 123e
000003d0: 41f5 c4bc 918f 42be 775d d4bd c29d 7ebe
000003e0: d830 60be 8f57 0cbd d499 933e 4aac 503e
000003f0: 1bfb 493e 4fae 91be 74b9 633e 3bc5 5c3d
0.22198486 -0.24309865 0.19918476 0.03134009 0.3068576 -0.16440307 -0.13922943 0.2170368
-0.223 -0.05748002 -0.12289493 0.304059 -0.024295995 0.15361038 0.27276856 0.10212168
-0.034200042 0.15464962 0.28874034 -0.32448226 0.25445917 -0.033140585 0.19081752 0.02871415
0.08113531 0.1174912 -0.25714016 0.012103138 0.18430266 -0.058484133 0.045189008 -0.2850102
0.14563535 -0.37138742 0.03188058 0.34963235 -0.20958869 -0.040596075 0.36092287 -0.17255978
0.04059255 0.19062282 0.11301189 -0.23519869 0.032130014 -0.124651045 0.10435752 0.13886808
0.09234172 0.11840578 -0.10332161 0.13500203 0.12587798 -0.030370036 -0.25008756 -0.07179015
-0.060327854 0.087087534 0.049058475 0.036253046 0.13993993 0.0020352413 0.16704498 -0.2774364
-0.2732814 0.09682257 0.08566667 0.17457607 0.16353826 0.020984085 -0.045228988 0.0729209
0.11304051 0.3184772 -0.044419684 -0.31363484 -0.28437778 0.21105003 0.1360625 -0.066156454
-0.04037783 0.21137229 -0.21546638 -0.05632178 -0.05105382 0.078371085 0.12342742 0.28800994
-0.27990502 -0.013978607 0.032785404 -0.26769337 0.07136786 0.30083847 -0.050069477 0.2094774
0.03949645 0.12404437 0.22478342 -0.0077341474 -0.16525897 -0.23013422 -0.16535242 0.27666068
-0.16754879 0.021022351 -0.1689438 -0.14300321 0.2766609 -0.09825894 -0.04348914 -0.01585849
0.22827461 0.27020624 0.202798 0.18931662 -0.092972755 0.2228699 0.21710642 -0.34973395
0.22600378 0.026762359 -0.23951386 0.22514722 -0.018350657 -0.15880474 -0.32717514 -0.08408833
-0.04337057 0.12976974 0.14879413 -0.025172276 0.07311635 -0.48541537 -0.11441367 -0.095911935
-0.23654053 0.15739675 0.44477892 -0.13684474 -0.19356592 -0.1570186 0.0022315506 -0.1330751
-0.2608917 0.047516108 -0.30745396 0.020137481 0.33630177 -0.07643621 -0.19135846 -0.03602258
0.28663525 0.12644552 0.24183083 -0.03217006 -0.05972578 0.123996265 -0.05576974 0.11480784
-0.0021774156 -0.24933174 0.04771077 -0.2991288 -0.14195465 -0.03705453 0.021474894 0.11199888
0.07340626 -0.22275274 0.30996782 -0.11962126 -0.27492413 -0.27569866 0.24322227 -0.14878467
0.07250553 0.117405765 -0.03748483 -0.18713637 0.37639597 -0.14432845 -0.21604915 -0.021922493
0.44628662 0.28293607 -0.08550418 -0.044855956 0.25213242 -0.26504365 0.44465208 -0.0533727
0.16272533 -0.12684841 -0.06251072 0.18583214 0.035024833 0.43820456 -0.23253739 0.1280661
-0.0005200193 0.008691654 0.22571298 -0.26654482 -0.22112851 0.33457908 -0.1745807 0.07977285
-0.13604303 0.15557612 0.1582146 -0.067504056 -0.16815834 0.31546625 0.23502132 -0.10706619
0.090050496 0.116087526 -0.41544157 0.28130844 0.07426306 -0.04794331 0.072161704 0.14835532
0.18150522 -0.34024906 -0.027488673 -0.31531805 -0.12075738 -0.18405144 -0.18192576 0.013526479
-0.24298432 -0.38002616 0.22855103 -0.13512832 -0.2195103 0.08179719 0.03022217 -0.061494656
0.3288572 0.08380581 -0.003082686 0.14306551 -0.024042727 -0.19000079 -0.103693895 -0.24864867
-0.21893632 -0.03426319 0.288283 0.20378223 0.19724695 -0.284533 0.22238714 0.05389903

lstm.bias_ih_l2 f4 [40]
00000000: 7a57 bb3e 55d8 35be 700b c2bd 2de3 a73e
00000010: c384 78bd 37f3 28be 13e2 a5bd af45 813d
00000020: 8ce4 9b3e 471d 4d3e a75c 5fbe 93f0 ba3d
00000030: 8181 5abe f7ac 6e3c 411e 463e 06d0 25be
00000040: 0d62 97be 0fe5 43be 57ac 51bd 52de e33b
00000050: 3dec 40be 8da0 09be 7c3b 72be dd4d 243d
00000060: 62f1 6fbe 5a13 bfbe dfa9 a53e 3be5 31be
00000070: bb7f 04be b788 d5bd cbc9 5dbe ab2e 9bbd
00000080: 4d71 653d 49c2 33bc e52e cb3e 200a b53e
00000090: 5ee5 8abd 062b f33b fa39 8cbe 194c ab3e
0.36590177 -0.17758305 -0.09474838 0.3279051 -0.060673486 -0.16499029 -0.08099761 0.06312119
0.30447805 0.200307 -0.21812688 0.09127917 -0.21338464 0.014567605 0.19347478 -0.16192636
-0.29566994 -0.19130348 -0.051189747 0.006953993 -0.18840118 -0.13440152 -0.23655504 0.04011332
-0.23431924 -0.37319452 0.32356164 -0.173726 -0.1293935 -0.10426467 -0.21659009 -0.075772606
0.056016255 -0.010971614 0.39684215 0.35359287 -0.067820296 0.0074209003 -0.27387983 0.33456495

lstm.bias_hh_l2 f4 [40]
00000000: 211a 413d 4c63 823e f4e9 a9bd 2e76 95bd
00000010: 2734 e23d 7ad0 f73d 2d03 bbbd 8b2b a13e
00000020: e317 823e 9c1a c7bd a237 bfbd 34c0 0bbe
00000030: 1b30 a0be 11a0 18bd 5d40 92be 53a2 87be
00000040: d23b 22be 9532 fabd 7cf8 563e f9d6 aabd
00000050: 17f1 7bbe db53 a3be e635 383d c2e1 a03e
00000060: a9a4 c63d cf13 6b3e 5dad ea3d 85d6 a8be
00000070: d280 523e 289d 2b3e 2d8a 193e 0e3c 163e
00000080: 3440 e0bd 36ff c43e 9903 3dbe 1bb6 36bd
00000090: 5a56 cd3d 69e9 423b 6f4e c13d 11db c13e
0.04714406 0.25466383 -0.08296576 -0.072979316 0.110451035 0.121003106 -0.09131465 0.31478533
0.2540885 -0.09721872 -0.09336783 -0.13647538 -0.31286702 -0.037262026 -0.2856473 -0.2649103
-0.15843132 -0.12216679 0.20993227 -0.08341784 -0.24603687 -0.31899914 0.044973277 0.3142224
0.09699375 0.22956775 0.11458848 -0.32976165 0.20556954 0.16759169 0.14994116 0.14671347
-0.10949746 0.3847596 -0.18458404 -0.044607263 0.10026236 0.0029741174 0.09438788 0.37862447

fc.weight f4 [1, 10]
00000000: 2601 cdbe 7fcb 8fbd aa46 b8bc 03af 003e
00000010: f742 d5be fcae aabe 1f00 343e 2c6e a4be
00000020: b620 8fbe e26b 913e
-0.4003994 -0.07021236 -0.022494633 0.12566762 -0.41652653 -0.33336627 0.17578171 -0.32115304
-0.27954644 0.2840262
