ec_l2o_log/mtl_0.5_1_1_0.3/lstm_unroll.pth (torch, 13115 bytes, 13 tensors)

lstm.weight_ih_l0 f4 [40, 2]
000000 73 db b0 3d 29 a8 4c 3e 3c 78 06 3e ad ef 87 3e
       0.086356066 0.19986023 0.13131803 0.26550046
000010 21 73 dd 3b b5 88 63 3e 16 f3 76 3f d0 d4 f7 3e
       0.006758109 0.22220118 0.9646467 0.4840455
000020 6a 69 26 3c 98 0a bc 3c ea ae 00 3e 07 6a 8e 3d
       0.010156969 0.02295427 0.12566724 0.06953817
000030 34 24 af 3e 48 6c e4 3e 95 75 19 3e 46 a0 79 3d
       0.34207308 0.44613862 0.1498626 0.060943864
000040 9c f9 00 3f c0 59 02 3f 00 ca 56 3e db ee 3a 3e
       0.50380874 0.509182 0.20975494 0.18255179
000050 e2 62 d7 bd e8 c7 e5 3e a8 aa eb 3e 3f b7 06 3e
       -0.10516907 0.4487908 0.46028638 0.1315584
000060 8d d9 07 bd 98 1c 94 be fd 1f 19 3f 4c 92 70 3f
       -0.033166457 -0.28928065 0.59814435 0.9397323
000070 d3 97 32 3e ae 4f 2b 3d 36 84 43 be c3 8d 90 be
       0.17440729 0.041824035 -0.19093403 -0.28233156
000080 7e c2 bc 3e 10 e7 05 3f c9 4c 91 3e 0a 13 c4 3e
       0.36867136 0.523057 0.28378895 0.38295776
000090 ad fe 48 3f 31 05 72 3f 59 f0 94 3e 6b cd 96 be
       0.78513604 0.9453917 0.2908962 -0.29453596
0000a0 4f 4a f2 be f5 45 84 3d c9 d6 12 3f e3 f1 f7 3e
       -0.47322318 0.06458656 0.57358986 0.48426732
0000b0 8e 4a 11 3e f1 98 d1 bd 4d 79 93 3e 8b 71 ba be
       0.14188597 -0.102342494 0.28803483 -0.3641475
0000c0 5e 9e 53 bc 26 e6 01 bf 60 03 b3 bd 04 46 5b be
       -0.012916176 -0.50741804 -0.08740878 -0.21413428
0000d0 37 1c 1f bf fb 05 c8 bd 94 a8 a3 be 9f 62 b0 be
       -0.6215243 -0.09766766 -0.31964552 -0.34450242
0000e0 8b d2 84 3e c3 7a 61 be 7b 1f d0 3e 27 6f fa bd
       0.25941882 -0.22019486 0.40649018 -0.12228232
0000f0 b9 dc e7 3e 8d 67 ac 3d 23 5a 08 3f 19 3c 2b 3f
       0.45285586 0.08418188 0.5326254 0.66888577
000100 f1 5d b0 3d e8 f7 07 3e 57 9c 04 3f 6a 41 5f 3f
       0.08611668 0.13278162 0.51801056 0.8720919
000110 f4 72 cb 3d c9 66 ee 3e 59 01 9c be 86 bf 4d bf
       0.09934035 0.46562794 -0.30469778 -0.80370367
000120 7b 72 6b 3c 2b cb 42 bd 0a d7 12 3f 26 2b fc 3d
       0.014370556 -0.047557037 0.57359374 0.123129174
000130 cd 45 75 3f c9 32 73 3f 80 1c ea 3e 31 7c 9a 3e
       0.9580963 0.94999367 0.4572487 0.30172876

lstm.weight_hh_l0 f4 [40, 10]
000000 c9 60 29 be b8 82 33 3e 8d cb 28 be a8 11 81 be
       -0.16540827 0.17530334 -0.16483898 -0.25208783
000010 4a 77 0a 3e 2f d7 11 3e fb 10 50 be be 84 63 3d
       0.13522068 0.14242242 -0.20318978 0.055546515
000020 e1 44 87 3e f6 c5 54 be ff d8 0a bf 9e 60 65 3e
       0.26419738 -0.20778641 -0.5423736 0.22400138
000030 8b 43 b1 3e 40 a3 56 be 3c fe 23 3f 69 8f de be
       0.34621844 -0.20960712 0.64059806 -0.43468788
000040 db bd f6 be 36 14 71 bd 63 1a 22 be 8f 69 0f bf
       -0.48191723 -0.058857165 -0.15830378 -0.56020445
000050 28 45 61 be 5f b6 b1 be 55 a5 83 be 71 31 f6 3e
       -0.21999037 -0.3470945 -0.25712076 0.48084596
000060 ec 16 8e be 24 84 3e 3e 0e 76 87 bd 65 d3 5d 3d
       -0.27751863 0.18605095 -0.06614314 0.05415668
000070 9d 4d a3 3d 5a 80 10 be 93 8d 3e be a9 9f 2c 3d
       0.07973788 -0.14111462 -0.18608694 0.04214445
000080 be 53 9f 3e 4c 24 53 be 06 8a 82 3d 5c ea a4 be
       0.31118578 -0.20619315 0.06373982 -0.32210052
000090 e3 a5 f0 be a6 f3 c9 be 79 a0 f1 bd 4d 9e 5e be
       -0.47001562 -0.39443702 -0.11798186 -0.21740074
0000a0 74 d1 80 be 41 4a 24 3f 5f 19 f9 3d c2 06 9a be
       -0.251598 0.641758 0.12163042 -0.3008328
0000b0 c7 80 ef be c7 c3 09 bf 21 ed a0 be 51 11 f5 be
       -0.46777937 -0.5381436 -0.31430915 -0.47864774
0000c0 fb ec cf be 60 14 de be fd c6 2c 3d 0d 58 d8 3c
       -0.4061049 -0.4337492 0.042181958 0.026409173
0000d0 ea 62 83 3c f2 cc 8b be af 7f 90 3e 50 b6 c5 be
       0.016038377 -0.27304798 0.28222415 -0.38615656
0000e0 ed 7c ab be b9 f3 8d be 81 81 2f be f8 f7 14 bd
       -0.33493748 -0.27725008 -0.17139246 -0.036369294
0000f0 9f 8c 85 bd c0 78 03 3f 4c 6e f1 3e 1a d7 28 be
       -0.06520962 0.51356125 0.47154462 -0.16488305
000100 c2 9f d6 3c 25 65 23 be 21 8b ce be 35 b6 1f be
       0.026199225 -0.15956552 -0.40340522 -0.1559685
000110 47 b6 bc be 25 8c 8b be c2 b3 55 3d a7 c8 4c be
       -0.36857817 -0.2725536 0.052173384 -0.19998418
000120 97 58 0f be 24 8c 05 3e cb d6 96 bd 98 aa a6 3e
       -0.13998638 0.1304174 -0.07365187 0.32552028
000130 13 84 21 3e 5a ef 89 be 05 51 bd be 5d d1 1d 3e
       0.15773039 -0.26940423 -0.36975875 0.15411897
000140 80 ff 92 be 2d 59 59 be be b6 7c be 0e 0b 2d be
       -0.28710556 -0.21225424 -0.24679086 -0.16898748
000150 49 81 48 3f d9 73 22 3f 02 da d7 bc 8a c0 dc 3d
       0.78322273 0.6345802 -0.026349071 0.107789114
000160 62 fc f8 bc fa 20 d5 be 82 81 33 3e 8b 6c 1b 3b
       -0.030393783 -0.41626722 0.17529872 0.002371582
000170 b9 8c 80 bd 47 98 44 be 57 c7 fd 3d f7 bb 84 be
       -0.06276841 -0.19198714 0.12391537 -0.25924656
000180 de a4 a4 3d 02 89 6e 3d 7d 81 8b 3e 88 ec 31 3e
       0.080392584 0.05823613 0.2724723 0.17375386
000190 a8 2b 61 be 00 7e ce bd 87 6d e1 3c 75 3a 6b be
       -0.2198931 -0.10082626 0.027518047 -0.22971518
0001a0 06 20 27 bd 8a f6 5b 3d 26 f3 5e be 3e 6c 5d 3e
       -0.040802024 0.053701915 -0.21772441 0.21623322
0001b0 6a cb 79 be 8f 34 25 3e 5a ab 65 bd 46 86 9b be
       -0.24394003 0.16133331 -0.056071617 -0.3037588
0001c0 0a 43 9c be 83 4e af 3e a2 29 89 3e c0 97 11 3e
       -0.30519897 0.34239587 0.26789576 0.14218044
0001d0 b1 39 22 3e 55 c1 ae 3d e0 f9 28 be bc f6 de bd
       0.1584232 0.08532969 -0.1650157 -0.108869046
0001e0 2f 41 39 3e eb 50 a3 3d e2 47 62 bd 76 c4 52 3e
       0.18091272 0.07974418 -0.055244334 0.20582756
0001f0 d3 38 48 be fc c0 b8 3c ae 58 8b bd 3a 68 aa 3e
       -0.19552927 0.02255296 -0.06804024 0.33282644
000200 2c 15 8d 3e 4d 6b 43 3e 6d 4b 75 bd ef 4b 60 be
       0.27555215 0.19083901 -0.059886385 -0.21903966
000210 24 ca b6 be 89 60 b9 be 75 e4 c8 be 0d a6 11 3e
       -0.35701096 -0.36206463 -0.392368 0.142235
000220 36 63 9e 3e 36 85 a8 bd bc 92 3b 3e 53 e6 09 be
       0.30935067 -0.08228533 0.18317693 -0.13466768
000230 f2 19 ce be b1 05 ce bd f8 59 4c 3e 8c bd 55 be
       -0.4025417 -0.10059679 0.19956195 -0.20873088
000240 9f f7 c7 be 76 81 a0 3e 10 6c c4 bd 2b 40 4a bd
       -0.39056107 0.3134877 -0.09590924 -0.0493776
000250 69 32 2f be a5 b5 d6 be 3a 97 e0 be 8e 2a 0e be
       -0.17109074 -0.4193546 -0.43865377 -0.13883421
000260 62 ca dd 3e cd 2f 4a be 4e b7 f1 be e3 bb 7b be
       0.43318468 -0.19744797 -0.47210163 -0.24583392
000270 55 cf 94 be 37 d4 88 3c 07 1f 07 bf 3b 3b a2 3d
       -0.29064432 0.016702754 -0.5278172 0.079214536
000280 ea 47 a3 be df 58 e8 3e 54 db c6 3e d0 28 87 3e
       -0.31890804 0.45380303 0.3883921 0.26398325
000290 8f d9 0d 3e b4 5b 21 bf 4f d3 08 bf 3e 5e ed bc
       0.13852523 -0.6303055 -0.5344743 -0.028975602
0002a0 a3 1c 01 be 65 b9 b0 be 01 64 b5 be f9 bf 56 be
       -0.1260858 -0.34516445 -0.3542786 -0.2097167
0002b0 a6 7a 9e 3e 8c 4f 10 be 8f 8a 30 bd 8b 51 f0 3d
       0.30952948 -0.14092845 -0.04310089 0.11734303
0002c0 ac a1 fc bd ab 7a 5a 3d 69 65 96 be 7e 3c 6c be
       -0.12335524 0.05333964 -0.29374245 -0.23069951
0002d0 50 17 32 3e 18 fa 3d bd 9b 8c 91 be de 00 60 3e
       0.17391706 -0.046381086 -0.28427586 0.21875331
0002e0 d7 7d a3 3e fa 1a ab 3e 22 85 81 be e0 34 dc be
       0.31931946 0.3341902 -0.25296885 -0.4300909
0002f0 fd 72 20 bd c7 83 9b be 3c 61 a5 be c3 62 8a be
       -0.03917216 -0.30373976 -0.32300746 -0.27028474
000300 e7 bf 6b be 8e 6f 1f 3e d1 4f be bd 3a e2 3d be
       -0.23022424 0.15569898 -0.092925675 -0.1854333
000310 0e 48 73 3e 27 da 0c be f4 43 90 bd b8 da ed 3b
       0.23757955 -0.13755094 -0.07044211 0.0072587393
000320 5c f8 73 3e f1 97 14 3e 92 ef e8 bb 41 76 82 be
       0.2382521 0.14511086 -0.007108637 -0.25480846
000330 de c8 02 bf bc 8d 89 be 36 9c 88 bc d0 c5 90 3e
       -0.5108775 -0.26865947 -0.01667605 0.2827592
000340 de e5 b8 be 39 17 d6 3b b8 50 dd bd 6c 34 26 3d
       -0.36112875 0.00653353 -0.108064115 0.040577337
000350 19 20 eb be cd c0 fd 3d c4 41 1f 3d 14 8b 36 3f
       -0.45922926 0.123902895 0.03888108 0.71305966
000360 ad 66 d4 3d 5e 01 37 3b 69 c5 73 be 0b 6f e2 3d
       0.10371146 0.00279244 -0.23805775 0.11056336
000370 31 cb 91 b9 0e de 8a bc c7 31 ce 3c 35 ee 11 3e
       -0.00027807945 -0.016951587 0.02517022 0.14251025
000380 92 ce 4d bd a1 55 ce 3e 9e 73 60 bd ba e6 9e bd
       -0.05024583 0.40299705 -0.05479776 -0.07758851
000390 6a 69 8e bc 0c d3 07 be fe 74 b0 3d 96 55 56 3e
       -0.01738425 -0.13264102 0.086160645 0.20931086
0003a0 47 1e 74 be b2 0a b0 bd 79 e9 24 3e 0b a2 8b be
       -0.23839675 -0.0859579 0.16104688 -0.27272066
0003b0 79 d4 14 3e e2 58 9b bc f2 3d bb 3e a9 5d 4d 3c
       0.14534177 -0.018963281 0.36570698 0.012534537
0003c0 cd 8f 82 3e ac 6c c1 3c 3e c5 2c 3e 13 ef c4 3d
       0.25500336 0.02361139 0.16872117 0.09615912
0003d0 69 c6 78 3e 68 43 9c bd 41 d1 73 3d b1 8c 85 3e
       0.24294437 -0.07630044 0.059525732 0.26083902
0003e0 c9 0e ec bd 54 21 a1 be c9 7c 1f 3e 08 95 10 bf
       -0.115262575 -0.3147074 0.15574946 -0.56477404
0003f0 65 d9 c4 be bc ea e0 bd 12 b4 9f bb 9f 12 9f 3e
       -0.3844711 -0.10982272 -0.004873761 0.31068894

lstm.bias_ih_l0 f4 [40]
000000 fb b0 0c 3e b1 a2 ec 3e c4 e1 a3 bd 7d 1e 95 3e
       0.13739388 0.46217874 -0.08002046 0.29124823
000010 42 13 07 3f 55 cb 94 bd 0f 4a 2a 3f 34 95 46 3e
       0.5276376 -0.07265345 0.66519254 0.19392854
000020 bc 17 d8 3c e1 0e b6 3e f2 32 80 3e 0b 10 fd bd
       0.026378505 0.35558227 0.25038868 -0.123565756
000030 81 5a 4f 3e 70 9e a5 3d 02 91 b9 3e d8 09 b2 3e
       0.20249368 0.0808686 0.36243445 0.34773135
000040 7b 88 04 3f 51 8b 92 be 6f 75 2f 3e 93 24 b5 3e
       0.5177075 -0.28621915 0.17134641 0.35379466
000050 e0 99 77 be 78 ec 05 3d aa d8 c6 3e 95 a5 f7 3d
       -0.24179792 0.032696217 0.38837177 0.12092129
000060 22 28 93 3d 12 b0 bd 3d 22 81 73 be c7 d5 b5 be
       0.07185389 0.09262098 -0.23779729 -0.35514662
000070 77 4f bc be 15 2d b0 be 26 6e a2 3e 39 fb ff 3e
       -0.36779377 -0.34409395 0.31724662 0.49996355
000080 8e d8 fe 3e c4 63 ea 3e c2 60 85 3e 4a 13 80 3d
       0.49774593 0.4577924 0.26050383 0.06253679
000090 90 70 b4 3e fb e0 84 bd 11 46 91 3c db 4f 77 3e
       0.35242128 -0.06488224 0.017733606 0.24151556

lstm.bias_hh_l0 f4 [40]
000000 4b a2 bd 3e d2 f4 3a 3d 58 08 a5 3e 46 60 a5 3d
       0.37037882 0.045643635 0.32232928 0.08075003
000010 1f 1b 47 3e 1c 66 8f 3d 58 47 ca 3e 04 e9 83 3d
       0.1944394 0.07001898 0.39507556 0.064409286
000020 d7 5d 60 bd e3 d1 2b 3e 31 64 3c be 8b b2 33 3e
       -0.054776993 0.16779284 -0.18397595 0.17548577
000030 55 58 4f 3e 48 6a 83 3d 5c b4 89 3e a5 55 a0 3e
       0.2024854 0.06416756 0.26895416 0.31315342
000040 de cd a5 3e 02 04 f9 bd 30 a3 62 bd 05 85 97 3e
       0.32383627 -0.121589676 -0.05533141 0.29593673
000050 f7 b0 9a be e3 b1 73 3e 46 84 ec 3e 9b 6a 89 3d
       -0.30213138 0.23798327 0.46194667 0.067097865
000060 56 f3 3b 3e 8b 3e f3 bd 9d fd b4 3e f1 d2 67 3d
       0.18354544 -0.118771635 0.35349742 0.056597654
000070 36 c5 d6 3d c6 3b a7 be fe 2c 1b 3e db 0c ca 3e
       0.10486834 -0.3266279 0.15153882 0.39462933
000080 9b 8f 0f 3e f8 2a 87 3e 8b 3f 16 3f 0c 7c 8c 3e
       0.14019625 0.2639997 0.5869071 0.2743839
000090 fe 9e bb 3e a1 16 56 bd 54 70 9c 3d b3 35 de 3e
       0.3664474 -0.052267674 0.076386124 0.43400344

lstm.weight_ih_l1 f4 [40, 10]
000000 6d 63 49 be 49 1a 38 3e 9f d4 44 be 16 54 9c 3e
       -0.19666834 0.17978777 -0.19221734 0.30532902
000010 54 48 12 be 84 50 de 3d 98 83 bf be ab 21 87 be
       -0.14285403 0.10855201 -0.37405086 -0.26392874
000020 ff 92 16 3e 6a 6c 78 be 65 e9 80 3d c9 81 ae 3b
       0.14704512 -0.24260107 0.062945165 0.00532553
000030 76 2f a2 bd 0c bc 88 3e d6 98 41 3e bb ad 7a bd
       -0.07919209 0.26705968 0.18905959 -0.06120084
000040 f9 f9 e7 3d e8 75 0c 3d 33 9f a1 be b0 36 eb bd
       0.113269754 0.03429213 -0.31566772 -0.1148504
000050 6a 72 16 be 13 29 41 bd 28 ea 55 3e 1c 6d 5f be
       -0.14692083 -0.047158312 0.20890105 -0.21818966
000060 bb 46 72 be ff 5f 3f bd 24 e2 22 bd 26 19 7f 3e
       -0.23659794 -0.04672241 -0.039766446 0.24911937
000070 8e e6 af 3e 80 39 2b 3e 4c 82 02 bf 51 e2 81 3e
       0.34355587 0.16721153 -0.5098007 0.25367978
000080 e0 b9 51 bc e2 de 4b be 07 a0 c2 3e c9 7f be bd
       -0.012800664 -0.19909242 0.38012716 -0.09301717
000090 b7 54 0b be ef 2d 91 be 36 8d a3 bb 0e cf b3 be
       -0.13606535 -0.28355357 -0.004991199 -0.35118908
0000a0 e0 6d 39 be 0f bc 86 3e 7f 96 4e 3e 96 7a 9b bd
       -0.1810832 0.26315352 0.20174597 -0.07591741
0000b0 e4 1f b8 be 47 b4 8e 3d 26 42 3a be 0e 25 f0 3d
       -0.3596183 0.06967979 -0.18189296 0.117258176
0000c0 f5 69 8d 3e 5f f1 a2 be 9f 99 85 be 98 46 8b 3e
       0.276199 -0.31824777 -0.26093766 0.27202296
0000d0 2b 50 95 3d e2 55 5e 3e 52 4e 92 3e 51 26 c8 be
       0.072906815 0.21712449 0.2857538 -0.39091733
0000e0 7f cd a2 be e9 c2 5c be 72 58 8e be 6f 82 05 bf
       -0.31797406 -0.21558727 -0.27801853 -0.5215215
0000f0 e6 5b 1c 3e da 16 46 be 04 b5 a1 3e 1f 9c 4d be
       0.15269431 -0.19344655 0.31583416 -0.20079087
000100 7b 16 78 be 6a 1b e1 be 29 db 32 be 40 f4 17 3e
       -0.24227326 -0.43966228 -0.17466415 0.14839268
000110 c0 d0 e4 bc d9 8e 14 be fd d5 d6 bd 72 b6 e5 bd
       -0.027931571 -0.14507617 -0.10490034 -0.11216439
000120 d2 ed 9b 3e 7d 16 b1 3e 68 37 5d 3e c4 49 21 bd
       0.3045488 0.3458747 0.21603167 -0.03937699
000130 1d 76 4c be ef 6d c7 3a 3d 29 27 bd f7 f2 f7 bd
       -0.19966932 0.0015215258 -0.040810812 -0.12106889
000140 f9 fd a9 be 91 06 ae 3e 27 8f 01 3e 8c 94 26 bf
       -0.33201578 0.33989385 0.12652265 -0.65070415
000150 04 83 16 be 23 c9 6e be a3 f1 4c be cc 6a 00 bf
       -0.14698416 -0.23318915 -0.20014052 -0.5016296
000160 93 f5 8f be 9d a5 bc be a0 bb 6d 3c 93 ed fe bc
       -0.28117046 -0.36845103 0.014510065 -0.031119144
000170 b1 d7 57 3e c6 a8 c2 3e c6 ff 34 3f 9b a8 8a 3e
       0.21078373 0.3801939 0.7070278 0.2708176
000180 17 52 82 3e e5 37 24 be 88 e2 5a 3e 89 d9 33 be
       0.25453255 -0.16036947 0.21375477 -0.17563452
000190 76 6a 85 be bd 77 29 bd ce 18 f9 3d 5b db 5a be
       -0.26057786 -0.041373957 0.12162934 -0.2137274
0001a0 7b a6 ee 3d 2c c2 14 be ee ad 31 3c 66 34 3d be
       0.116528474 -0.14527196 0.010844691 -0.1847702
0001b0 4e ea 45 3e 01 66 81 be 47 96 06 3e 87 6d 52 be
       0.19327661 -0.25273135 0.13143264 -0.20549594
0001c0 6b f8 8a be 1a db d7 3e c5 5c 0f 3e 69 08 e5 bc
       -0.27142653 0.4215935 0.14000233 -0.027958112
0001d0 65 87 d2 3c 4a c6 73 be 11 77 91 be ee 24 d1 bd
       0.025699327 -0.2380611 -0.28411153 -0.10212122
0001e0 8e b9 bb 3c bd 6c 7e 3e b7 aa 9e 3d 06 e4 6b bb
       0.022915628 0.24846168 0.07747405 -0.0035994067
0001f0 f8 39 9b 3e ff 5f 9e bd 7a 14 0f 3e df 32 e1 3d
       0.30317664 -0.077331536 0.13972655 0.10996031
000200 71 00 90 3d be 03 cb be 6a 0e 1a 3e 84 60 d8 bb
       0.07031334 -0.39651293 0.15044561 -0.0066033024
000210 1b 2e 15 3e 5a 2d a1 be b6 e6 72 3e 7c ce a4 3d
       0.14568369 -0.31479913 0.23720822 0.08047196
000220 dd e6 6c bd ef e7 68 be b0 e8 d0 bd 1c cd 80 3d
       -0.057837356 -0.22744726 -0.102006316 0.062891215
000230 c6 ea 8c be b8 71 bd 3d a4 e3 dc 3d 78 a5 61 bd
       -0.27522868 0.09250206 0.107856065 -0.055089444
000240 90 26 5f be f8 29 c8 bb 1f d9 69 be 7b 3f 3b 3d
       -0.21792054 -0.0061085187 -0.22836731 0.045714837
000250 9b 67 67 3d f3 03 e4 3d 39 67 27 be a3 a2 b6 bd
       0.05649529 0.11133566 -0.1634797 -0.08917739
000260 92 61 f0 bd f9 2f 16 3f fe 9c 9d 3d 24 86 34 bf
       -0.1173736 0.5866695 0.076959595 -0.7051718
000270 ed 0b 0d 3d 04 cf d7 3e a9 8b af 3e 4c 04 80 be
       0.0344352 0.42150128 0.3428624 -0.25003278
000280 e4 41 5b be 93 6b 2c bd 8f cb 05 be 37 27 e4 be
       -0.21411854 -0.04209478 -0.13065933 -0.4456117
000290 56 f0 28 bf 44 01 c1 3d 29 83 ef 3c b2 a4 64 3e
       -0.65991724 0.094240695 0.029237347 0.22328451
0002a0 bb 3e d0 bd 4b 73 c9 3e 4c 2d 95 be bc 01 08 3d
       -0.10168215 0.39345774 -0.2913612 0.03320478
0002b0 ec 28 37 3e c2 44 d7 3e c9 ef 66 3e f1 c3 c9 3e
       0.17886704 0.42044646 0.22552408 0.39407304
0002c0 fe 36 81 be 04 7d 71 3d ea 75 6f be 3d b4 81 3e
       -0.25237268 0.058957115 -0.23384824 0.25332823
0002d0 04 d0 a0 3d dc 8b 98 3d c4 2c 66 3e f5 96 7b be
       0.07852176 0.07448551 0.22478014 -0.24569304
0002e0 35 3c 2b bf c1 42 c1 3d 28 f0 2d be c9 2c 14 3e
       -0.66888744 0.094365604 -0.16986144 0.14470209
0002f0 7d 39 01 be 45 50 dd bd 4d 33 69 be 80 78 5e be
       -0.12619586 -0.10806326 -0.22773476 -0.21725655
000300 bf 97 13 3e ec 24 af 3c b4 95 2e 3f 2a bd ab 3d
       0.14413355 0.02137991 0.6819718 0.083856896
000310 1e 48 04 3e 39 3f a5 3e 79 0a e5 3e 97 3e 18 be
       0.12918136 0.32274798 0.44734553 -0.14867626
000320 ef 35 d2 be 13 9f ba 3e e1 4c da 3d 6a 7d 4a 3e
       -0.41056773 0.3644949 0.10659195 0.19774404
000330 f0 db d7 be f0 4e 17 3e df 24 a4 be 69 54 d2 3d
       -0.42159986 0.14776206 -0.3205938 0.10270006
000340 9c 49 96 be 45 f8 5e be 21 cb d5 3c 19 df 88 be
       -0.29353034 -0.21774395 0.026097836 -0.2673271
000350 93 89 24 3e c9 9f 5a be cb 07 34 3d b3 81 b0 3e
       0.16068105 -0.21350016 0.043952744 0.34473953
000360 6b bf 1f be 80 e5 f9 bd c0 28 a9 be d1 0d 5e 3b
       -0.15600364 -0.12201977 -0.33038902 0.0033882747
000370 a6 72 ed bd 2c df ee be 24 9a 7f bd 71 cd 90 be
       -0.11594133 -0.46654642 -0.06240286 -0.2828174
000380 c4 2e 57 be 03 ec 72 be 2b 21 80 bd 41 1b 96 3d
       -0.21013933 -0.23722844 -0.06256326 0.07329417
000390 a4 3c 0c 3e d9 a7 ec bd 83 1f 02 be b1 0f c5 3e
       0.13695008 -0.11555452 -0.12707333 0.38488534
0003a0 a0 ea 90 3d 54 cf 17 bf cd 1b fb bc 4d 84 09 3f
       0.07076001 -0.5930073 -0.030652905 0.537175
0003b0 64 bb c6 3d 34 3b ea 3b d1 84 d9 be 98 ac c2 bd
       0.09703711 0.007148171 -0.42484143 -0.09505576
0003c0 05 20 04 be 3e 60 73 3e ec ea 7b 3e 44 38 d0 3e
       -0.1290284 0.23767182 0.24601334 0.40667927
0003d0 1a 9b f6 bd dc 59 04 be 5b d8 d9 be 7b 91 b1 3d
       -0.12041302 -0.12924904 -0.4254788 0.08670326
0003e0 99 6a 3a be 89 76 86 3e fb 6d 56 be 56 f6 1f be
       -0.18204726 0.2626231 -0.20940392 -0.15621313
0003f0 2d ab 1e be 05 7b ce 3e af 4f f6 3d 1d fe 96 be
       -0.15494986 0.4032823 0.12026917 -0.29490748

lstm.weight_hh_l1 f4 [40, 10]
000000 d5 c8 7d 3e 27 13 9e 3e 0d 76 80 be 24 78 36 3e
       0.24783643 0.30873987 -0.25090066 0.17819268
000010 c5 5e f9 3d 43 d3 25 3e 3a c8 52 3e a7 24 38 bd
       0.12176279 0.16193871 0.20584193 -0.04495683
000020 f3 b6 e8 bd f6 28 1d bd c6 b4 27 3e c5 1e c4 3e
       -0.1136302 -0.03836914 0.16377553 0.38304725
000030 81 71 8b bd 7c 47 49 3d 64 7d da 3e c9 d3 0d 3f
       -0.068087585 0.04914044 0.4267379 0.55401284
000040 19 66 82 bd 97 ee 4e bd 96 73 11 bf 8c 5b 64 3e
       -0.0636713 -0.050520506 -0.56816995 0.22300547
000050 83 ac ac 3d 82 91 2f bd a2 90 0f bd 45 a7 70 3e
       0.084313415 -0.042863376 -0.035050042 0.23501308
000060 f2 ec 8d 3e 6f b2 89 3e 6d 8d 23 bd e1 97 2f 3e
       0.27719837 0.26893947 -0.039929796 0.17147781
000070 df e5 32 be 99 2f 4a 3e 6a 4c e2 3e 1e 90 b4 3e
       -0.17470501 0.1974472 0.44198924 0.35266203
000080 d0 b8 8d 3e 98 ae 50 3e 41 50 9b 3d 79 03 8d 3e
       0.27680063 0.20379102 0.075836666 0.27541712
000090 24 69 d6 be 47 ba 0c be d3 e0 f2 be 34 8a 1a 3f
       -0.4187709 -0.13742934 -0.47437152 0.6036713
0000a0 ab 36 d0 3d d9 c7 33 3e 58 79 ff 3d fb 74 0c be
       0.10166677 0.17556705 0.12474316 -0.137165
0000b0 fc 9f d2 3d fc 84 95 3e 8a 88 52 3e f4 bd aa 3d
       0.10284421 0.29203022 0.20559898 0.08337012
0000c0 a9 0f 80 3e 67 6e 91 3c 71 62 b6 3e 08 d2 e7 3e
       0.25011948 0.01775284 0.3562198 0.4527743
0000d0 37 24 88 3e 34 fb af 3e 54 46 0b 3f 41 e8 df 3e
       0.2659013 0.3437134 0.5440419 0.43731883
0000e0 fd 6e cf be e4 3e b9 bb ab b8 87 3c 51 c0 2b 3e
       -0.40514365 -0.005653249 0.016567549 0.16772582
0000f0 b4 02 df bc 87 78 e2 bd bd b8 a7 3e 5d 05 80 bc
       -0.027222969 -0.11058145 0.32758132 -0.015627557
000100 b9 1a d0 3d 07 90 c2 3e 52 25 93 3e 26 91 c4 be
       0.10161347 0.3800051 0.2873941 -0.3839199
000110 7f f9 b2 3d c7 52 b9 bd ff c5 a1 be 18 32 ea 3d
       0.08738994 -0.09048992 -0.31596372 0.11435336
000120 fb db 9b 3d 7b 09 08 be 16 83 21 3e 30 46 cb 3d
       0.07610317 -0.13284867 0.15772662 0.099254966
000130 2b 72 0c 3d d4 13 72 bd 89 59 12 bf b6 0a 67 3e
       0.034288567 -0.05910094 -0.5716787 0.2256268
000140 66 78 bb 3e db fd 93 3e d6 49 b6 3e 1c 95 32 3f
       0.36615294 0.28904614 0.35603207 0.6975877
000150 cd 85 b3 3e 42 b1 a8 3e e0 4d 10 bd f8 d7 13 be
       0.3506302 0.32947737 -0.035230517 -0.14437854
000160 a5 c3 0d 3f 71 d0 35 3e d8 f5 08 be 1c ba a4 be
       0.55376655 0.17755295 -0.13375032 -0.3217324
000170 a9 f9 04 be 36 6d 02 bf ba b5 20 3e 66 27 2b 3e
       -0.12985863 -0.5094789 0.15694323 0.16714248
000180 29 2d 10 3e ab 2d 5a bd cc cb eb be 89 6d f1 3d
       0.14079727 -0.05326621 -0.46053922 0.1178847
000190 b0 92 63 3e aa af 4c 3e c7 62 ce 3b cd 97 fd 3d
       0.22223926 0.19988886 0.0062983963 0.12382469
0001a0 65 ef 3f be ec 23 36 3e b4 17 4f be d7 17 29 3e
       -0.18743666 0.1778714 -0.20223886 0.16513
0001b0 88 28 87 3e 88 c8 f8 bd a7 64 c0 be ac 6e b4 3c
       0.2639811 -0.12147623 -0.37576792 0.022025429
0001c0 97 d6 32 be 5a cd ba 3d d2 18 3a 3e b2 fe 49 be
       -0.17464672 0.09121199 0.1817353 -0.19726065
0001d0 84 ea 93 bd f9 80 10 be 64 5e fc be 20 e8 42 3d
       -0.07222465 -0.14111699 -0.49290764 0.047584653
0001e0 12 d3 c8 3c af 94 2d bd 59 c3 70 3e 24 d0 06 3e
       0.024514709 -0.042378124 0.23512019 0.13165337
0001f0 08 c9 99 bd b8 55 f1 3e 86 55 b8 3d c7 29 fe bc
       -0.07509047 0.4713571 0.09000687 -0.03102578
000200 4e f9 63 bd 98 77 b6 3e 72 fa 02 be 88 e5 9e 3e
       -0.055657677 0.35638118 -0.1279085 0.31034493
000210 b6 5b 44 3e 54 75 de 3d e1 de 96 be 9c 75 d3 bd
       0.1917561 0.10862222 -0.29466918 -0.103251666
000220 46 78 f5 3d c1 a0 a2 3e 7a 7f 3f be bc 19 59 be
       0.11985831 0.3176327 -0.18700972 -0.21201223
000230 b3 05 df 3c 3e 01 fc 3d 97 e1 c8 bd 9c a1 8b be
       0.027224397 0.123049244 -0.09808653 -0.27271736
000240 6d bf da bc 5f 7a 37 be af be 1e 3e 96 48 af be
       -0.026702607 -0.17917775 0.15502428 -0.34235066
000250 4c 34 c8 3e 68 bd 0b 3e 35 7c d9 3e 1d b0 93 be
       0.391024 0.13646472 0.42477575 -0.288453
000260 a1 41 08 3f 40 59 3f 3e 74 f3 f0 3d fc f5 d3 3e
       0.5322514 0.1868639 0.11765185 0.4139861
000270 45 b4 8a be 74 ad 00 be 14 f1 eb bc 8c a0 10 be
       -0.2709066 -0.12566167 -0.028801478 -0.14123744
000280 4e 74 26 3e 3f 39 2f 3d 86 d3 e9 bd 2b ac ee be
       0.16255304 0.042779204 -0.11417298 -0.4661573
000290 cd 08 33 3d cb d0 5f bd 52 fe 80 3e 52 d1 9c be
       0.043709565 -0.05464248 0.2519403 -0.3062845
0002a0 a6 b2 b6 3e 2f c1 40 3e b2 e0 04 bd 02 24 26 3d
       0.35683173 0.18823694 -0.03244085 0.040561683
0002b0 41 44 97 3e 1a 0c 59 be 98 fc 78 be 74 2b 6b 3e
       0.2954426 -0.21196023 -0.24315107 0.22965795
0002c0 28 95 47 3e 52 d1 40 be b6 76 7f bd 51 3a 76 be
       0.19490492 -0.1882985 -0.06236907 -0.24045683
0002d0 c4 5f 66 3e a6 1a 68 be 05 76 35 bd 63 d0 ca 3e
       0.22497469 -0.22666416 -0.044302005 0.3961211
0002e0 a5 6a 27 3e bd 8e 61 be a2 bb a0 bd 63 98 46 bd
       0.16349275 -0.22027107 -0.07848288 -0.04848517
0002f0 49 c1 9a 3e e0 8e a8 be 66 c4 b0 be b2 f3 ca be
       0.3022559 -0.32921505 -0.3452484 -0.3963905
000300 f7 8d a0 3e bb 1e 24 be 5c 61 2e be a2 fa 94 3d
       0.3135831 -0.16027348 -0.17029327 0.07274367
000310 ba f1 3b bd ad e9 db 3d 2e b9 06 bf a8 b6 62 bd
       -0.045884825 0.107379295 -0.5262631 -0.055349976
000320 de fd f6 3d 20 fd a5 be 50 89 1f be e5 21 0a 3e
       0.1206014 -0.32419682 -0.15579724 0.13489492
000330 ef 13 87 3e d3 e0 69 bc 6a dc ab be 34 4b fd bd
       0.26382396 -0.014274794 -0.335666 -0.123678595
000340 df 59 83 3d 41 a7 b5 3d d7 5f 39 3c a4 58 72 3e
       0.06413626 0.08869792 0.011314354 0.23666626
000350 39 49 f5 3d 7f 39 5b 3d 03 c4 0f be dc fd 4d be
       0.11976857 0.05352163 -0.14039616 -0.20116371
000360 1b ab 2d 3d 4c 44 9a 3e 00 bf f5 be 9b 00 53 be
       0.042399507 0.3013023 -0.47997284 -0.206057
000370 e5 f7 24 3e 6c 55 5b 3e 31 ed 3f bb 31 61 bc bd
       0.1611019 0.21419305 -0.0029285664 -0.09198225
000380 9c 80 25 be 6a 6c 91 3e 79 b2 78 3e ce 83 a8 bd
       -0.16162342 0.28403026 0.24286832 -0.08228265
000390 29 a6 df be ed d7 f5 bd a4 72 4c 3e 11 9b 38 be
       -0.43681458 -0.12004075 0.19965607 -0.18027903
0003a0 8d 99 79 3e 20 f3 a8 bd d5 4f 3f 3e 96 a3 90 be
       0.24374981 -0.082494974 0.18682797 -0.28249806
0003b0 07 5f 5e 39 35 2c b7 3e 1f 1e 1e be 95 e8 c7 3e
       0.0002120697 0.35775915 -0.15441178 0.39044634
0003c0 7c 85 6e 3d b8 c9 ed bd fd 18 86 be 04 2f 0b be
       0.05823277 -0.116107404 -0.2619094 -0.13592154
0003d0 80 c1 30 3e bc bc 94 3d ec af f7 3d df 4c ca be
       0.17261314 0.07262561 0.12094101 -0.39511773
0003e0 15 65 5b 3e c1 47 ae be b8 ac 28 3e 4c cd aa 3c
       0.21425278 -0.3403912 0.16472137 0.020849846
0003f0 15 59 52 3e 5a dd 35 3e ba 67 21 3e ec 02 e7 3d
       0.20541795 0.1776022 0.15762225 0.11279854

lstm.bias_ih_l1 f4 [40]
000000 9b 3b 3e 3e 8a ff 2e be 45 92 9d 3e 54 a2 fa 3d
       0.18577425 -0.17089668 0.30775657 0.12237993
000010 8b 18 74 bb 05 5f 37 3f 06 a8 db bc 30 07 b0 3e
       -0.0037246074 0.71629363 -0.026813518 0.34380484
000020 16 4c ec 3e 82 45 30 3e 1c 4e 72 be fd 6d 87 be
       0.461518 0.17214015 -0.23662609 -0.26451102
000030 d8 a8 b4 3e 7f 8c 50 be d0 45 76 3c ef ee 51 bd
       0.35285068 -0.20366095 0.015031293 -0.051253255
000040 b5 7f 2c be 26 15 06 3e 55 17 4e 3e 50 57 12 3e
       -0.16845591 0.13094005 0.20126088 0.1429112
000050 e2 9c 27 3e 06 85 10 bd d4 3a 7d 3e 57 39 de bd
       0.1636844 -0.03528311 0.24729472 -0.108507805
000060 e6 c5 6c 3e e5 e5 56 3e 17 71 7c 3c b8 a8 cc bd
       0.23122367 0.20986135 0.015407822 -0.09993118
000070 bd 60 64 be 44 0a ad 3e 34 cc 85 3e 55 fe 03 be
       -0.22302528 0.33796895 0.26132357 -0.12889989
000080 81 ec 89 be ef 83 00 3f e5 99 cd bd 93 03 ca 3e
       -0.2693825 0.50201315 -0.10039119 0.39455852
000090 e1 12 96 3e 65 38 58 3d e9 eb 14 3f 56 09 9d 3e
       0.29311278 0.052788157 0.5817247 0.30671185

lstm.bias_hh_l1 f4 [40]
000000 4e 63 86 bd 8f 56 88 3e a5 e7 a0 bc 8a ce 8c 3d
       -0.065619096 0.2662854 -0.019641707 0.06875332
000010 c8 e8 c5 3e 64 48 b9 3e d9 3c 63 bd 72 04 55 be
       0.3865416 0.36188042 -0.05547795 -0.20802477
000020 3f 87 24 3e db 86 03 3f 45 f1 10 3d 13 3b c0 bd
       0.16067217 0.5137765 0.035386343 -0.093862675
000030 f0 15 45 be b9 bf 19 3e 05 3e 40 3d 2e 0c 07 be
       -0.1924665 0.15014543 0.046934146 -0.1318824
000040 35 4b 0c 3e fe 30 ae 3d fa af 6f be da a2 6d be
       0.13700564 0.08505438 -0.23406973 -0.23206654
000050 69 b9 1c be f9 c0 10 3e 7e 0b 76 3e 8a 28 11 be
       -0.15305103 0.14136113 0.24027821 -0.1417562
000060 c4 a8 89 3d ce 34 04 be 00 8d 9c be 9f 32 75 bc
       0.067216426 -0.12910768 -0.30576324 -0.014965682
000070 ae 64 a0 bd 0e 8e 47 3e d6 b8 26 3e f1 73 32 be
       -0.07831703 0.19487783 0.16281447 -0.1742704
000080 5e 6c 45 3e d4 6a 33 bd 9e b7 a9 3e 04 e5 e9 3d
       0.1927962 -0.04380305 0.331479 0.114206344
000090 80 5d 04 be 70 15 c1 3e 02 99 b0 3e 20 b5 c9 3e
       -0.12926292 0.37711668 0.34491736 0.39396

lstm.weight_ih_l2 f4 [40, 10]
000000 ce a0 84 3e e9 0b 84 3e 7d f1 93 bd f5 5f 8c 3b
       0.25903934 0.25790337 -0.072237946 0.0042839
000010 96 1f 48 3d 44 c1 fb 3e 40 39 39 3d 7c e8 b6 be
       0.048858248 0.49170887 0.045220613 -0.35724247
000020 fa 55 35 3e dc 43 a4 bb 55 47 47 be bd 73 0c be
       0.17708579 -0.0050129723 -0.19460805 -0.13716026
000030 f6 45 12 3e cd 83 4e be b1 91 9b 3e d3 d6 9e be
       0.142845 -0.20167466 0.3038459 -0.31023273
000040 96 e4 89 bc 21 3b ae bd 8f 18 a6 bd fd 07 a0 3e
       -0.016832631 -0.08507372 -0.08110153 0.31256095
000050 68 8e 03 be 3c c9 0e 3e dd 82 db bc a2 0d 90 3e
       -0.12847292 0.13943952 -0.026795799 0.281354
000060 20 3d 4b be e2 44 98 3d 2b 29 05 3f ec 27 9d 3e
       -0.19847536 0.07435013 0.5201594 0.3069452
000070 8e a6 ae 3e e0 25 fb bc 46 4f c2 3d 38 44 81 bd
       0.34111446 -0.030657709 0.094877765 -0.0631184
000080 b1 0c 37 3e 6d 9f bb be 44 42 f9 3d 54 37 2f 3f
       0.17875935 -0.3664507 0.12170842 0.684438
000090 a7 d3 d2 be 81 e3 93 be 18 b5 bc be eb af 1b be
       -0.41177103 -0.2888451 -0.36856914 -0.15203826
0000a0 26 82 d2 bd 1e 18 04 ba ea c7 ae b9 73 28 40 bc
       -0.1027873 -0.0005038994 -0.00033336814 -0.011728394
0000b0 48 ae 25 be 94 ab b3 3d 58 da 4e be 82 dd 5f 3e
       -0.16179764 0.0877296 -0.20200479 0.21861842
0000c0 27 15 4d 3d c9 cd b7 be 56 5a 82 3e 8f 1a 63 be
       0.050069 -0.3589919 0.25459546 -0.221781
0000d0 a9 00 82 3e f0 aa 5d be 5e c9 08 bd 64 2b 0e 3f
       0.2539113 -0.21647239 -0.033395164 0.5553496
0000e0 7a 33 9a be 88 44 9e be f9 da 4f 3c 61 d3 f3 3d
       -0.30117399 -0.3091166 0.0126864845 0.11905552
0000f0 b1 96 56 be 7f 59 c3 3c e4 92 9c 3e 5a ef a5 3e
       -0.20955922 0.023846386 0.3058082 0.32409173
000100 07 c5 70 3e 47 0d c2 3b b5 72 e7 be 53 14 04 3e
       0.2351266 0.005921993 -0.45204702 0.12898378
000110 d6 9a 23 bf 49 13 26 3e f5 9d ad 3e d5 b5 12 3f
       -0.63908136 0.16218294 0.33909574 0.57308704
000120 1f 9d 6e 3d 0b 3c 9d 3e 0b 41 b3 3e 0a 59 93 3e
       0.05825531 0.30709872 0.3501056 0.2877887
000130 46 b4 2d be 78 03 8b be 48 e2 2a bf 37 03 9b 3e
       -0.169633 -0.27151084 -0.6675153 0.3027589
000140 94 fb 25 3e 53 57 82 be db fe 62 3e bd b0 b1 3d
       0.1620925 -0.25457248 0.22167532 0.08676288
000150 b6 8a c5 bd 4f 11 cf be 42 49 2f be 5f 0c b1 3e
       -0.09645598 -0.40442893 -0.1711779 0.3457975
000160 27 09 5a be f7 c6 5e be a9 2e 0c 3f 2c bc b5 3e
       -0.21292554 -0.21755587 0.547587 0.35495126
000170 47 c5 09 3f ca aa 23 bf 34 c0 4a 3e 31 17 58 3f
       0.53816646 -0.6393248 0.19799882 0.8441039
000180 dd 98 9a be 8b 54 b3 be 3d 4c 91 be a5 0d ce 3e
       -0.3019475 -0.3502544 -0.28378478 0.40244785
000190 6b e9 95 bc f5 61 06 3e 16 8c 85 3e ff 46 08 bf
       -0.018299779 0.13123305 0.2608344 -0.5323333
0001a0 61 6b 17 3d 59 02 08 3f e4 cd f0 bd 0f df de bd
       0.03696764 0.5312858 -0.117580205 -0.10882389
0001b0 c5 ca 8a bd 2b d3 8b bd 58 27 3b be 32 10 b1 3d
       -0.067769565 -0.068273865 -0.18276727 0.08645667
0001c0 89 45 23 bd 4a 5e 8c bd c7 69 38 3c a9 d0 f2 3d
       -0.039861236 -0.06853922 0.011255688 0.11856205
0001d0 da 5b 16 be a2 7b 38 bd a1 7d f9 3b 5e c8 c9 3c
       -0.14683476 -0.04503978 0.007613853 0.024631675
0001e0 0e d5 02 3c 21 45 61 3e 2a 2b 72 3e 0b 78 11 3e
       0.0079853665 0.21999027 0.23649278 0.14205949
0001f0 72 1e 43 3e 6e da fd 3d 6f 66 a1 3d 11 96 3b bd
       0.19054583 0.12395178 0.07880866 -0.04579741
000200 b1 80 0f 3f a9 fe 93 3d a9 86 f8 3c e6 e7 bd be
       0.5605574 0.07226307 0.030337648 -0.37090987
000210 60 08 a6 bd 5d 94 7f bf c1 38 a5 be ee 20 4c 3f
       -0.08107066 -0.9983576 -0.32269862 0.79737747
000220 7f 03 a6 be e8 18 d9 3d bd dd ff be 36 20 a3 be
       -0.32424542 0.106004536 -0.4997386 -0.31860512
000230 a5 b2 5c be 79 b0 6e 3e c9 57 7c 3e ad c3 9b 3d
       -0.21552522 0.23309506 0.24642862 0.076056816
000240 70 ca 6c bd b6 e7 8d 3e 7b c0 cc bd d0 19 97 be
       -0.057810247 0.27715844 -0.0999765 -0.2951188
000250 87 47 82 be 5e 52 07 3d 56 5a 4c be fc 82 15 3c
       -0.25445196 0.033037536 -0.19956335 0.009125467
000260 b8 34 9d 3e 94 12 0c bf 32 26 50 3e c5 fa 58 3e
       0.30704284 -0.5471585 0.2032707 0.21189411
000270 8c 70 01 3e 06 8b 19 bd 44 e1 86 bc 10 85 a6 bd
       0.1264059 -0.0374861 -0.016464837 -0.081308484
000280 a9 67 37 3e 58 82 57 3e e2 24 80 3d 3a c2 d4 3d
       0.17910637 0.21045816 0.06257035 0.10388608
000290 18 eb 86 3d d8 a0 11 3e f6 03 c1 be 83 3d 6b 3e
       0.06587809 0.14221513 -0.37698334 0.22972684
0002a0 6a eb 7b be c1 aa 23 3e 55 41 5e be 42 b3 5e bd
       -0.24601522 0.15983106 -0.2170461 -0.054370172
0002b0 62 11 9c bd ba a2 6f 3e b4 19 be 3e b7 d7 73 3e
       -0.07620503 0.23401919 0.37128985 0.23812757
0002c0 6c a3 bf be a6 90 1a 3e fe e3 05 bf 0b a0 59 3e
       -0.37429368 0.15094241 -0.52301013 0.21252458
0002d0 9b aa fb bd 5f c4 15 3e 76 a1 e1 bd 15 c4 a1 3e
       -0.122884 0.14625691 -0.11017124 0.3159491
0002e0 08 7b 9d be c3 c4 9f 3d 1f 35 ff 3d e4 8a 5d 3e
       -0.30757928 0.07801201 0.12461304 0.21635014
0002f0 0b 12 62 be 77 e9 aa 3e 68 c3 17 bf d2 91 e6 be
       -0.22077195 0.33381245 -0.5928254 -0.45033127
000300 87 2c 2f 3d d2 12 1e bf b5 e7 a0 bc ea 67 f4 3e
       0.042767074 -0.6174747 -0.019641737 0.4773553
000310 6b ef 61 be 25 d3 f9 3d 2f 0c 5d bd ef 5d 13 be
       -0.22063987 0.12198476 -0.053966697 -0.14391302
000320 e9 23 85 3e 76 cc 22 3e fd 58 3f bc bb 30 49 bd
       0.2600396 0.15898308 -0.011678931 -0.04911874
000330 8b 4f 05 3d d3 b4 7c bd b0 6e ff 3e 36 db b0 3e
       0.03254656 -0.061695885 0.49889135 0.34542245
000340 41 58 81 3e 59 6e 1b 3b 35 02 2d 3e 5e 9c 19 3e
       0.25262645 0.0023716895 0.16895373 0.15001056
000350 37 80 40 bc a7 03 63 be 17 bd 71 be 44 fc 03 3e
       -0.011749319 -0.22169362 -0.23607288 0.128892
000360 6f d8 87 3d 37 61 a9 be 4d c6 c4 3e 8d 7c 11 be
       0.06633078 -0.33081982 0.3843254 -0.14207669
000370 a2 dc f8 3d 34 5e 35 3e 7a 89 37 3e 3f 1c 75 3d
       0.12151457 0.17711717 0.17923537 0.05984139
000380 e0 2e 27 3e 9e 1c 30 3e 21 fc 83 3e 46 23 78 bd
       0.16326475 0.17198417 0.25778297 -0.060580514
000390 a3 f6 8a 3e 57 0b 47 3e 70 28 7b 3c 47 c6 a1 be
       0.27141294 0.1943792 0.015329465 -0.31596586
0003a0 b6 c2 af bd b0 04 22 be 17 81 16 3e 2b de 14 3f
       -0.0858206 -0.158221 0.14697681 0.581515
0003b0 fd 17 65 be 8d 9a 19 be 03 f2 0c bf e1 06 1b bd
       -0.22372432 -0.15000363 -0.5505678 -0.037848357
0003c0 34 b4 ac 3d 72 62 76 3c 47 14 6b 3d 8b 29 b0 3e
       0.084328085 0.01503812 0.057392385 0.34406695
0003d0 79 fd a4 be e1 64 77 3e 29 e4 38 be af 7e 11 3d
       -0.32224634 0.24159576 -0.18055786 0.035521206
0003e0 a3 66 5c 3e 58 19 18 3d fe 6a 88 3e ad fc e7 3d
       0.21523528 0.037133545 0.2664413 0.11327491
0003f0 d4 bf 0b bd 1f 6d 19 3e e5 d5 4c 3e f4 6a fa 3e
       -0.03411849 0.14983033 0.2000347 0.48909724

lstm.weight_hh_l2 f4 [40, 10]
000000 61 c4 98 3d 6e 12 1b be 4f 5f 87 3d 49 43 4b be
       0.07459331 -0.15143749 0.066099755 -0.19849886
000010 87 f3 89 be 85 9e 2d 3e ad f3 25 be 8c df 50 be
       -0.2694361 0.16955002 -0.16206236 -0.20397776
000020 8d 76 8a 3e 35 4e 2e be 53 39 93 3e 4c 89 94 be
       0.27043572 -0.17022021 0.28754672 -0.29011
000030 43 f4 aa 3e 69 6d 3c 3e 04 11 8d 3e ab e1 aa 3e
       0.33389482 0.18401112 0.27552044 0.33375296
000040 bd 33 80 be b6 37 a6 bd b4 02 db bd 64 8d cc bd
       -0.25039473 -0.08116095 -0.10693875 -0.099879056
000050 8e 6c d2 3c 65 2c 66 3e 15 e2 6c 3e 8f e7 33 be
       0.025686529 0.22477873 0.23133118 -0.17568801
000060 ad a1 79 3c 2b bb 2f bc 1e d1 9a 3e 22 17 f8 3d
       0.0152363 -0.010725777 0.3023767 0.12113787
000070 6d 56 5e be 6a ad 36 3e df 2d c2 be 1f 01 b5 3e
       -0.21712656 0.1783959 -0.37925622 0.35352418
000080 95 a6 b7 3d 85 8a 2c 3d a9 35 b5 be a1 0d fc 3c
       0.0896732 0.04212429 -0.35392502 0.030768218
000090 cd c0 eb 3d 2e 40 08 bf 9f 1a 53 be 4c 8f 9f 3e
       0.11511383 -0.5322293 -0.20615624 0.31164014
0000a0 a7 91 74 3d 46 7c 6e 3e 38 7e 4a be 12 59 b9 bd
       0.059709217 0.23289594 -0.19774711 -0.09050192
0000b0 5c cc 70 3e af 75 d4 3d df 85 9c 3e 5a d8 7a 3e
       0.23515457 0.10374009 0.30570886 0.24496594
0000c0 18 94 e4 bd 11 f2 30 3e d5 8a 36 be 65 d7 1e be
       -0.11161059 0.17279841 -0.17826398 -0.15511854
0000d0 0c 4e 7c 3e cd 43 45 3d 0a a6 a3 be 79 f8 a6 3e
       0.24639148 0.048160363 -0.31962615 0.32611445
0000e0 0e a3 5c 3d a5 b4 2b be 7d dc 98 be fe e7 d9 3e
       0.05386644 -0.16768129 -0.2985572 0.42559808
0000f0 33 af 68 3e 1c 70 6e 3e 72 3e 63 be 49 aa a4 3e
       0.22723083 0.23284954 -0.2219179 0.32161167
000100 70 68 26 3e 1f 9b c3 3e ab 69 42 be 11 c0 92 3e
       0.16250777 0.38204286 -0.18985622 0.2866216
000110 6b d0 ad 3a ba ab a0 bd 97 f0 78 be ab f4 f2 bd
       0.0013260966 -0.07845254 -0.24310528 -0.11863073
000120 0c 2c 5c be d8 25 f7 3e a2 50 93 3d fe c5 9a 3e
       -0.21501178 0.4827106 0.07193114 0.3022918
000130 e5 f8 6d 3e 31 42 bb 3d ea f8 bc bd 65 63 58 3d
       0.23239477 0.091434844 -0.09227164 0.052829165
000140 a9 4d 19 3e 08 a4 5d be 0d ed 09 3e ee a2 4a 3e
       0.14971031 -0.21644604 0.13469334 0.19788715
000150 a3 f1 ab 3d 49 49 99 3e bb ea 70 3e 57 a4 85 3e
       0.08395698 0.29938725 0.23527043 0.26101944
000160 58 8c 9b bd a8 3e 8e be cb 68 0e be f9 87 d9 3e
       -0.07595128 -0.27782178 -0.13907163 0.4248655
000170 9e ad d8 3e e1 bc 83 3d 8b f9 07 bf 3b bc c7 3d
       0.4231996 0.0643251 -0.5311515 0.09752699
000180 cf 6f ed 3e fa 1e 4a be 45 a3 5c be e4 81 7e 3d
       0.46374366 -0.19738379 -0.21546657 0.062135592
000190 2c 32 78 3e 70 8d 9d bd 11 e7 23 3e 8a 93 3f be
       0.24237889 -0.07692993 0.16006114 -0.18708625
0001a0 71 eb 99 be 64 da 00 be e5 66 b4 be 57 58 2f bd
       -0.3006244 -0.1258331 -0.35234752 -0.042808857
0001b0 f8 bd a6 be b0 c2 c5 bd 40 19 56 be 91 2c 6c be
       -0.3256681 -0.09656274 -0.2090807 -0.23063876
0001c0 a4 ce eb bc 34 73 f6 3c f0 bc 34 bd 36 13 4e 3d
       -0.028785057 0.03008423 -0.044125497 0.05031129
0001d0 0f 10 a0 3d 7d 07 93 3e 4b 5f 98 3d 20 c5 6f be
       0.07815563 0.2871665 0.07440051 -0.23415041
0001e0 18 49 79 3e 96 e6 01 3c 65 ce ce bd ba 87 f6 3d
       0.2434429 0.007928511 -0.100979604 0.120376065
0001f0 9d 1c 0d be 43 e2 87 3e 18 89 64 3e 5a 0b 27 be
       -0.13780446 0.26539811 0.22317922 -0.16312924
000200 3e a1 81 be 9b a7 ab bc 3f 05 11 3c 36 0f d6 3e
       -0.2531833 -0.020953944 0.008851348 0.4180848
000210 2e 15 9d 3e ef ad a6 3d 5b 7b d1 3d 94 b2 5a be
       0.3068022 0.08138644 0.10228606 -0.21357185
000220 2f cf 2c be 61 ea e6 3d 4d a9 c3 3e e1 00 9e bd
       -0.1687591 0.11275173 0.38215104 -0.077150114
000230 36 3b 91 3e 75 f9 9f 3e 02 76 42 3e c0 b0 1a 3c
       0.28365487 0.31245008 0.18990329 0.009441555
000240 b8 d6 f5 bd 5c e3 0a 3e 91 8b 88 3e 74 36 92 be
       -0.12003845 0.13563293 0.2666898 -0.2855717
000250 ee 7d ed 3d 13 49 58 be ce f3 05 3d 34 45 9e 3e
       0.11596285 -0.21121626 0.032703213 0.30912173
000260 b2 55 f9 3d a7 84 94 3e 25 51 d8 3d 72 d2 a9 3c
       0.12174548 0.29007456 0.10562352 0.020730231
000270 36 a1 f7 bd 43 f2 4d 3d 2c 08 87 3e f5 da 4e bd
       -0.120912954 0.050279867 0.26373422 -0.050501782
000280 96 04 82 be cb 0d 63 3d 98 a6 3b 3e 16 df b9 3e
       -0.25394124 0.055433076 0.18325269 0.36303014
000290 57 cf db 3c 77 ac a9 3e 7d 15 29 3e 6f 13 32 be
       0.026832266 0.33139393 0.16512103 -0.17390226
0002a0 ac c6 d7 3d 55 83 0a bf 34 e9 a2 be 2d 00 cf bd
       0.105359405 -0.54106647 -0.31818545 -0.101074554
0002b0 50 1d 72 3e 3a 74 1b 3e a1 7d 77 3c 15 a8 8c 3d
       0.23643994 0.15181056 0.015105636 0.068679966
0002c0 a8 74 80 3e 15 d8 98 bd 80 0a af be 2d 6a da be
       0.25089002 -0.074630894 -0.34187698 -0.4265913
0002d0 a5 fe 11 be 63 78 98 be ca 17 80 3e ec 82 cd bc
       -0.14257295 -0.29779348 0.2501815 -0.025086842
0002e0 49 e5 cb bd 5d 79 81 be 1f 3d 7d 3d 40 77 9d 3e
       -0.09955842 -0.25287905 0.061825868 0.30755043
0002f0 d9 24 6f 3e 01 93 54 be 5e a0 8f bd 11 4e 20 3f
       0.233539 -0.20759203 -0.070130095 0.6261912
000300 af 80 16 3e 63 3b 01 bf d8 17 10 3e d2 60 91 3d
       0.14697526 -0.5048124 0.14071596 0.07098545
000310 9a 93 3f 3d 19 49 85 3d c0 a1 0f 3d 4e 34 4d 3e
       0.046771623 0.06508083 0.035066366 0.20039484
000320 4f bf 5a bd e8 0e 71 3e d7 e5 d4 3c ea fb a2 3d
       -0.053405102 0.23540843 0.025988502 0.07958205
000330 62 46 9d 3e 8d d8 ee bd e0 97 1e 3e 93 90 21 3e
       0.3071776 -0.116623975 0.15487623 0.15777807
000340 58 28 14 bd 9c cb 84 3d 36 46 f3 3d da 50 1a be
       -0.036171287 0.06484148 0.11878626 -0.15069905
000350 87 8f 8b 3e cc 1a 09 bd 92 55 23 3e 25 8d 04 be
       0.2725794 -0.03347282 0.15950611 -0.12944467
000360 98 19 b8 3d f1 2f 06 bf ec 99 2a 3d d0 1e f4 3c
       0.089892566 -0.524169 0.041650698 0.029799849
000370 9b 83 3f be bd 36 8a 3e cf 87 77 be ee 39 94 3e
       -0.18702547 0.26994887 -0.241729 0.28950447
000380 5f 6c a2 3d a4 60 b0 3d 4d 71 0c bd 26 d3 82 be
       0.079308264 0.08612183 -0.03428774 -0.25551718
000390 d4 ac 8f 3e 14 92 28 bc 47 cf 41 3e 8a fe 42 be
       0.28061545 -0.010288734 0.18926726 -0.19042411
0003a0 53 e8 98 bd 1a dc 88 3d d8 07 a3 3e dc ca 52 be
       -0.07466187 0.06682606 0.31841922 -0.20585197
0003b0 9e b1 4c be e2 40 8c be 06 f9 39 be 03 7a a3 3d
       -0.1998963 -0.27393252 -0.18161401 0.07982256
0003c0 10 bb 64 3e 16 a9 9b be f0 e5 4f be 98 35 aa bc
       0.22336984 -0.3040244 -0.20302558 -0.020777509
0003d0 86 c9 0e be 8f 85 11 3e 80 87 94 be a1 ce 3a 3e
       -0.13944063 0.14211105 -0.29009628 0.18242885
0003e0 f7 6c 6d be 4d bd 19 3e 8a d4 a7 be 53 87 cc 3d
       -0.23186098 0.15013619 -0.32779342 0.099867485
0003f0 10 b5 4a be ff 22 5c 3d d6 c2 a1 be 4d 06 2e 3e
       -0.19795632 0.053744312 -0.3159396 0.16994591

lstm.bias_ih_l2 f4 [40]
000000 9b 03 2e bd de 14 13 be a4 fe 94 3d 95 63 09 3f
       -0.042483907 -0.14363429 0.07275131 0.53667575
000010 b2 b9 09 3e e0 22 94 bd 44 62 8b 3e 0f 88 22 3e
       0.13449743 -0.072332144 0.27223408 0.15872215
000020 4a 63 19 be 9b ee 00 3f 81 a8 8e 3e 9c f9 9e 3e
       -0.14979282 0.50364083 0.27862933 0.31049812
000030 2d dc aa bd d7 f9 cb 3d d2 37 a6 3e c5 89 a3 3e
       -0.083427764 0.099597625 0.32464463 0.31941047
000040 dc 04 b9 3d c4 2b b1 bc 2e 8d 82 3e 01 5c 62 be
       0.0903413 -0.021627314 0.25498337 -0.22105409
000050 84 b7 24 3e 52 19 28 3e a3 11 91 3c 89 ba 43 3e
       0.1608563 0.16415909 0.017708605 0.19114126
000060 7e 44 a2 be 30 ea a0 3d d6 7e ea 3d 50 00 5a be
       -0.3169288 0.07857168 0.11449973 -0.21289182
000070 85 31 67 be c2 d6 a3 be a2 7e a2 3e 38 50 fb 3b
       -0.22577484 -0.31999785 0.31737238 0.007669475
000080 06 b3 a8 be 9f 04 1e 3c 6d e3 5b bd e5 e0 15 3e
       -0.32949084 0.009644656 -0.053683687 0.14636572
000090 fc e1 34 bd cf db da 3e e5 1a 5f be b8 88 59 3d
       -0.044160828 0.42745826 -0.21787603 0.0531089

lstm.bias_hh_l2 f4 [40]
000000 f8 a8 c8 3e 9f 08 64 3e 29 83 08 bd f8 72 9a bd
       0.39191413 0.22268914 -0.03332821 -0.0754146
000010 5e 86 3b 3e 58 aa 2b be a2 8a 3d 3e c2 df 50 bc
       0.18312976 -0.167642 0.18509915 -0.0127486605
000020 3e 40 c4 bd a2 42 2d 3f 6c 03 13 be b9 b8 43 be
       -0.09582566 0.676798 -0.14356774 -0.19113435
000030 c9 07 cd bc bb c1 3e 3e 0c ae 17 bd c0 7a 85 3e
       -0.025028126 0.1862859 -0.03703122 0.26070213
000040 15 e5 6e bd b5 13 38 3d 36 58 cc bc 73 7a 78 bd
       -0.05832394 0.04494067 -0.024944406 -0.06066365
000050 6f d4 b5 be dc ad 91 be a4 be 8b 3d e2 a0 ed bd
       -0.35513636 -0.28452957 0.06823471 -0.116029516
000060 45 d7 0f be 77 ec 79 bd 81 d9 b4 bc 42 4e 2e bc
       -0.14046963 -0.061016526 -0.02207637 -0.010638775
000070 65 d6 6c be 35 14 5c 3e ea de f3 bd 09 76 8b 3e
       -0.2312866 0.21492083 -0.11907752 0.2723849
000080 e2 13 93 be 27 22 6e 3e 23 8e 2c be 16 75 96 bc
       -0.28726107 0.23255216 -0.16851096 -0.018366378
000090 21 67 d9 bd d1 14 5a 3e 4d eb 05 3e 21 28 02 3f
       -0.106153734 0.21297003 0.13078041 0.5084248

fc.weight f4 [1, 10]
000000 23 ba b5 be 3b ca b2 3d 7b 11 80 be 58 60 d6 3e
       -0.35493574 0.08729979 -0.25013337 0.4187038
000010 94 82 9e 3c 4d 13 a8 3e 58 e9 c6 bc a8 70 0d bf
       0.019349374 0.32827225 -0.024281189 -0.55250025
000020 26 f0 66 3e 09 e0 e3 be
       0.22552547 -0.44506863
