ec_l2o_log/mtl_0.5_1_1_0.1/lstm_unroll.pth (torch, 13115 bytes, 13 tensors)

lstm.weight_ih_l0 f4 [40, 2]
000000 ce a1 29 3f 65 96 39 3e a8 86 cc 3e 6c b1 8c be
       0.6626252 0.18123777 0.39946485 -0.27479112
000010 74 2f 12 3f 22 ec 89 3e 72 3c a8 3e e6 82 6b bc
       0.5710366 0.26937968 0.32858616 -0.01437447
000020 f5 e5 94 3e 28 0d 66 bd 84 41 72 3e fb ae 12 3f
       0.29081693 -0.05616489 0.23657805 0.5729825
000030 05 60 95 3e dd bd 9f 3e 73 4a cf 3e 7b e5 15 3d
       0.2917482 0.31199542 0.40486488 0.036595803
000040 67 27 c6 3e 17 31 31 3d c8 36 14 3f bd 87 dd 3e
       0.38701937 0.043259706 0.5789609 0.43267623
000050 8c 1e f2 3c 1d f1 9c 3e 69 90 74 be 5c 8c 40 3c
       0.029555582 0.30652705 -0.23883213 0.011752214
000060 da d5 34 be 98 41 a2 3e cc 9a 09 3e 41 3f e3 3e
       -0.17659703 0.3169067 0.13437957 0.44384196
000070 9c 87 96 bd b3 3e 91 be c3 50 c0 3e fb b8 23 3e
       -0.07350084 -0.28368148 0.37561616 0.15988533
000080 64 21 4d be 0a 76 80 be 42 d4 2f 3e ef ea 1a 3d
       -0.20032269 -0.25090057 0.17170814 0.037821706
000090 5f 79 b3 3e 06 95 9d 3e 3b c0 07 3e 83 1a 96 3d
       0.35053536 0.30777758 0.13256924 0.073292755
0000a0 bd c9 68 be 89 5e 18 be 7b b7 05 3e 66 5e 0a bd
       -0.22733207 -0.14879812 0.13058273 -0.03378143
0000b0 96 44 1b be 75 e8 11 3e b6 38 f5 be 60 3c 0c be
       -0.15162882 0.14248832 -0.4789483 -0.13694906
0000c0 63 5d 26 3c 2d 4d 69 3e 4a b2 e5 be f5 ad b1 be
       0.010154101 0.22783346 -0.44862586 -0.3470303
0000d0 08 ae f9 be 07 e1 be be ad c4 b1 3e 52 50 a8 3e
       -0.48765588 -0.37281057 0.34720364 0.3287378
0000e0 0a e5 5c 3e 9a e8 d3 3e 10 bf e1 3e f8 dd 90 bd
       0.21571746 0.41388398 0.44091082 -0.07073587
0000f0 f0 b9 b7 3e da 09 8b 3e 20 19 1e be 47 ff 72 be
       0.35884047 0.27155954 -0.15439272 -0.23730193
000100 24 b1 a7 3e 5e 74 72 3e 55 65 f2 3e 07 dd a1 3e
       0.32752335 0.23677203 0.47342935 0.31613943
000110 b9 96 4c 3c e3 19 9d be 1d 81 bb 3e 49 2f 4b 3f
       0.012487107 -0.30683812 0.36621943 0.79369026
000120 65 0b 0e 3f ad da cb 3e 81 4e 99 3e f2 f0 00 3f
       0.55486137 0.39815274 0.29942706 0.50367653
000130 69 3d b9 bd 11 53 6b be 4b 52 53 3d 0c f8 9d be
       -0.09044916 -0.22980906 0.051592153 -0.30853307

lstm.weight_hh_l0 f4 [40, 10]
000000 1b b6 77 bd 8f cb 8c 3e f8 aa 94 be 66 cd 60 be
       -0.060476404 0.27499053 -0.2903669 -0.21953353
000010 c4 da 95 3e 32 45 9a 3c d5 46 c4 be 32 d4 d0 3e
       0.29268467 0.018831823 -0.3833529 0.40786892
000020 20 0a 5f bd a5 dd 35 bc 6d 9f b1 bd c7 40 aa 3e
       -0.054453015 -0.011100207 -0.08672986 0.33252546
000030 6f b7 ba bb 9f 8c 17 bd e8 d8 54 3e 4a 28 37 3e
       -0.0056981365 -0.03699934 0.20785868 0.17886463
000040 f5 70 d4 bd f1 95 40 3e 3b 31 94 bd aa 04 37 3e
       -0.10373107 0.18807198 -0.072359525 0.17872873
000050 b1 4c c7 be aa c1 02 3d 4d 2a 47 3e 0c 2f a3 be
       -0.38925698 0.031922974 0.1944973 -0.3187183
000060 3c 4f 54 3d 0b 95 44 3e 09 25 ca 3d 4e c3 1d be
       0.051833376 0.1919748 0.09870345 -0.15406534
000070 38 b8 3c be e8 02 bc 3e 05 7d 01 be 81 84 81 3c
       -0.18429649 0.36720967 -0.12645347 0.015810253
000080 ea 2b 8e be 6c 39 a9 be 0e f4 51 3e 65 97 a2 be
       -0.2776788 -0.33051622 0.20503256 -0.3175613
000090 41 4d 0b be bb da 37 be 3c 9b 2e be 9e 96 1b be
       -0.13603689 -0.17954533 -0.17051405 -0.15194175
0000a0 36 0e 74 be 2e 06 5f 3e ff 15 0e be 3f bf 91 be
       -0.23833546 0.21779701 -0.13875578 -0.28466222
0000b0 09 20 06 3e a6 ef ff bd e4 0c 21 bd de c7 4d 39
       0.13098158 -0.12496881 -0.039318934 0.0001962478
0000c0 9f 08 bd 3e e4 77 0b be ae 71 a0 3c 56 10 ab 3e
       0.3692064 -0.13619953 0.019585457 0.334109
0000d0 ec ed e5 bd f9 e1 e0 be e6 eb e7 bc 26 6b 63 be
       -0.112270206 -0.43922403 -0.028310727 -0.22208843
0000e0 d8 ec 50 be 05 7b 05 bc d9 64 de 3d dd f2 f2 3e
       -0.20402849 -0.008147006 0.10859079 0.47450915
0000f0 57 02 bd bd b5 d0 07 3e b8 b3 2f bc a1 5b 25 be
       -0.09228962 0.13263209 -0.010724001 -0.16148235
000100 c9 d4 e2 3e 28 59 bf be 9a 62 3b 3b da 86 42 3d
       0.44302967 -0.37372708 0.0028592707 0.047491886
000110 0a cf c1 3d 4d 7e fd 3e 09 ed 9d 3d 31 00 a6 3c
       0.09463318 0.49510422 0.077112265 0.020263763
000120 2a ba 39 be dd a5 ab be ec 5d a4 3d 08 4e 1e be
       -0.18137422 -0.3352498 0.08025727 -0.15459454
000130 09 df 90 be dd 12 ab 3e 28 06 4b be 45 9d fa 3d
       -0.28295162 0.3341283 -0.19826567 0.12237028
000140 11 d7 02 be 56 41 0e be 4d 88 14 be 0f 12 87 be
       -0.12777354 -0.13892111 -0.1450512 -0.26380965
000150 65 22 f7 bd e3 78 d8 3c d8 15 a2 be 09 42 90 3e
       -0.12067107 0.02642483 -0.3165729 0.2817538
000160 ef 77 49 3e a2 f4 5b 3e fe 5b 01 3e 5e 15 9b 3e
       0.19674657 0.21480039 0.12632748 0.3028974
000170 74 66 82 be ec 2a d7 bd dc a7 c4 3e 6f 9a 0d bc
       -0.2546879 -0.105062336 0.38409317 -0.008642777
000180 35 78 c3 bd e4 d9 d1 3e 8f c7 e4 3e d3 d2 21 3c
       -0.09544412 0.4098655 0.446835 0.009876925
000190 d6 c7 0c bc 3b 62 1a 3e 29 fc 8c be 49 6a d0 be
       -0.0085925665 0.15076534 -0.27536133 -0.4070609
0001a0 18 29 58 3e 8c 7c 83 bd b7 db c4 3d 07 0c 8b 3e
       0.21109426 -0.0642024 0.0961222 0.27157614
0001b0 a7 3a 36 3d ca 32 d1 3e 37 03 f6 bd 66 fc 00 3e
       0.04448953 0.4085906 -0.12012332 0.12596282
0001c0 2d cc 9a 3d 57 98 23 be 78 93 39 3e c3 39 92 be
       0.07558475 -0.15976082 0.18122661 -0.28559694
0001d0 ba a6 46 3c 0c 7f 8b bd 3b 07 89 3e 41 c6 d7 bc
       0.012124712 -0.06811342 0.2676333 -0.026339652
0001e0 55 d2 c9 be 9e d2 b2 3e 85 53 88 bb 50 2f 55 be
       -0.39418283 0.34926313 -0.004160347 -0.2081883
0001f0 bd 37 50 be 28 66 83 bd e6 52 12 be c9 7c d9 3d
       -0.20333762 -0.06415969 -0.14289436 0.10619504
000200 66 52 5a 3d 3d 2e 97 3e 3a f4 6b be 3d 13 4a 3e
       0.053301238 0.29527465 -0.23042384 0.19733901
000210 d5 0e be be 4b 3f 3f be 17 37 cc bd d6 0c 55 be
       -0.3712069 -0.18676488 -0.09971445 -0.20805678
000220 e0 91 85 be e6 ef bc 3e 5e ca a2 3e 41 c3 7a 3d
       -0.26087856 0.36901778 0.3179502 0.061221365
000230 f7 f5 be 3d ad e1 85 3e 0b da 2f be 1e 44 60 3e
       0.09324258 0.2614874 -0.1717302 0.21900985
000240 eb 87 8f 3d 18 d7 45 bd 6c f7 30 be a7 7a 4a be
       0.07008346 -0.048300833 -0.17281884 -0.1977335
000250 47 f1 44 be d7 06 82 bd d3 d7 94 3e e7 22 b6 3d
       -0.19232665 -0.06348961 0.2907091 0.08893376
000260 31 d3 ca bd cf 2c 71 bd 69 71 86 bd ab af aa 3d
       -0.09903563 -0.058880623 -0.065646 0.08334287
000270 ad e9 3b 3e 09 4d a7 bd d1 86 86 3e 17 60 6c 3d
       0.18350859 -0.0816899 0.26274732 0.057708826
000280 69 62 78 3d e5 1a e0 3c 19 c0 9d be ce 7c 52 bc
       0.060640726 0.027356574 -0.3081062 -0.012847139
000290 48 e9 47 3c f8 c0 71 3d 7a 56 3f be 94 92 07 be
       0.012201615 0.05902192 -0.18685332 -0.13239509
0002a0 53 33 af 3e e7 00 88 3d 63 da a7 be 25 c2 0c 3c
       0.34218845 0.06640797 -0.32783803 0.00859121
0002b0 6a 47 96 3d 08 ef c5 bd 64 7f d1 3d 29 ba e3 3d
       0.0733784 -0.09664732 0.10229376 0.111194916
0002c0 fa 70 16 3e 15 0b 52 3e 9c de ec 3d 1c dd b3 3e
       0.14691535 0.2051204 0.11565897 0.3512963
0002d0 4f 30 c5 be 7a 7e d1 3e ae 09 64 be 46 28 74 be
       -0.3851342 0.40916806 -0.22269318 -0.23843488
0002e0 fc 78 ca bd 11 6d b9 be d0 08 9f bd 34 ae 89 3e
       -0.09886357 -0.36216024 -0.07765353 0.2689072
0002f0 62 55 85 3d 21 ff 42 bd eb d4 c7 be 03 56 e7 3e
       0.06510426 -0.04760659 -0.3902963 0.4518281
000300 07 ed 57 be 0e 32 37 be 28 ef a5 3c 5f 53 93 be
       -0.21086513 -0.17890188 0.02025564 -0.28774545
000310 7a 68 de 3d 08 e6 5a 3d 94 00 aa 3c 9d 30 f6 3e
       0.10859771 0.05344203 0.020752229 0.48083964
000320 d4 96 9e bd 2b 40 18 3d c6 81 2b 3e 76 e9 c7 3e
       -0.07743612 0.03717057 0.16748723 0.39045304
000330 02 21 78 bd fa 79 9a 3e 60 cd 21 3e d0 92 be be
       -0.060578354 0.30171186 0.15801 -0.37221384
000340 68 b6 4a be fe 68 91 3c b9 3f 0b be 1e 42 b1 3e
       -0.19796145 0.01775026 -0.13598527 0.34620756
000350 66 08 84 3d 23 5e 7f be 26 aa 63 bb 60 9b 46 bd
       0.064469144 -0.24938254 -0.0034738868 -0.04848802
000360 94 34 97 be 6c 46 0d bd 56 1b 3e bc 45 c0 9f 3d
       -0.295323 -0.034490988 -0.011603197 0.078003444
000370 84 e0 98 bd 85 64 9d bd 25 3e c4 3e 8b f1 b4 3d
       -0.07464698 -0.07685188 0.38328663 0.08835133
000380 9b 77 82 be 08 bb 96 bd 26 5c fb bc d1 f7 cf be
       -0.25481877 -0.07359892 -0.030683588 -0.40618756
000390 a3 f3 58 3d 3f 56 5a be de 84 24 be fc 4a a3 be
       0.052966725 -0.21321963 -0.1606631 -0.31893146
0003a0 25 20 8f 3d f7 ef ae 3e 7e c0 aa 3b 25 fc df 3c
       0.06988553 0.34167454 0.005210935 0.027341912
0003b0 e9 a6 19 3e bd fb ae be 54 54 d4 bd ac be 94 bc
       0.15005077 -0.34176436 -0.10367647 -0.018157326
0003c0 1e 36 2a 3d 33 42 ca 3e c7 dd 3b be ce b7 82 be
       0.041555516 0.3950363 -0.1834632 -0.25530857
0003d0 bc 2c 41 3d b3 20 02 be 4c c2 a2 bd 26 18 fd bc
       0.047161803 -0.12707786 -0.079472154 -0.030895304
0003e0 83 59 2a be 69 20 c4 3e 94 a5 7f be 03 fb f3 bd
       -0.16635709 0.38305977 -0.24965507 -0.11913111
0003f0 4b 71 70 be ea 19 91 bb a2 f7 34 be b1 63 6e be
       -0.23480718 -0.004428138 -0.1767259 -0.23280217

lstm.bias_ih_l0 f4 [40]
000000 e3 bc d2 3e 9f 62 32 be 4b 9a ed 3d 28 cb f9 bd
       0.41159734 -0.17420433 0.11601695 -0.12196952
000010 c5 f9 32 3e cc 2e ab 3e dc 97 0a 3e 67 52 3e 3d
       0.17478092 0.3343414 0.13534492 0.046465304
000020 e0 78 ea bc 3e 1d e4 3d b4 cf 2d 3e 0c 3e 29 3e
       -0.02862209 0.1113839 0.16973764 0.16527575
000030 b3 6f b1 3d 9c d9 d5 bd 84 e1 96 3e 01 8f 58 3d
       0.08663883 -0.10441896 0.2946893 0.052870754
000040 91 57 0a bd dd 14 00 3e e0 fd 81 3e f6 f4 d5 3c
       -0.033774916 0.12507959 0.25389004 0.026117783
000050 0d 4b 88 3d fb 66 d3 3e 7f e3 64 be 69 43 cc 3d
       0.0665494 0.41289505 -0.22352408 0.09973795
000060 9d 6f 9d 3d 57 21 af be 97 ec a6 be c4 86 82 3d
       0.07687304 -0.34205124 -0.3260238 0.06373361
000070 e9 4d e7 3d 82 ca 48 3e f0 45 eb 3e 74 b1 40 bd
       0.11294157 0.196085 0.45951796 -0.047044232
000080 1a 8e 92 3e 42 58 c9 bd cf 0b 2a be 5d 09 46 3e
       0.2862404 -0.09831287 -0.16606067 0.1933951
000090 d7 32 f1 3e cc e6 b9 3e b5 2d ca bd 3a b9 b4 3e
       0.471091 0.36308897 -0.09871999 0.35297567

lstm.bias_hh_l0 f4 [40]
000000 f0 9b 4c 3d 83 49 9e 3d 18 c5 66 3e 3b 8c d3 3d
       0.0499534 0.07728865 0.22536123 0.10329481
000010 7b e9 e2 3c 25 49 83 3d 3b 9b 8e 3d 60 19 f0 3e
       0.027699223 0.064104356 0.069632016 0.4689436
000020 6d 90 f6 3d e0 26 ab bd 38 f8 bf 3e cf dd 67 3e
       0.12039266 -0.08357024 0.37494063 0.22643207
000030 99 38 3a 3e 7b 3d 5e 3d 64 52 81 be 79 4e 12 3e
       0.18185653 0.05425785 -0.25258172 0.14287747
000040 be 17 f8 bd 99 5f 97 3e 60 44 35 be ae 32 57 3e
       -0.121139035 0.29565123 -0.17701864 0.21015427
000050 36 9c 44 be 75 ba 1a bd fa 39 dd bd 66 e0 82 be
       -0.19200215 -0.037775476 -0.10802074 -0.25561827
000060 88 6a c2 3e e1 e6 86 3d e1 c2 1d bd 7d 28 81 3e
       0.37971902 0.065870054 -0.03851593 0.25226203
000070 b0 d9 83 3e e7 46 97 bd 12 b6 ae bd f1 54 d7 3e
       0.2575202 -0.073865704 -0.08530821 0.42056993
000080 fb 21 8f 3e 6b 2e 8a 3e 23 3c c0 3d bf 68 0c 3e
       0.27955613 0.2698854 0.0938647 0.13711832
000090 af 48 e4 3d 47 65 54 bc 47 57 15 3e 2b 17 dc 3b
       0.11146676 -0.0129635995 0.14584075 0.006716629

lstm.weight_ih_l1 f4 [40, 10]
000000 57 d4 f7 bc 3b be 5e be 6b 39 46 3c f3 67 6c be
       -0.030252619 -0.21752255 0.01209865 -0.23086528
000010 2c 11 ea 3b 0d 6e 47 3e a7 d4 98 be 1b a0 b2 3c
       0.0071431603 0.19475575 -0.2984974 0.02180486
000020 60 de 7d 3e 0c 2f 96 3e 72 8b ad be ac 9c 73 bd
       0.2479186 0.2933277 -0.3389545 -0.059475586
000030 cc 99 3c be 3c 91 d8 bd ee a1 eb 3e b0 24 b4 be
       -0.18418044 -0.10574576 0.4602198 -0.3518424
000040 e8 3b 11 be 9b 99 2d 3e d3 b1 1b 3e 89 02 d6 3e
       -0.14183009 0.16953127 0.15204553 0.4179881
000050 5d 12 cc be f6 cd 05 bd 0e 91 62 be d3 f0 84 be
       -0.3985776 -0.032667123 -0.22125646 -0.25964984
000060 76 b6 2f 3e 49 47 b5 3c 5d 8e 0d 3d e5 b7 ab 3e
       0.17159447 0.022128718 0.034559596 0.33538738
000070 be 21 12 be fd 6b f5 bb b1 90 1b 3b 01 44 86 bb
       -0.14270684 -0.00748968 0.0023737366 -0.004097462
000080 4a 56 bc 3d 7e e8 8f be 00 10 33 3e 70 c4 07 bf
       0.09196146 -0.28107065 0.17486572 -0.53034115
000090 36 40 8f bd 1d 78 dc 3e b4 b6 c3 3e bd 91 e1 3d
       -0.06994669 0.4306039 0.3822533 0.110141255
0000a0 57 80 98 be c6 b1 18 3e 9a d9 08 3d 12 1b 87 be
       -0.29785416 0.14911565 0.033410646 -0.2638784
0000b0 ed eb 93 3e 2b 5f ee bd f9 2a e4 be 73 cd cd 3e
       0.28890935 -0.116392456 -0.44564036 0.40195808
0000c0 07 34 93 3e 4d 37 f0 3e 9d 42 68 be b1 9b fd 3d
       0.2875063 0.4691719 -0.22681661 0.123832114
0000d0 c0 47 d2 be 6a 90 f1 be 08 c3 89 3e 07 60 09 bd
       -0.41070366 -0.47180492 0.2690661 -0.033538844
0000e0 9a 8d fc be d2 ac 47 3e 17 f7 8d 3c d6 8f 08 3e
       -0.49326783 0.1949952 0.017329736 0.13336119
0000f0 d0 19 33 bd 1b 35 20 bc 7f 62 9b be d5 79 2a 3e
       -0.04372579 -0.009778286 -0.30348584 0.16648038
000100 03 fa 6c 3e 49 18 67 3b 99 df 5e be f6 b3 d6 bd
       0.23142247 0.0035262278 -0.21764983 -0.104835436
000110 4a 30 3a 3e d2 ee b4 3d e7 fb 05 bd ad 80 e1 3e
       0.18182483 0.08834614 -0.032710936 0.44043484
000120 d6 70 b9 be 17 12 ef be fb cb 08 3f de 94 b1 bd
       -0.362189 -0.4669349 0.5343625 -0.08670972
000130 dc 93 e5 bd ee 1e 55 3e 79 ff f4 3c 18 be f6 3c
       -0.112098426 0.2081258 0.029906975 0.03011994
000140 51 e9 c7 be 41 31 bb bd 3c 7c 1f be e7 08 c2 3d
       -0.39045194 -0.09140254 -0.15574735 0.09474354
000150 74 d5 c3 3d 7d 83 7e be da 21 15 be e3 14 07 3e
       0.09562197 -0.24854846 -0.14563695 0.13191561
000160 e4 ab d7 3d 0d 8b 06 3f ef 8c 13 3c 2c c0 f3 3d
       0.105308324 0.52555925 0.009005769 0.11901888
000170 0a b6 b0 be 97 6d e2 be 08 a8 5a 3e b5 7a c0 be
       -0.34513885 -0.44224235 0.21353161 -0.37593618
000180 4d 47 75 bd 4f 6a 33 3e b5 44 17 3c 58 48 ec bc
       -0.05988245 0.17521022 0.00923269 -0.02884309
000190 21 78 b6 3e dc aa a9 3d af d2 ff bd 57 fe f8 bd
       0.35638526 0.08284542 -0.124913566 -0.121578865
0001a0 e1 69 e2 3d 00 ec 5d bc 68 bf 43 bc 22 c9 7b be
       0.11055351 -0.013545036 -0.01194749 -0.24588445
0001b0 d2 06 86 3d cd 97 95 be b7 cf f5 3d af 29 40 3e
       0.065442696 -0.29217377 0.12002509 0.18765901
0001c0 7b 87 2b 3e cd 65 af be 8b 29 89 3e ff 1c 46 3e
       0.167509 -0.34257355 0.26789507 0.19346999
0001d0 31 e3 bf be a5 8a 8d 3e fa 57 2a be d8 6f 24 bd
       -0.3747802 0.2764484 -0.16635123 -0.040145725
0001e0 97 8a 89 bc ad 0b 15 39 cf 79 26 be ac db 9e bd
       -0.016789718 0.00014214097 -0.16257404 -0.07756743
0001f0 79 88 27 bd 24 2c df be f7 f1 30 3e a3 2b cc bd
       -0.040901635 -0.43588364 0.17279802 -0.099692605
000200 ba d0 88 3e c8 6c 69 be 5a c6 75 3e c7 b2 68 3e
       0.26721746 -0.22795403 0.24001446 0.22724448
000210 55 a3 5b be 34 1f 46 bd 19 7b 96 3d 06 2d bd 3e
       -0.21449025 -0.0483696 0.07347698 0.36948413
000220 fa a6 d9 bd dc 91 14 bd ee c1 6b be c8 95 4b 3e
       -0.106275514 -0.036271915 -0.23023197 0.19881356
000230 47 2a 39 bc 8a 55 ac 3d 5e 3d e5 bd 78 cd 8e be
       -0.011301584 0.08414753 -0.111933455 -0.27891135
000240 d9 f7 6b be db 2a e6 bd 84 3f a0 be 81 34 30 3e
       -0.23043765 -0.11238643 -0.3129846 0.17207529
000250 17 28 57 bd de b8 52 3e 0f ef 26 be 6f ec 8f bd
       -0.052528467 0.20578334 -0.16302131 -0.07027518
000260 eb 13 c0 be 24 0a 45 be ed ca 30 be c1 e1 54 be
       -0.37515196 -0.1924215 -0.1726491 -0.20789243
000270 63 6c b1 3c 76 75 12 b8 7e e2 c9 3e 22 7d 85 3e
       0.021658128 -3.4918507e-05 0.39430612 0.2607203
000280 53 55 39 3e 5f 20 28 bc 63 7f 92 3d 30 4f 1e 3e
       0.18098955 -0.010261624 0.07153203 0.15459895
000290 26 33 9a be c9 c5 b3 3e fe 7b 80 bc de cb 20 bd
       -0.30117148 0.35111836 -0.015684124 -0.039256923
0002a0 ad ea f4 3d 91 95 f2 3d ec dc 23 b9 4b c0 0d 3e
       0.11958823 0.11844934 -0.00015627191 0.13842885
0002b0 62 68 47 be 59 c6 ce be 6c cc 0d be 6f cc 63 3b
       -0.19473413 -0.40385702 -0.13847512 0.0034759303
0002c0 df 72 82 bb ba 05 de 3c 71 82 81 3e c2 4a e8 3d
       -0.003980979 0.02710234 0.2529483 0.11342384
0002d0 aa 49 1b 3e 73 ca e2 3c 98 16 9c be f5 7b c0 be
       0.1516482 0.027684426 -0.30485988 -0.37594572
0002e0 b2 e5 1a 3d c3 1f 28 be c4 71 3f be 51 c8 28 be
       0.03781671 -0.16418366 -0.18695742 -0.16482665
0002f0 75 c1 5d 39 7d 5c c5 3e fb 0c df 3c 54 91 c1 bd
       0.00021148271 0.38547125 0.02722787 -0.09451547
000300 f2 f0 e0 3d 38 54 9d bd dc 0a 9d 3d 89 12 d6 be
       0.10983457 -0.07682079 0.07668087 -0.41811016
000310 02 1d 52 be eb c1 bd 3e 35 4a b1 3e e7 c5 25 3e
       -0.20518878 0.3706201 0.34626928 0.16188775
000320 94 9e 45 be 60 94 40 3c f1 29 c1 be b6 cb 2c 3e
       -0.19298774 0.011754125 -0.3772731 0.16874585
000330 97 a5 50 3d b9 7a 5a be ab 5c d6 bd 69 d2 86 3e
       0.05093917 -0.21335877 -0.10466894 0.26332405
000340 57 cf 8a be 2d eb 35 3e d3 68 eb 3e 7b be 88 be
       -0.27111313 0.17765494 0.45978412 -0.26707825
000350 4d f5 ea 3e 1c dd c9 3e 88 0c 02 3e bc 76 8e 3e
       0.45890275 0.39426506 0.12700093 0.27824962
000360 3e 2f 7a 3e dc c4 1c be f1 e4 b1 be 49 ff d7 3d
       0.24432084 -0.15309471 -0.3474498 0.10546739
000370 ce f6 57 be 23 72 c5 3e 32 ed a9 be 31 38 12 3e
       -0.21090242 0.38563642 -0.33188778 0.14279248
000380 23 bf a5 3e e0 5e 33 3d 5d 3c 11 3e 1b f1 0d 3e
       0.32372388 0.04379165 0.14183183 0.13861506
000390 3c b2 e8 3d 8a 28 07 3e 57 87 df be cf fb 14 3e
       0.113621205 0.13199058 -0.43657944 0.14549182
0003a0 48 ae bc be 42 c8 e4 be 0e df a4 3e 07 43 ef bd
       -0.36851716 -0.44684035 0.32201427 -0.11682706
0003b0 ef d0 e2 3d 0c d6 e0 3d e5 34 8c 3e f4 1f 9d 3e
       0.11075007 0.10978326 0.27384105 0.3068844
0003c0 2c fd d0 be 3f 04 02 be d1 9a 07 bc 70 7a 9e bd
       -0.40818155 -0.12696932 -0.008276657 -0.07738197
0003d0 c3 95 5e 3e 3e 0e 3f bd 25 34 c4 be 04 17 e2 bc
       0.21736817 -0.04664444 -0.38321033 -0.027598865
0003e0 cf e2 10 3d 5f 42 bb 3e 6c 38 e1 be ee 40 7d bd
       0.03537255 0.36574075 -0.4398836 -0.0618295
0003f0 bf 9c 6d be 87 f2 6d be be bc cb 3d 0e 6e 25 be
       -0.23204325 -0.23237048 0.09948109 -0.16155264

lstm.weight_hh_l1 f4 [40, 10]
000000 4e 1a f1 bd 1e c3 1b 3e 03 86 0d 3e a8 4e ee 3d
       -0.11772595 0.1521115 0.13820653 0.11636096
000010 1b f4 26 3e 2f 48 10 3e 21 bb 27 be 50 62 3a 3e
       0.16304056 0.14090036 -0.16379978 0.18201566
000020 3c e6 90 3d c8 fb 80 be bf 54 82 3e 0f 2d 0f 3e
       0.07075164 -0.25192094 0.2545528 0.13982032
000030 2e aa 2e 3e 54 8c 15 be 66 0a 27 be 8e 00 7c 3e
       0.17057106 -0.14604312 -0.1631256 0.24609587
000040 e0 ce ae be d5 6c b8 be ab 51 78 be 5f 9b 95 3d
       -0.34142208 -0.36020532 -0.24249904 0.07305025
000050 fe df 81 be 0c 66 c1 3d f9 c4 f8 3d 06 be 8a 3e
       -0.25366205 0.09443292 0.121469446 0.270981
000060 76 6b cf 3e 67 70 62 be d6 b5 1a be 67 8f 08 be
       0.40511674 -0.2211319 -0.15108427 -0.13335954
000070 b1 c7 8f be 45 44 0c 3c 7e 18 90 3d 1d e7 48 3e
       -0.2808204 0.008561199 0.070359215 0.19619413
000080 3b ae 67 be 80 f1 86 3e 1b 48 bb bd fb eb bf bd
       -0.22625057 0.26356125 -0.091446124 -0.093711816
000090 fd 9c c4 3c 0e 40 78 be 67 20 1f bd f3 6f 3a 3d
       0.02400064 -0.24243185 -0.03884926 0.04551692
0000a0 75 87 0d be c5 cf a9 be 7e 99 62 3e 07 6d 04 bd
       -0.13821204 -0.33166328 0.22128865 -0.03233054
0000b0 10 12 cb bc 88 3f a9 3e 1c 56 ac be c8 2a 0d be
       -0.024788886 0.33056283 -0.33659446 -0.13785851
0000c0 d2 ab 8f 3e 5e 6b 6e 3e b0 ff ca bd cf 28 aa bd
       0.28060776 0.23283145 -0.0991205 -0.08308565
0000d0 d8 d8 3a be fc aa c3 3e 8e 1a 65 bc f1 2b bf 3e
       -0.18246782 0.38216388 -0.013983382 0.37338212
0000e0 2f 3a c3 bd 11 45 b6 bc b3 ac a3 3e 43 d5 1b 3e
       -0.09532582 -0.02224973 0.31967697 0.15218072
0000f0 46 8b 77 3e 70 f7 84 be 07 9b 0a bf 14 71 a6 be
       0.24174222 -0.2597003 -0.541428 -0.32508147
000100 1d 97 bb be ba 1d a2 be e7 ad 63 3d 65 4d 8c 3e
       -0.36638728 -0.31663305 0.055585768 0.27402797
000110 a0 d8 91 be 7d 99 36 be 03 f3 cc be 23 30 aa be
       -0.28485584 -0.17831989 -0.40029153 -0.3323985
000120 89 f9 89 be 56 e1 ac 3d 52 98 37 be 45 7f 0e bd
       -0.26948193 0.08441417 -0.179292 -0.034789342
000130 c5 17 ef 3d 8d 61 a0 be 49 be 0e bd c5 4f b4 3d
       0.116744556 -0.31324425 -0.03484944 0.08804277
000140 35 5e 65 3e de 8d 7b be ea b2 22 3e 60 04 11 3e
       0.22399218 -0.24565837 0.15888563 0.14161825
000150 3e de 03 be 85 c1 98 3e 58 7a e4 bc 4c b6 83 be
       -0.12877747 0.29835144 -0.02789037 -0.2572502
000160 88 fb 0d 3d ed 63 93 bb 29 0b 72 bb 9e 65 8c be
       0.034663707 -0.004497996 -0.0036932922 -0.27421278
000170 12 39 00 3e df f2 48 3e 0d c9 b2 3d d5 79 02 be
       0.1252177 0.19623898 0.08729754 -0.12741788
000180 d1 5f 2c 3e c9 d4 6a bc d4 41 1b be 48 a4 2c be
       0.16833426 -0.0143329585 -0.1516183 -0.16859543
000190 b9 a9 8f be 06 ca 67 be 28 14 5f 3e ea 0f 10 3d
       -0.28059176 -0.2263566 0.21785033 0.035171427
0001a0 09 a8 8a 3e 01 bc 09 3e 39 6e bf 3b 44 18 14 3e
       0.27081326 0.13450624 0.005841997 0.14462382
0001b0 89 ff d6 3d 1b 22 c4 be 4f 1d 9c bd 29 49 a3 be
       0.10497958 -0.3830727 -0.07622778 -0.31891754
0001c0 1f aa 62 3d 3d f6 71 3e 84 27 23 be 54 cc 4a 3e
       0.05533802 0.23629089 -0.15933043 0.19804507
0001d0 82 f3 15 3e 66 90 b0 bd d1 2a af bd 2e dc de 3d
       0.14643672 -0.08621292 -0.085530885 0.1088184
0001e0 87 61 b2 bc 37 51 1f 3e f4 61 6a 3e 52 f1 50 3e
       -0.02177502 0.15558325 0.22888929 0.20404556
0001f0 19 0a 43 bd 15 3f a0 bd b8 93 8a 3e 64 2e d8 3d
       -0.04761705 -0.07824532 0.27065825 0.10555723
000200 f8 1e 27 be c3 ed cb 3d 67 1c 90 3e 7a 9b 39 bd
       -0.16320407 0.09957459 0.2814667 -0.04531429
000210 bb 65 85 3e 25 a1 b1 bd 57 ec 8f 3e 45 63 85 bd
       0.26054177 -0.08673314 0.2811 -0.06513075
000220 d8 bc c6 bc fd 0e a5 3e 33 96 bc bc fc 7f c0 be
       -0.02425997 0.32237998 -0.02302084 -0.37597644
000230 01 96 4e 3e 2e 5f 94 be d3 f1 43 be 08 95 a2 3e
       0.2017441 -0.28978866 -0.19135217 0.31754327
000240 59 16 96 be 48 08 8e 3d c8 26 66 3d f8 85 d6 3c
       -0.29313925 0.06935173 0.05618933 0.026186928
000250 7e 90 b3 bd 65 ac 1c 3e b0 d5 ef bb d0 85 b4 be
       -0.08767794 0.15300138 -0.0073191747 -0.3525834
000260 14 8a f8 bd db e9 fd bd 5d 1e 32 be 0a 07 15 3e
       -0.12135711 -0.1239812 -0.17394395 0.14553466
000270 a1 32 3b 3e fb 1b 01 be 42 4e 1f bc 67 8e 5a be
       0.18281032 -0.1260833 -0.009723248 -0.21343385
000280 c1 6f fe bd 33 bd 41 3e ac 4a e6 bd 14 75 55 be
       -0.12423659 0.1891983 -0.11244711 -0.20845443
000290 7a cc 4e 3e 33 68 13 be cb f0 18 3e 5f 49 dd 3d
       0.20195189 -0.14395218 0.14935605 0.1080501
0002a0 4b 6f b0 3d e3 78 59 be 90 3c 26 3e a9 77 e1 3c
       0.086149774 -0.21237521 0.1623404 0.027522879
0002b0 1d 1c fc bc dc 25 aa 3c 61 1c 1d be 3d 39 a8 3d
       -0.030775124 0.020770006 -0.15342857 0.08214042
0002c0 9a e2 c0 be 30 bb 8b be ee ad d1 3e 3c b1 a5 3e
       -0.37672883 -0.2729125 0.4095301 0.32361782
0002d0 53 d1 89 bc f3 90 75 be 87 a2 8c 3d 70 27 97 3e
       -0.016823446 -0.23981075 0.06866937 0.29522276
0002e0 71 7c 97 be a9 1d cc 3d 60 eb a4 be da 95 53 3d
       -0.2958713 0.09966595 -0.32210827 0.05165658
0002f0 d9 83 ac 3e 06 e9 b8 3e 52 02 50 3e c1 cc 6e 3e
       0.33694342 0.36115283 0.20313385 0.23320295
000300 27 eb a5 bd 4b 5b 74 3c 5f 4a 74 3d b4 b6 d0 3c
       -0.081014924 0.014914344 0.05964124 0.025477745
000310 52 04 56 be b6 62 a3 be e9 6b 5d 3d 9b ef 53 3e
       -0.20900086 -0.31911248 0.05405799 0.20696871
000320 35 28 69 3e 6e a8 79 3e 5d 4b f2 3d 21 3f 4c be
       0.22769244 0.24380657 0.11830781 -0.19945957
000330 da 59 80 3e f0 08 8e bc de 4b 95 be ef 0d f6 3d
       0.2506855 -0.017338246 -0.29159445 0.12014376
000340 a5 25 9d 3c 18 7b 1c be a0 30 b2 bd 56 b0 25 3d
       0.01918299 -0.15281332 -0.08700681 0.04045137
000350 18 f6 35 be 94 f1 27 3e 7d 42 5d bd 7a 91 64 be
       -0.17769659 0.16400748 -0.054018486 -0.2232112
000360 53 1d 85 be 4b 8b ac 3e 20 c1 56 bd e3 7f f4 bd
       -0.25998935 0.33700022 -0.052430272 -0.11938455
000370 56 12 ec 3d 50 41 d0 be 24 a1 78 3e b3 77 23 be
       0.11526935 -0.4067483 0.2428022 -0.1596363
000380 4e 90 08 be 1b 09 8b 3e ee 2d 39 bd 82 88 8c bc
       -0.13336298 0.27155384 -0.045209818 -0.017154936
000390 82 1c 80 3d 70 72 c8 3e 89 d5 f3 bd 77 20 d0 3d
       0.062554374 0.3914981 -0.11905963 0.10162442
0003a0 86 bc 89 3e cf 9f 01 3d 74 46 03 3e 57 14 1f be
       0.26901644 0.031646546 0.12819844 -0.15535103
0003b0 52 58 d8 3c 47 d1 51 be 43 21 28 3e f0 4f 38 3d
       0.026409302 -0.20489989 0.16418938 0.04499811
0003c0 95 c6 7a 3e d9 42 b0 be fa d7 54 3e 13 2f a5 3d
       0.24489816 -0.34426 0.20785514 0.08065619
0003d0 1b d6 4b 3e dc 7c 5d be 31 b7 26 be cd d8 96 be
       0.19905894 -0.21629661 -0.1628082 -0.2946228
0003e0 d8 d1 b6 3c e2 0b a0 3e ca 62 b4 be eb 02 f8 bd
       0.022316858 0.31259066 -0.3523162 -0.121099316
0003f0 6b 56 53 3d 96 b3 69 bd 92 bc 87 be 34 f4 1b 3e
       0.051596086 -0.057056032 -0.26511055 0.15229875

lstm.bias_ih_l1 f4 [40]
000000 23 ab ed 3c 1b b2 12 3e bb 41 1a be 3f a7 38 3e
       0.029012268 0.14325754 -0.15064137 0.1803255
000010 74 22 45 3b 8c 0b e2 3e f2 35 a0 bc 08 7b 81 3d
       0.003008035 0.44149435 -0.019556973 0.063222945
000020 ab 1c ad 3e ca e0 de 3d d4 02 bd 3d 0a 2a 37 3d
       0.33810934 0.10882719 0.09229055 0.044717826
000030 be 92 16 3d b2 56 91 be 9d 2d e4 3c b4 3d be 3d
       0.036761038 -0.28386456 0.027853781 0.09289113
000040 c4 43 34 bd 97 b3 29 be a1 33 f9 3d a9 df 7b bd
       -0.04400994 -0.16572414 0.121680506 -0.061492596
000050 dc ed 90 be 81 36 67 be cc d2 7f be ae 7c 90 3d
       -0.28306472 -0.22579385 -0.24982756 0.07055031
000060 4a 01 ef bc 3e 6e 3c 3e 16 66 cb bd 5e 5c d2 be
       -0.02917542 0.18401429 -0.09931581 -0.41086096
000070 bc 61 bc 3e 11 c3 ed 3d 4e 39 22 be 3e 87 7d bd
       0.36793315 0.116094716 -0.15842173 -0.061896555
000080 3e 99 d0 bd 1f 58 55 3e 34 04 1e 3e 10 8a 82 3e
       -0.10185479 0.20834397 0.15431291 0.25495958
000090 96 09 cb 3d 52 e8 f8 3e 81 cb 42 3e 0c 4a ef 3d
       0.09913938 0.48614746 0.19022943 0.11684045

lstm.bias_hh_l1 f4 [40]
000000 91 2f 27 be 79 12 c8 3e 00 d9 2a be 62 a1 d4 3d
       -0.16326739 0.39076594 -0.16684341 0.10382344
000010 73 99 4a 3e e8 f7 64 bc 5b f9 6a 3e 29 49 48 3e
       0.19785099 -0.013975121 0.22946684 0.19559158
000020 7a a4 a7 bc 9e 20 e9 bd 1a c4 17 3e 6d 91 8d 3e
       -0.02046417 -0.11383174 0.148209 0.27650014
000030 fa 4b 59 3e 5e 0e 14 3e 96 2a 2f be 11 41 e2 3d
       0.21220389 0.14458606 -0.17106089 0.11047567
000040 2d 72 81 be 55 f4 3e 3e c2 f1 5f 3d 80 19 56 3e
       -0.25282422 0.18647893 0.054673918 0.20908165
000050 88 95 64 be 8c a4 1b 3e ed 9e 46 be 15 38 a4 3e
       -0.22322667 0.15199488 -0.19396563 0.32074037
000060 fd bf 4b 3e 86 d9 2e 3e a0 90 b9 be 11 a1 9a 3d
       0.19897456 0.17075166 -0.36243153 0.07550252
000070 7a 2a b3 3e 16 7b 69 3e 01 9e 1f be 2e 3c 2e 3e
       0.34993345 0.2280086 -0.15587617 0.17015144
000080 07 95 4d be 95 d0 26 3e db ec a6 3e 10 da 8b 3e
       -0.2007638 0.16290505 0.3260258 0.27314806
000090 3a d8 c0 3e 40 53 af 3e d7 7c d1 3e 74 04 44 3e
       0.37664968 0.34243202 0.40915558 0.19142324

lstm.weight_ih_l2 f4 [40, 10]
000000 e6 3c b9 bd 66 df 0b 3e 8b 98 c8 bd 96 9e 3e bd
       -0.090448186 0.13659438 -0.0979472 -0.046537958
000010 b2 bd 79 3e 75 69 0e be db e1 dc be 68 b2 e0 bd
       0.2438877 -0.13907416 -0.43141064 -0.10971528
000020 68 e4 59 3e 5a 6a b9 3e 7a 14 2f 3e a6 74 d9 be
       0.21278536 0.36213952 0.17097655 -0.42471808
000030 53 82 87 bc 88 cf 31 3d 41 6d 0d 3f 8f 94 16 3e
       -0.016541636 0.043410808 0.55244833 0.14705108
000040 a5 5e 64 be 64 25 b3 be af 5d 24 3e a3 63 eb 3e
       -0.22301729 -0.34989464 0.16051362 0.45974454
000050 ba a3 dd bd 94 86 00 3d 8f 5d a6 be 06 43 84 bd
       -0.10822244 0.031378344 -0.32493255 -0.06458096
000060 f9 b8 a4 3e 53 dc 6a 3e 62 1b 5c be 4a c1 92 3e
       0.32172373 0.2293561 -0.2149482 0.28663093
000070 b8 f3 62 be 7e b4 2c be eb 19 7c be 55 f9 00 3e
       -0.22163284 -0.16865727 -0.24619262 0.12595113
000080 ad 3f 42 be 86 b0 6c 3e a4 3b 3f 3e e7 63 91 be
       -0.18969603 0.23114213 0.18675095 -0.28396532
000090 14 f8 d9 3d c9 53 b3 3e 4f 1b 7b 3d 8d e6 d1 bd
       0.1064302 0.3502486 0.06130534 -0.10249052
0000a0 64 a0 d2 3d 61 7a ab be 5d 39 7b be f1 20 e3 3e
       0.10284498 -0.33491805 -0.24533601 0.4436107
0000b0 85 3d 1a 3e 38 a4 81 3e e2 4b 5e bd e6 c4 02 bf
       0.1506253 0.253206 -0.054271586 -0.51081693
0000c0 8e 36 db 3d 66 91 40 3e a7 af 55 3d 33 bf ae be
       0.10703765 0.18805465 0.05216947 -0.34130248
0000d0 be a6 de 3d 66 7a 1b be 0e 60 89 3d 11 40 b6 3d
       0.10871647 -0.1518341 0.06707774 0.088989384
0000e0 bd 70 3b 3e c9 3f 1c 3d 87 16 95 bc 14 12 70 be
       0.18304725 0.038146768 -0.018199218 -0.23444396
0000f0 b2 a4 fe 3d 57 a2 c3 be 68 3d 48 3e 99 5b 0c 3e
       0.12433757 -0.38209793 0.19554675 0.13706817
000100 81 05 ac 3d ee b9 fc 3d f8 78 21 be dd 81 ff be
       0.08399487 0.12340151 -0.15768802 -0.49903765
000110 26 ab 7b 3b 50 fe ef 3e 07 3b 72 be fb 1a 34 be
       0.0038401573 0.46873713 -0.2365533 -0.17588417
000120 17 14 41 3e f0 94 45 bd 7d c9 28 3c f8 b2 90 3d
       0.1885532 -0.04823774 0.010301945 0.070653856
000130 25 fd d6 be ed 7a c2 be 95 4f 22 3d a1 fc 10 3e
       -0.4199001 -0.3798441 0.039626677 0.1415887
000140 fd 6b 96 be 6b 08 ad bd 66 e2 ed 3d 2c ca 84 3e
       -0.29379264 -0.08448871 0.11615448 0.25935495
000150 d1 6e d3 3e 86 d3 05 3f 64 5c 5d be c4 54 f8 be
       0.41295484 0.52275884 -0.21617275 -0.4850217
000160 9f 24 c5 3d c7 10 27 3e f3 b5 c9 be bd 8f 3c be
       0.096261255 0.16314994 -0.3939663 -0.18414207
000170 a1 79 e4 bd 79 71 b6 3e 55 71 88 3e e0 b1 69 3e
       -0.111560114 0.35633448 0.26648965 0.2282176
000180 a1 0a 80 bd 9c 1b 90 3d 48 94 90 3e 44 77 d3 3e
       -0.06252027 0.07036516 0.2823813 0.4130193
000190 ec 97 d9 bc d8 9a 45 be 04 80 ad 3d 69 99 8a 3e
       -0.0265617 -0.1929735 0.08471683 0.27070168
0001a0 85 01 a8 bd e6 53 7c be c4 a1 6d 3e b1 d8 08 3e
       -0.08203415 -0.2464138 0.2320624 0.13363911
0001b0 f6 e1 82 be 4e 12 8c be 8d 1d 36 3e 4c 38 3d 3e
       -0.2556302 -0.27357715 0.1778471 0.18478507
0001c0 a2 54 58 be 17 6d d5 3d 33 f5 e4 ba 2c 76 95 be
       -0.21126035 0.10421198 -0.0017468095 -0.2919172
0001d0 25 da 10 bd b4 84 8f bd 12 d0 6f 3e 04 52 90 3e
       -0.03536429 -0.07007733 0.23419216 0.28187573
0001e0 52 ad ea 3c a3 3c 36 3e 82 e9 55 3d a2 a7 59 be
       0.028647099 0.17796569 0.052224644 -0.21255353
0001f0 17 47 6b be a8 5d 73 be 9c 25 30 3e c5 c0 b9 3e
       -0.22976337 -0.23766196 0.17201847 0.36279884
000200 38 a7 4b be 6b 33 e7 3d c3 63 92 3d 88 f1 27 3e
       -0.19888008 0.11289104 0.07147934 0.1640073
000210 2d ae ba 3d 11 fa 37 3e f4 b6 c8 bb 5f 47 41 3e
       0.09115253 0.17966487 -0.0061253253 0.18874882
000220 5a f6 4f 3e 77 5e 7f 3d 97 a1 97 bd bb 82 97 bd
       0.2030882 0.062345948 -0.07403868 -0.07397982
000230 cc ff ac be b4 a6 aa be 11 1a c9 3a 66 ef 99 3e
       -0.33788908 -0.3333031 0.0015342851 0.3006546
000240 75 c6 eb 3e f4 3b 74 3d 67 c1 56 be a5 d2 96 be
       0.46049848 0.05962749 -0.20972215 -0.29457584
000250 13 20 34 3e 49 5c 03 3e 9a b4 8f bc 66 25 a4 bd
       0.1759036 0.12828173 -0.017542172 -0.08014946
000260 0d 10 f8 3d e8 74 6a 3e 95 d8 ff 3c c2 62 3d 3c
       0.121124364 0.22896159 0.031231204 0.01155919
000270 f8 fa a7 3d e2 b1 9a 3e 2f 6a 5a 3c 53 83 e3 be
       0.08202165 0.3021384 0.01333098 -0.4443613
000280 c7 45 24 bd 7c 17 a6 3d 16 4f 63 3e c2 de fd 3d
       -0.040105607 0.08109948 0.22198138 0.12396003
000290 38 bb 91 bd ab 16 91 3e 08 22 b4 bd 64 54 ec be
       -0.07115787 0.28337607 -0.087955534 -0.46158135
0002a0 92 45 7f 3e 22 eb 71 3e ed bc eb bd a9 a9 95 be
       0.24928883 0.23624852 -0.11510644 -0.29231003
0002b0 8c f3 5a 3e eb 53 44 3e 12 8c 26 3e d2 7d 00 3e
       0.21381968 0.19172637 0.1626437 0.12547997
0002c0 34 58 c7 bd 89 b3 68 3e 45 63 ad 3d c5 39 bd 3d
       -0.0973362 0.22724737 0.084662 0.09239534
0002d0 bb 83 67 3e ef 88 bd 3e 1b f0 9a bc e2 f6 48 be
       0.22608845 0.37018535 -0.01891332 -0.19625428
0002e0 cf 4a 02 be 83 c1 c8 be c0 55 b2 3e ec 14 9f bd
       -0.1272385 -0.39210138 0.34831047 -0.077676624
0002f0 4f 0f 8c bd da 0c ee bd d8 22 5c 3d 18 e3 98 be
       -0.068388574 -0.11623545 0.053744167 -0.2986076
000300 35 8b 0c bd f6 5c 7b be ca 71 67 be 8d 3f aa 3e
       -0.034312446 -0.2454718 -0.22602001 0.3325161
000310 2d fe 59 be ca f1 94 3e 24 3a d5 bd b8 fb 76 be
       -0.21288367 0.2909072 -0.1041148 -0.2411946
000320 1d 4c 0d 3d b8 09 a9 3e 35 c9 04 bd 76 9d 7d 3d
       0.034496415 0.33015227 -0.03241845 0.061917745
000330 89 94 20 be e8 42 a1 be b2 7d 32 be a7 b3 3a 3e
       -0.15681662 -0.31496358 -0.17430761 0.18232594
000340 96 fd bd be 4a 1d cb be 71 17 49 be 57 2e 59 be
       -0.37107533 -0.39670783 -0.19637848 -0.21209083
000350 22 24 60 bd 3f 31 32 3e f7 d7 14 bd 9e 41 ef 3e
       -0.05472196 0.17401598 -0.036338773 0.4672975
000360 6f e7 d1 be 30 bc 90 be ca 57 b9 bd 9d 1a ca 3e
       -0.40996882 -0.28268576 -0.090499476 0.3947343
000370 37 59 ec bd 7b 36 a9 bd 04 ae 53 be e8 61 9f 3d
       -0.11540454 -0.082623444 -0.2067185 0.07782346
000380 fe 27 9f 3c 7f 4e bf 3e 86 3f 44 3d 25 4b 1a 3e
       0.01942825 0.37364575 0.047912143 0.15067728
000390 e5 7a b5 3e 9e d0 f9 3d a4 bc b4 3d 66 d1 42 3e
       0.35445324 0.12197994 0.08825043 0.19025192
0003a0 44 92 72 3d e9 f3 13 be 0f 46 d4 3d 03 ee 0b be
       0.05922152 -0.14448513 0.10364925 -0.13665013
0003b0 42 7e 6c bd 38 17 c4 be 10 d1 9f bd 9b 44 cf 3c
       -0.057737596 -0.38298965 -0.078035474 0.025301268
0003c0 22 14 98 3e 84 2a ea bd 4b 6f 54 be c7 80 a6 be
       0.2970286 -0.114338905 -0.2074558 -0.32520124
0003d0 bd 8a fc be 32 87 a4 be 51 58 b4 3d fe d7 30 3c
       -0.493246 -0.32134396 0.088059075 0.010793684
0003e0 5a 74 f6 bc 79 5e 3b bd 6e 62 03 3e d0 96 80 be
       -0.030084778 -0.045744393 0.12830517 -0.2511506
0003f0 c3 52 6a 3e e9 36 cc 3e 34 28 b4 3e 4d 7d 8a 3e
       0.22883134 0.39885643 0.35186923 0.27048722

lstm.weight_hh_l2 f4 [40, 10]
000000 f9 01 f0 3d 31 eb 78 be 0e 60 52 3e 17 0e 49 3e
       0.11719126 -0.24308468 0.20544454 0.19634281
000010 e7 fd 40 3e 37 d1 05 bd 52 7d bf 3e bc 1e f8 bc
       0.18846856 -0.032670226 0.374003 -0.030288093
000020 d9 4e 18 3e ae e6 59 be 57 f4 98 be 2c 6e 52 3e
       0.14873828 -0.21279404 -0.29873917 0.2054984
000030 9f 8c 78 be c3 41 dc bd 76 c0 bb 3d 9f f6 64 bd
       -0.24272393 -0.107547306 0.091675684 -0.05589926
000040 cb 92 49 3e d1 1b 48 be 73 b5 26 3e c5 09 94 bc
       0.19684903 -0.19541861 0.16280155 -0.018071065
000050 50 ee 2c 3d 3a 25 08 3e 30 bd 5e 3e e0 65 6e 3e
       0.04221946 0.13295451 0.21751857 0.2328105
000060 d3 68 0d 3c 41 df 88 be 8e 19 85 bc b8 ce b3 bb
       0.008630949 -0.2673283 -0.016247537 -0.0054872893
000070 a5 37 71 3e d5 1c 7b 3e a4 cc 91 3e 81 7d ed 3d
       0.23556383 0.24522717 0.2847644 0.115962036
000080 7d 39 17 3e 01 b3 08 bd c6 5a 2d 3e 98 0c 31 3e
       0.14768024 -0.033373836 0.16929159 0.1728996
000090 96 c6 20 3e 51 99 ea bd cd ce 89 3c 43 db ec 3c
       0.15700755 -0.11455024 0.016822243 0.028913146
0000a0 57 80 1b 3e ef f7 30 3e 80 b5 0e be da f1 a1 bd
       0.15185677 0.17282079 -0.13936424 -0.07907458
0000b0 ff b1 ff 3d 81 bc 8b 3e cb cc 50 3e d8 96 cb be
       0.12485122 0.27292255 0.20390622 -0.39763522
0000c0 71 35 07 be 4c db a4 be ab ad 57 be c3 cb 40 be
       -0.1320398 -0.3219856 -0.21062343 -0.18827729
0000d0 f0 90 f8 3c 68 e8 c4 3d 50 55 1e be 0a 58 55 3e
       0.03034255 0.096146405 -0.15462232 0.20834365
0000e0 74 8b 60 3e 75 0e 66 3e c8 59 dc 3e b8 3f 20 3e
       0.21928197 0.22466452 0.43037248 0.15649307
0000f0 7c 84 66 be 21 c3 9c 3d b4 fc 21 be 60 ee 08 3e
       -0.22511476 0.076544054 -0.15819055 0.13372183
000100 57 72 c4 be 44 3d 9e be 65 87 5c 3d d0 9e 37 3e
       -0.38368484 -0.30906117 0.05384006 0.17931676
000110 08 91 46 be 0b 6c 7b be 39 83 12 bd 52 d2 4b 3e
       -0.19391263 -0.24552934 -0.035769675 0.1990445
000120 cf 5e 4c be 55 c4 16 be ce 40 00 3d e6 fd a3 be
       -0.19958042 -0.14723332 0.031311803 -0.32029647
000130 06 44 03 3e 24 c0 53 bd 07 14 ad 3d 7d 58 d3 be
       0.12818918 -0.05169691 0.084510855 -0.4127845
000140 82 88 0a 3e cc c7 d7 bd 48 60 98 3c 90 16 80 bd
       0.13528636 -0.10536155 0.018600598 -0.062543035
000150 c2 65 38 be 5f 03 6c 3c 15 fc 95 3e 8a f3 ae 3d
       -0.18007568 0.014405101 0.29293886 0.08542545
000160 d5 0e ea 3e 75 9a 1f be 6d 01 41 3d 79 d7 71 bd
       0.4571444 -0.15586264 0.0471205 -0.05904338
000170 f7 66 06 3e a4 7d 82 3d 89 24 34 be 39 fd ae be
       0.13125215 0.0637162 -0.17592062 -0.3417757
000180 e1 cd 81 3e 70 62 02 3e 2d c6 03 be 6b b6 69 bc
       0.25352386 0.12732863 -0.12868567 -0.014264683
000190 e1 fb 46 3e 1b a5 de bd 1c be b9 ba 0b f5 f3 3d
       0.19432022 -0.10871335 -0.0014171037 0.119119726
0001a0 f4 02 89 be a3 64 b8 be 2d a9 84 bd c3 96 2c 3d
       -0.26760066 -0.3601428 -0.0647758 0.042135965
0001b0 f5 d2 eb 3d 07 97 5a 3e 63 43 7f be a9 07 c0 3d
       0.11514846 0.21346675 -0.2492805 0.09376461
0001c0 e5 63 69 3e 87 78 32 3e 41 ec 71 3e 02 6d 91 3d
       0.22792013 0.1742879 0.2362528 0.0710087
0001d0 6e a0 98 be 2c 66 fb bd 4b fe ab 3e e7 58 a2 3e
       -0.29809898 -0.12275347 0.33592448 0.31708452
0001e0 fc d1 23 be 88 74 a3 be 4a c6 80 be 7e b5 7c 3d
       -0.15998071 -0.31924844 -0.25151283 0.061696522
0001f0 ba 52 c7 3e ca 25 b1 be 4f ac 54 3e 4f e1 cf bd
       0.38930303 -0.34599143 0.20768856 -0.10150396
000200 37 fb 88 3e 2d 79 4e be aa d2 38 be 7b 35 0b be
       0.26754162 -0.20163412 -0.18049112 -0.1359462
000210 37 9d 67 3d b3 2b ed bc b2 05 c8 3d e8 7a 41 be
       0.056546416 -0.028951501 0.09766711 -0.18894541
000220 fd c8 31 be 87 90 1c 3e d5 63 a6 3d c9 e6 96 3e
       -0.17361827 0.15289508 0.0812451 0.2947295
000230 b0 2e c5 be a3 dc da 3e d3 e5 5a be eb 3b 76 be
       -0.38512182 0.42746457 -0.21376733 -0.24046294
000240 a3 75 41 be c0 3f 80 3d aa 07 59 be 76 f9 62 be
       -0.18892531 0.06262159 -0.2119433 -0.22165474
000250 ae 61 b5 3c 4d ed 3e bd 87 73 90 3c 6d 0a 17 be
       0.022141304 -0.046613026 0.017633213 -0.14750071
000260 a4 cd 4a 3b dc 35 9a 3e 9a 7a 02 3e 69 58 cd bd
       0.0030945325 0.30119216 0.12742081 -0.100266285
000270 c7 46 ea bd dd eb e3 3e cd 47 af 3e c1 d6 06 3d
       -0.11439281 0.44515887 0.34234467 0.03291965
000280 0b 29 88 bd 93 30 9a bd f6 bd 85 be 7d 70 32 3e
       -0.06648453 -0.07528796 -0.2612149 0.17425723
000290 2c 38 68 be 46 e0 89 3c e8 1a 7b bc 9d 08 92 be
       -0.22677678 0.016830575 -0.015326239 -0.28522196
0002a0 bd 45 36 be 5d cb 1f be 17 c0 62 be b5 2a b5 3d
       -0.1780004 -0.1560492 -0.22143589 0.08846036
0002b0 be 90 92 be 86 46 bd be 0c 39 0d be 12 b5 ca 3d
       -0.28626055 -0.36967868 -0.13791293 0.09897818
0002c0 f2 14 34 3e ed d3 68 be 3b 5e e7 3d a4 6e b1 3d
       0.17586115 -0.22737093 0.1129727 0.08663681
0002d0 a2 b9 34 3e 03 6d d6 be 25 90 7e be c8 df 41 be
       0.17648938 -0.41880044 -0.24859674 -0.18933022
0002e0 98 34 63 3d 3b 1f 93 be 9b 01 f5 be 87 1b 49 3e
       0.05547008 -0.28734764 -0.47852787 0.19639407
0002f0 e8 68 d2 3e c1 c3 a9 3c 29 33 a7 bd 6f 31 80 be
       0.41095662 0.020723226 -0.08164055 -0.25037715
000300 06 8d d0 be 6d d9 69 3e 37 55 15 3e b7 9c fd 3d
       -0.40732592 0.22836848 0.14583288 0.123834066
000310 40 8d aa 3e 9d 89 39 3e 87 1b f9 bd 99 e0 67 be
       0.3331089 0.18118902 -0.121634535 -0.22644271
000320 74 1d 08 3e a5 09 c9 bc 85 7c a5 3e 1a 24 9f 3e
       0.13292485 -0.024540732 0.32321563 0.3108223
000330 27 fc 8e 3e a6 ec 20 3e 4c 1d 0f be 56 43 0c be
       0.27926752 0.15715274 -0.1397602 -0.13697562
000340 7d 86 33 3d f1 f8 16 be 7a 4b 11 bc 3f 39 4c 3e
       0.04382943 -0.14743401 -0.008868093 0.19943713
000350 c6 5e 7f 3e 28 0f 21 be 4b 92 47 3c cb a3 ef bd
       0.24938497 -0.15728438 0.012180875 -0.11701163
000360 20 16 02 3d 3f 4d 58 bd e7 44 67 3e 1a 3f de bd
       0.03175938 -0.052808043 0.22584878 -0.108518794
000370 93 66 20 3e 40 81 3b bd 94 03 05 be 7b 40 9b be
       0.15664129 -0.04577756 -0.12989646 -0.30322632
000380 8f 0c 8f bd f3 b9 87 be 72 75 71 3e be ce 3c be
       -0.06984817 -0.26509055 0.23579958 -0.18438241
000390 ba c2 3b 3e c3 5c 7e 3e 81 44 c6 bd 6c 23 3f 3e
       0.18336001 0.24840073 -0.09681035 0.18665856
0003a0 ba 0d 6c 3e b7 54 aa be 0c ba 24 3c 9c 19 40 3e
       0.23052111 -0.33267757 0.010054123 0.18759769
0003b0 ce cf 0e be 30 47 c7 3d 08 0f b3 3e 3c 18 3c 3d
       -0.13946459 0.09730375 0.34972405 0.04592155
0003c0 f4 e4 96 3e 7a 15 86 be b0 32 4a be b7 89 f7 bd
       0.29471552 -0.2618826 -0.19745898 -0.12086814
0003d0 78 1f 0e 3e b4 b8 2b be ec 76 03 3e 89 c1 a2 3e
       0.13879192 -0.16769677 0.12838334 0.3178828
0003e0 9f e2 8a 3e ab b0 ca 3e 16 5e 9a be db cc c1 bd
       0.27126023 0.39587912 -0.30149907 -0.09462901
0003f0 c5 72 da bd 23 b1 7b 3e 1a dd a6 be 23 87 ab 3d
       -0.10666422 0.24579291 -0.32590562 0.08375385

lstm.bias_ih_l2 f4 [40]
000000 04 f3 ba 3d c6 bc 6c bd bd 74 37 3e 18 44 20 be
       0.09128383 -0.057797216 0.17915626 -0.15650976
000010 a6 55 9f 3e 72 82 77 3d 2f b6 54 3e 84 0f c7 3e
       0.31120032 0.060427137 0.20772623 0.38879025
000020 d6 64 b1 3e 47 85 cf 3e 33 cc 2a be d0 11 b7 3d
       0.34647244 0.4053137 -0.16679458 0.08938944
000030 b5 9e f5 bd 81 6c dd bd b2 da 06 3e 21 b0 b4 be
       -0.119931616 -0.10811711 0.13169363 -0.35290626
000040 ec db fc bc ee db 22 3e c3 d0 a9 be 9a be 0a be
       -0.030866586 0.15904209 -0.33167085 -0.13549271
000050 cd ae b9 bd 31 5e 0e 3e 5f 72 58 be 6b 9b 3b be
       -0.09066544 0.13903119 -0.21137379 -0.18321006
000060 46 be e5 be 1c ed 06 be 48 0a e7 3d af 01 f3 3b
       -0.4487173 -0.13176388 0.11281258 0.007415972
000070 3d bb 7b 3e 6d e1 b9 be 11 d0 1b 3e f0 ed be 3e
       0.24583144 -0.363048 0.1521609 0.37290907
000080 84 f4 56 be 55 b5 f9 3d 6b 4d d8 3e ac 0b a6 bd
       -0.20991713 0.121927895 0.42246565 -0.08107695
000090 83 18 31 3e c7 ba 6a 3d e4 d6 94 3e 4d 35 42 3e
       0.17294507 0.05730703 0.290702 0.18965645

lstm.bias_hh_l2 f4 [40]
000000 bc c9 58 3e 0a c7 aa 3b bf 64 fd 3d 10 03 bc be
       0.21170706 0.0052117156 0.123727314 -0.36721087
000010 51 98 ed bd 6a a1 66 3e b5 a1 b7 3e c0 a4 ab 3e
       -0.11601318 0.22522512 0.3586556 0.33524132
000020 e2 c8 8c 3d 7f c6 94 bd 53 38 5a 3c 5f 7f 0a bd
       0.06874253 -0.072644226 0.013319093 -0.033812877
000030 cf de 25 bd 97 d2 15 be 1d fd 5a 3c b5 52 4a be
       -0.04049569 -0.14631115 0.013366011 -0.19758113
000040 b9 fb 52 3d 11 13 28 bd 92 c5 8f be dc 2e 78 bd
       0.051509593 -0.04103381 -0.28080422 -0.060591564
000050 2a fe ad be 5b 18 9a 3d 19 93 10 3e be 00 b1 bd
       -0.33982974 0.07524177 0.14118613 -0.0864272
000060 11 b4 45 be e0 09 ef bd 09 96 94 3e 6e 30 cc be
       -0.19306971 -0.116718054 0.29020718 -0.398807
000070 71 11 d8 bd fd 58 97 3d ab 1b 98 3e 6d 5a d0 bc
       -0.10550202 0.0739002 0.2970861 -0.025433743
000080 6f 95 4a 3d d0 c9 23 be 5a d6 a6 3e 4c 38 cf 3d
       0.049458917 -0.15994954 0.32585412 0.1011816
000090 6b 6d fa bd fd 50 7e bd 18 1d 71 3e 47 c8 42 3e
       -0.12227901 -0.062088955 0.23546255 0.19021712

fc.weight f4 [1, 10]
000000 b7 f9 d2 be b5 fe 73 3e 09 7f 0b 3e 50 88 7c 3e
       -0.41206142 0.23827632 0.13622679 0.24661374
000010 2f 65 bf bd 6c 11 2c 3e d8 8d 8a 3e db c7 92 be
       -0.09345471 0.16803521 0.27061343 -0.28668103
000020 b4 6c 98 bd fe 28 d5 be
       -0.074426085 -0.41632837
